…
random_seed: 831486
stepvalue: 60000
stepvalue: 140000
type: "Nesterov"
I0215 10:19:38.113417  4596 solver.cpp:81] Creating training net from train_net file: models/pascal_voc/VGG16/dense28net/train_densenet.prototxt
I0215 10:19:38.116902  4596 net.cpp:49] Initializing net from parameters: 
name: "Densenet_28_layers"
state {
  phase: TRAIN
}
layer {
  name: "input-data"
  type: "Python"
  top: "data"
  top: "im_info"
  top: "gt_boxes"
  python_param {
    module: "roi_data_layer.layer"
    layer: "RoIDataLayer"
    param_str: "\'num_classes\': 21"
  }
}
layer {
  name: "Convolution1"
  type: "Convolution"
  bottom: "data"
  top: "Convolution1"
  convolution_param {
    num_output: 16
    bias_term: false
    pad: 1
    kernel_size: 3
    stride: 1
    weight_filler {
      type: "msra"
    }
    bias_filler {
      type: "constant"
    }
  }
}
layer {
  name: "BatchNorm1"
  type: "BatchNorm"
  bottom: "Convolution1"
  top: "BatchNorm1"
  param {
    lr_mult: 0
    decay_mult: 0
  }
  param {
    lr_mult: 0
    decay_mult: 0
  }
  param {
    lr_mult: 0
    decay_mult: 0
  }
}
layer {
  name: "Scale1"
  type: "Scale"
  bottom: "BatchNorm1"
  top: "BatchNorm1"
  scale_param {
    filler {
      value: 1
    }
    bias_term: true
    bias_filler {
      value: 0
    }
  }
}
layer {
  name: "ReLU1"
  type: "ReLU"
  bottom: "BatchNorm1"
  top: "BatchNorm1"
}
layer {
  name: "Convolution2"
  type: "Convolution"
  bottom: "BatchNorm1"
  top: "Convolution2"
  convolution_param {
    num_output: 12
    bias_term: false
    pad: 1
    kernel_size: 3
    stride: 1
    weight_filler {
      type: "msra"
    }
    bias_filler {
      type: "constant"
    }
  }
}
layer {
  name: "Dropout1"
  type: "Dropout"
  bottom: "Convolution2"
  top: "Dropout1"
  dropout_param {
    dropout_ratio: 0.2
  }
}
layer {
  name: "Concat1"
  type: "Concat"
  bottom: "Convolution1"
  bottom: "Dropout1"
  top: "Concat1"
  concat_param {
    axis: 1
  }
}
layer {
  name: "BatchNorm2"
  type: "BatchNorm"
  bottom: "Concat1"
  top: "BatchNorm2"
  param {
    lr_mult: 0
    decay_mult: 0
  }
  param {
    lr_mult: 0
    decay_mult: 0
  }
  param {
    lr_mult: 0
    decay_mult: 0
  }
}
layer {
  name: "Scale2"
  type: "Scale"
  bottom: "BatchNorm2"
  top: "BatchNorm2"
  scale_param {
    filler {
      value: 1
    }
    bias_term: true
    bias_filler {
      value: 0
    }
  }
}
layer {
  name: "ReLU2"
  type: "ReLU"
  bottom: "BatchNorm2"
  top: "BatchNorm2"
}
layer {
  name: "Convolution3"
  type: "Convolution"
  bottom: "BatchNorm2"
  top: "Convolution3"
  convolution_param {
    num_output: 12
    bias_term: false
    pad: 1
    kernel_size: 3
    stride: 1
    weight_filler {
      type: "msra"
    }
    bias_filler {
      type: "constant"
    }
  }
}
layer {
  name: "Dropout2"
  type: "Dropout"
  bottom: "Convolution3"
  top: "Dropout2"
  dropout_param {
    dropout_ratio: 0.2
  }
}
layer {
  name: "Concat2"
  type: "Concat"
  bottom: "Concat1"
  bottom: "Dropout2"
  top: "Concat2"
  concat_param {
    axis: 1
  }
}
layer {
  name: "BatchNorm3"
  type: "BatchNorm"
  bottom: "Concat2"
  top: "BatchNorm3"
  param {
    lr_mult: 0
    decay_mult: 0
  }
  param {
    lr_mult: 0
    decay_mult: 0
  }
  param {
    lr_mult: 0
    decay_mult: 0
  }
}
layer {
  name: "Scale3"
  type: "Scale"
  bottom: "BatchNorm3"
  top: "BatchNorm3"
  scale_param {
    filler {
      value: 1
    }
    bias_term: true
    bias_filler {
      value: 0
    }
  }
}
layer {
  name: "ReLU3"
  type: "ReLU"
  bottom: "BatchNorm3"
  top: "BatchNorm3"
}
layer {
  name: "Convolution4"
  type: "Convolution"
  bottom: "BatchNorm3"
  top: "Convolution4"
  convolution_param {
    num_output: 12
    bias_term: false
    pad: 1
    kernel_size: 3
    stride: 1
    weight_filler {
      type: "msra"
    }
    bias_filler {
      type: "constant"
    }
  }
}
layer {
  name: "Dropout3"
  type: "Dropout"
  bottom: "Convolution4"
  top: "Dropout3"
  dropout_param {
    dropout_ratio: 0.2
  }
}
layer {
  name: "Concat3"
  type: "Concat"
  bottom: "Concat2"
  bottom: "Dropout3"
  top: "Concat3"
  concat_param {
    axis: 1
  }
}
layer {
  name: "BatchNorm4"
  type: "BatchNorm"
  bottom: "Concat3"
  top: "BatchNorm4"
  param {
    lr_mult: 0
    decay_mult: 0
  }
  param {
    lr_mult: 0
    decay_mult: 0
  }
  param {
    lr_mult: 0
    decay_mult: 0
  }
}
layer {
  name: "Scale4"
  type: "Scale"
  bottom: "BatchNorm4"
  top: "BatchNorm4"
  scale_param {
    filler {
      value: 1
    }
    bias_term: true
    bias_filler {
      value: 0
    }
  }
}
layer {
  name: "ReLU4"
  type: "ReLU"
  bottom: "BatchNorm4"
  top: "BatchNorm4"
}
layer {
  name: "Convolution5"
  type: "Convolution"
  bottom: "BatchNorm4"
  top: "Convolution5"
  convolution_param {
    num_output: 12
    bias_term: false
    pad: 1
    kernel_size: 3
    stride: 1
    weight_filler {
      type: "msra"
    }
    bias_filler {
      type: "constant"
    }
  }
}
layer {
  name: "Dropout4"
  type: "Dropout"
  bottom: "Convolution5"
  top: "Dropout4"
  dropout_param {
    dropout_ratio: 0.2
  }
}
layer {
  name: "Concat4"
  type: "Concat"
  bottom: "Concat3"
  bottom: "Dropout4"
  top: "Concat4"
  concat_param {
    axis: 1
  }
}
layer {
  name: "BatchNorm5"
  type: "BatchNorm"
  bottom: "Concat4"
  top: "BatchNorm5"
  param {
    lr_mult: 0
    decay_mult: 0
  }
  param {
    lr_mult: 0
    decay_mult: 0
  }
  param {
    lr_mult: 0
    decay_mult: 0
  }
}
layer {
  name: "Scale5"
  type: "Scale"
  bottom: "BatchNorm5"
  top: "BatchNorm5"
  scale_param {
    filler {
      value: 1
    }
    bias_term: true
    bias_filler {
      value: 0
    }
  }
}
layer {
  name: "ReLU5"
  type: "ReLU"
  bottom: "BatchNorm5"
  top: "BatchNorm5"
}
layer {
  name: "Convolution6"
  type: "Convolution"
  bottom: "BatchNorm5"
  top: "Convolution6"
  convolution_param {
    num_output: 12
    bias_term: false
    pad: 1
    kernel_size: 3
    stride: 1
    weight_filler {
      type: "msra"
    }
    bias_filler {
      type: "constant"
    }
  }
}
layer {
  name: "Dropout5"
  type: "Dropout"
  bottom: "Convolution6"
  top: "Dropout5"
  dropout_param {
    dropout_ratio: 0.2
  }
}
layer {
  name: "Concat5"
  type: "Concat"
  bottom: "Concat4"
  bottom: "Dropout5"
  top: "Concat5"
  concat_param {
    axis: 1
  }
}
layer {
  name: "BatchNorm6"
  type: "BatchNorm"
  bottom: "Concat5"
  top: "BatchNorm6"
  param {
    lr_mult: 0
    decay_mult: 0
  }
  param {
    lr_mult: 0
    decay_mult: 0
  }
  param {
    lr_mult: 0
    decay_mult: 0
  }
}
layer {
  name: "Scale6"
  type: "Scale"
  bottom: "BatchNorm6"
  top: "BatchNorm6"
  scale_param {
    filler {
      value: 1
    }
    bias_term: true
    bias_filler {
      value: 0
    }
  }
}
layer {
  name: "ReLU6"
  type: "ReLU"
  bottom: "BatchNorm6"
  top: "BatchNorm6"
}
layer {
  name: "Convolution7"
  type: "Convolution"
  bottom: "BatchNorm6"
  top: "Convolution7"
  convolution_param {
    num_output: 12
    bias_term: false
    pad: 1
    kernel_size: 3
    stride: 1
    weight_filler {
      type: "msra"
    }
    bias_filler {
      type: "constant"
    }
  }
}
layer {
  name: "Dropout6"
  type: "Dropout"
  bottom: "Convolution7"
  top: "Dropout6"
  dropout_param {
    dropout_ratio: 0.2
  }
}
layer {
  name: "Concat6"
  type: "Concat"
  bottom: "Concat5"
  bottom: "Dropout6"
  top: "Concat6"
  concat_param {
    axis: 1
  }
}
layer {
  name: "BatchNorm7"
  type: "BatchNorm"
  bottom: "Concat6"
  top: "BatchNorm7"
  param {
    lr_mult: 0
    decay_mult: 0
  }
  param {
    lr_mult: 0
    decay_mult: 0
  }
  param {
    lr_mult: 0
    decay_mult: 0
  }
}
layer {
  name: "Scale7"
  type: "Scale"
  bottom: "BatchNorm7"
  top: "BatchNorm7"
  scale_param {
    filler {
      value: 1
    }
    bias_term: true
    bias_filler {
      value: 0
    }
  }
}
layer {
  name: "ReLU7"
  type: "ReLU"
  bottom: "BatchNorm7"
  top: "BatchNorm7"
}
layer {
  name: "Convolution8"
  type: "Convolution"
  bottom: "BatchNorm7"
  top: "Convolution8"
  convolution_param {
    num_output: 12
    bias_term: false
    pad: 1
    kernel_size: 3
    stride: 1
    weight_filler {
      type: "msra"
    }
    bias_filler {
      type: "constant"
    }
  }
}
layer {
  name: "Dropout7"
  type: "Dropout"
  bottom: "Convolution8"
  top: "Dropout7"
  dropout_param {
    dropout_ratio: 0.2
  }
}
layer {
  name: "Concat7"
  type: "Concat"
  bottom: "Concat6"
  bottom: "Dropout7"
  top: "Concat7"
  concat_param {
    axis: 1
  }
}
layer {
  name: "BatchNorm8"
  type: "BatchNorm"
  bottom: "Concat7"
  top: "BatchNorm8"
  param {
    lr_mult: 0
    decay_mult: 0
  }
  param {
    lr_mult: 0
    decay_mult: 0
  }
  param {
    lr_mult: 0
    decay_mult: 0
  }
}
layer {
  name: "Scale8"
  type: "Scale"
  bottom: "BatchNorm8"
  top: "BatchNorm8"
  scale_param {
    filler {
      value: 1
    }
    bias_term: true
    bias_filler {
      value: 0
    }
  }
}
layer {
  name: "ReLU8"
  type: "ReLU"
  bottom: "BatchNorm8"
  top: "BatchNorm8"
}
layer {
  name: "Convolution9"
  type: "Convolution"
  bottom: "BatchNorm8"
  top: "Convolution9"
  convolution_param {
    num_output: 12
    bias_term: false
    pad: 1
    kernel_size: 3
    stride: 1
    weight_filler {
      type: "msra"
    }
    bias_filler {
      type: "constant"
    }
  }
}
layer {
  name: "Dropout8"
  type: "Dropout"
  bottom: "Convolution9"
  top: "Dropout8"
  dropout_param {
    dropout_ratio: 0.2
  }
}
layer {
  name: "Concat8"
  type: "Concat"
  bottom: "Concat7"
  bottom: "Dropout8"
  top: "Concat8"
  concat_param {
    axis: 1
  }
}
layer {
  name: "BatchNorm9"
  type: "BatchNorm"
  bottom: "Concat8"
  top: "BatchNorm9"
  param {
    lr_mult: 0
    decay_mult: 0
  }
  param {
    lr_mult: 0
    decay_mult: 0
  }
  param {
    lr_mult: 0
    decay_mult: 0
  }
}
layer {
  name: "Scale9"
  type: "Scale"
  bottom: "BatchNorm9"
  top: "BatchNorm9"
  scale_param {
    filler {
      value: 1
    }
    bias_term: true
    bias_filler {
      value: 0
    }
  }
}
layer {
  name: "ReLU9"
  type: "ReLU"
  bottom: "BatchNorm9"
  top: "BatchNorm9"
}
layer {
  name: "Convolution10"
  type: "Convolution"
  bottom: "BatchNorm9"
  top: "Convolution10"
  convolution_param {
    num_output: 112
    bias_term: false
    pad: 0
    kernel_size: 1
    stride: 1
    weight_filler {
      type: "msra"
    }
    bias_filler {
      type: "constant"
    }
  }
}
layer {
  name: "Dropout9"
  type: "Dropout"
  bottom: "Convolution10"
  top: "Dropout9"
  dropout_param {
    dropout_ratio: 0.2
  }
}
layer {
  name: "Pooling1"
  type: "Pooling"
  bottom: "Dropout9"
  top: "Pooling1"
  pooling_param {
    pool: AVE
    kernel_size: 2
    stride: 2
  }
}
layer {
  name: "BatchNorm10"
  type: "BatchNorm"
  bottom: "Pooling1"
  top: "BatchNorm10"
  param {
    lr_mult: 0
    decay_mult: 0
  }
  param {
    lr_mult: 0
    decay_mult: 0
  }
  param {
    lr_mult: 0
    decay_mult: 0
  }
}
layer {
  name: "Scale10"
  type: "Scale"
  bottom: "BatchNorm10"
  top: "BatchNorm10"
  scale_param {
    filler {
      value: 1
    }
    bias_term: true
    bias_filler {
      value: 0
    }
  }
}
layer {
  name: "ReLU10"
  type: "ReLU"
  bottom: "BatchNorm10"
  top: "BatchNorm10"
}
layer {
  name: "Convolution11"
  type: "Convolution"
  bottom: "BatchNorm10"
  top: "Convolution11"
  convolution_param {
    num_output: 12
    bias_term: false
    pad: 1
    kernel_size: 3
    stride: 1
    weight_filler {
      type: "msra"
    }
    bias_filler {
      type: "constant"
    }
  }
}
layer {
  name: "Dropout10"
  type: "Dropout"
  bottom: "Convolution11"
  top: "Dropout10"
  dropout_param {
    dropout_ratio: 0.2
  }
}
layer {
  name: "Concat9"
  type: "Concat"
  bottom: "Pooling1"
  bottom: "Dropout10"
  top: "Concat9"
  concat_param {
    axis: 1
  }
}
layer {
  name: "BatchNorm11"
  type: "BatchNorm"
  bottom: "Concat9"
  top: "BatchNorm11"
  param {
    lr_mult: 0
    decay_mult: 0
  }
  param {
    lr_mult: 0
    decay_mult: 0
  }
  param {
    lr_mult: 0
    decay_mult: 0
  }
}
layer {
  name: "Scale11"
  type: "Scale"
  bottom: "BatchNorm11"
  top: "BatchNorm11"
  scale_param {
    filler {
      value: 1
    }
    bias_term: true
    bias_filler {
      value: 0
    }
  }
}
layer {
  name: "ReLU11"
  type: "ReLU"
  bottom: "BatchNorm11"
  top: "BatchNorm11"
}
layer {
  name: "Convolution12"
  type: "Convolution"
  bottom: "BatchNorm11"
  top: "Convolution12"
  convolution_param {
    num_output: 12
    bias_term: false
    pad: 1
    kernel_size: 3
    stride: 1
    weight_filler {
      type: "msra"
    }
    bias_filler {
      type: "constant"
    }
  }
}
layer {
  name: "Dropout11"
  type: "Dropout"
  bottom: "Convolution12"
  top: "Dropout11"
  dropout_param {
    dropout_ratio: 0.2
  }
}
layer {
  name: "Concat10"
  type: "Concat"
  bottom: "Concat9"
  bottom: "Dropout11"
  top: "Concat10"
  concat_param {
    axis: 1
  }
}
layer {
  name: "BatchNorm12"
  type: "BatchNorm"
  bottom: "Concat10"
  top: "BatchNorm12"
  param {
    lr_mult: 0
    decay_mult: 0
  }
  param {
    lr_mult: 0
    decay_mult: 0
  }
  param {
    lr_mult: 0
    decay_mult: 0
  }
}
layer {
  name: "Scale12"
  type: "Scale"
  bottom: "BatchNorm12"
  top: "BatchNorm12"
  scale_param {
    filler {
      value: 1
    }
    bias_term: true
    bias_filler {
      value: 0
    }
  }
}
layer {
  name: "ReLU12"
  type: "ReLU"
  bottom: "BatchNorm12"
  top: "BatchNorm12"
}
layer {
  name: "Convolution13"
  type: "Convolution"
  bottom: "BatchNorm12"
  top: "Convolution13"
  convolution_param {
    num_output: 12
    bias_term: false
    pad: 1
    kernel_size: 3
    stride: 1
    weight_filler {
      type: "msra"
    }
    bias_filler {
      type: "constant"
    }
  }
}
layer {
  name: "Dropout12"
  type: "Dropout"
  bottom: "Convolution13"
  top: "Dropout12"
  dropout_param {
    dropout_ratio: 0.2
  }
}
layer {
  name: "Concat11"
  type: "Concat"
  bottom: "Concat10"
  bottom: "Dropout12"
  top: "Concat11"
  concat_param {
    axis: 1
  }
}
layer {
  name: "BatchNorm13"
  type: "BatchNorm"
  bottom: "Concat11"
  top: "BatchNorm13"
  param {
    lr_mult: 0
    decay_mult: 0
  }
  param {
    lr_mult: 0
    decay_mult: 0
  }
  param {
    lr_mult: 0
    decay_mult: 0
  }
}
layer {
  name: "Scale13"
  type: "Scale"
  bottom: "BatchNorm13"
  top: "BatchNorm13"
  scale_param {
    filler {
      value: 1
    }
    bias_term: true
    bias_filler {
      value: 0
    }
  }
}
layer {
  name: "ReLU13"
  type: "ReLU"
  bottom: "BatchNorm13"
  top: "BatchNorm13"
}
layer {
  name: "Convolution14"
  type: "Convolution"
  bottom: "BatchNorm13"
  top: "Convolution14"
  convolution_param {
    num_output: 12
    bias_term: false
    pad: 1
    kernel_size: 3
    stride: 1
    weight_filler {
      type: "msra"
    }
    bias_filler {
      type: "constant"
    }
  }
}
layer {
  name: "Dropout13"
  type: "Dropout"
  bottom: "Convolution14"
  top: "Dropout13"
  dropout_param {
    dropout_ratio: 0.2
  }
}
layer {
  name: "Concat12"
  type: "Concat"
  bottom: "Concat11"
  bottom: "Dropout13"
  top: "Concat12"
  concat_param {
    axis: 1
  }
}
layer {
  name: "BatchNorm14"
  type: "BatchNorm"
  bottom: "Concat12"
  top: "BatchNorm14"
  param {
    lr_mult: 0
    decay_mult: 0
  }
  param {
    lr_mult: 0
    decay_mult: 0
  }
  param {
    lr_mult: 0
    decay_mult: 0
  }
}
layer {
  name: "Scale14"
  type: "Scale"
  bottom: "BatchNorm14"
  top: "BatchNorm14"
  scale_param {
    filler {
      value: 1
    }
    bias_term: true
    bias_filler {
      value: 0
    }
  }
}
layer {
  name: "ReLU14"
  type: "ReLU"
  bottom: "BatchNorm14"
  top: "BatchNorm14"
}
layer {
  name: "Convolution15"
  type: "Convolution"
  bottom: "BatchNorm14"
  top: "Convolution15"
  convolution_param {
    num_output: 12
    bias_term: false
    pad: 1
    kernel_size: 3
    stride: 1
    weight_filler {
      type: "msra"
    }
    bias_filler {
      type: "constant"
    }
  }
}
layer {
  name: "Dropout14"
  type: "Dropout"
  bottom: "Convolution15"
  top: "Dropout14"
  dropout_param {
    dropout_ratio: 0.2
  }
}
layer {
  name: "Concat13"
  type: "Concat"
  bottom: "Concat12"
  bottom: "Dropout14"
  top: "Concat13"
  concat_param {
    axis: 1
  }
}
layer {
  name: "BatchNorm15"
  type: "BatchNorm"
  bottom: "Concat13"
  top: "BatchNorm15"
  param {
    lr_mult: 0
    decay_mult: 0
  }
  param {
    lr_mult: 0
    decay_mult: 0
  }
  param {
    lr_mult: 0
    decay_mult: 0
  }
}
layer {
  name: "Scale15"
  type: "Scale"
  bottom: "BatchNorm15"
  top: "BatchNorm15"
  scale_param {
    filler {
      value: 1
    }
    bias_term: true
    bias_filler {
      value: 0
    }
  }
}
layer {
  name: "ReLU15"
  type: "ReLU"
  bottom: "BatchNorm15"
  top: "BatchNorm15"
}
layer {
  name: "Convolution16"
  type: "Convolution"
  bottom: "BatchNorm15"
  top: "Convolution16"
  convolution_param {
    num_output: 12
    bias_term: false
    pad: 1
    kernel_size: 3
    stride: 1
    weight_filler {
      type: "msra"
    }
    bias_filler {
      type: "constant"
    }
  }
}
layer {
  name: "Dropout15"
  type: "Dropout"
  bottom: "Convolution16"
  top: "Dropout15"
  dropout_param {
    dropout_ratio: 0.2
  }
}
layer {
  name: "Concat14"
  type: "Concat"
  bottom: "Concat13"
  bottom: "Dropout15"
  top: "Concat14"
  concat_param {
    axis: 1
  }
}
layer {
  name: "BatchNorm16"
  type: "BatchNorm"
  bottom: "Concat14"
  top: "BatchNorm16"
  param {
    lr_mult: 0
    decay_mult: 0
  }
  param {
    lr_mult: 0
    decay_mult: 0
  }
  param {
    lr_mult: 0
    decay_mult: 0
  }
}
layer {
  name: "Scale16"
  type: "Scale"
  bottom: "BatchNorm16"
  top: "BatchNorm16"
  scale_param {
    filler {
      value: 1
    }
    bias_term: true
    bias_filler {
      value: 0
    }
  }
}
layer {
  name: "ReLU16"
  type: "ReLU"
  bottom: "BatchNorm16"
  top: "BatchNorm16"
}
layer {
  name: "Convolution17"
  type: "Convolution"
  bottom: "BatchNorm16"
  top: "Convolution17"
  convolution_param {
    num_output: 12
    bias_term: false
    pad: 1
    kernel_size: 3
    stride: 1
    weight_filler {
      type: "msra"
    }
    bias_filler {
      type: "constant"
    }
  }
}
layer {
  name: "Dropout16"
  type: "Dropout"
  bottom: "Convolution17"
  top: "Dropout16"
  dropout_param {
    dropout_ratio: 0.2
  }
}
layer {
  name: "Concat15"
  type: "Concat"
  bottom: "Concat14"
  bottom: "Dropout16"
  top: "Concat15"
  concat_param {
    axis: 1
  }
}
layer {
  name: "BatchNorm17"
  type: "BatchNorm"
  bottom: "Concat15"
  top: "BatchNorm17"
  param {
    lr_mult: 0
    decay_mult: 0
  }
  param {
    lr_mult: 0
    decay_mult: 0
  }
  param {
    lr_mult: 0
    decay_mult: 0
  }
}
layer {
  name: "Scale17"
  type: "Scale"
  bottom: "BatchNorm17"
  top: "BatchNorm17"
  scale_param {
    filler {
      value: 1
    }
    bias_term: true
    bias_filler {
      value: 0
    }
  }
}
layer {
  name: "ReLU17"
  type: "ReLU"
  bottom: "BatchNorm17"
  top: "BatchNorm17"
}
layer {
  name: "Convolution18"
  type: "Convolution"
  bottom: "BatchNorm17"
  top: "Convolution18"
  convolution_param {
    num_output: 12
    bias_term: false
    pad: 1
    kernel_size: 3
    stride: 1
    weight_filler {
      type: "msra"
    }
    bias_filler {
      type: "constant"
    }
  }
}
layer {
  name: "Dropout17"
  type: "Dropout"
  bottom: "Convolution18"
  top: "Dropout17"
  dropout_param {
    dropout_ratio: 0.2
  }
}
layer {
  name: "Concat16"
  type: "Concat"
  bottom: "Concat15"
  bottom: "Dropout17"
  top: "Concat16"
  concat_param {
    axis: 1
  }
}
layer {
  name: "BatchNorm18"
  type: "BatchNorm"
  bottom: "Concat16"
  top: "BatchNorm18"
  param {
    lr_mult: 0
    decay_mult: 0
  }
  param {
    lr_mult: 0
    decay_mult: 0
  }
  param {
    lr_mult: 0
    decay_mult: 0
  }
}
layer {
  name: "Scale18"
  type: "Scale"
  bottom: "BatchNorm18"
  top: "BatchNorm18"
  scale_param {
    filler {
      value: 1
    }
    bias_term: true
    bias_filler {
      value: 0
    }
  }
}
layer {
  name: "ReLU18"
  type: "ReLU"
  bottom: "BatchNorm18"
  top: "BatchNorm18"
}
layer {
  name: "Convolution19"
  type: "Convolution"
  bottom: "BatchNorm18"
  top: "Convolution19"
  convolution_param {
    num_output: 208
    bias_term: false
    pad: 0
    kernel_size: 1
    stride: 1
    weight_filler {
      type: "msra"
    }
    bias_filler {
      type: "constant"
    }
  }
}
layer {
  name: "Dropout18"
  type: "Dropout"
  bottom: "Convolution19"
  top: "Dropout18"
  dropout_param {
    dropout_ratio: 0.2
  }
}
layer {
  name: "Pooling2"
  type: "Pooling"
  bottom: "Dropout18"
  top: "Pooling2"
  pooling_param {
    pool: AVE
    kernel_size: 2
    stride: 2
  }
}
layer {
  name: "BatchNorm19"
  type: "BatchNorm"
  bottom: "Pooling2"
  top: "BatchNorm19"
  param {
    lr_mult: 0
    decay_mult: 0
  }
  param {
    lr_mult: 0
    decay_mult: 0
  }
  param {
    lr_mult: 0
    decay_mult: 0
  }
}
layer {
  name: "Scale19"
  type: "Scale"
  bottom: "BatchNorm19"
  top: "BatchNorm19"
  scale_param {
    filler {
      value: 1
    }
    bias_term: true
    bias_filler {
      value: 0
    }
  }
}
layer {
  name: "ReLU19"
  type: "ReLU"
  bottom: "BatchNorm19"
  top: "BatchNorm19"
}
layer {
  name: "Convolution20"
  type: "Convolution"
  bottom: "BatchNorm19"
  top: "Convolution20"
  convolution_param {
    num_output: 12
    bias_term: false
    pad: 1
    kernel_size: 3
    stride: 1
    weight_filler {
      type: "msra"
    }
    bias_filler {
      type: "constant"
    }
  }
}
layer {
  name: "Dropout19"
  type: "Dropout"
  bottom: "Convolution20"
  top: "Dropout19"
  dropout_param {
    dropout_ratio: 0.2
  }
}
layer {
  name: "Concat17"
  type: "Concat"
  bottom: "Pooling2"
  bottom: "Dropout19"
  top: "Concat17"
  concat_param {
    axis: 1
  }
}
layer {
  name: "BatchNorm20"
  type: "BatchNorm"
  bottom: "Concat17"
  top: "BatchNorm20"
  param {
    lr_mult: 0
    decay_mult: 0
  }
  param {
    lr_mult: 0
    decay_mult: 0
  }
  param {
    lr_mult: 0
    decay_mult: 0
  }
}
layer {
  name: "Scale20"
  type: "Scale"
  bottom: "BatchNorm20"
  top: "BatchNorm20"
  scale_param {
    filler {
      value: 1
    }
    bias_term: true
    bias_filler {
      value: 0
    }
  }
}
layer {
  name: "ReLU20"
  type: "ReLU"
  bottom: "BatchNorm20"
  top: "BatchNorm20"
}
layer {
  name: "Convolution21"
  type: "Convolution"
  bottom: "BatchNorm20"
  top: "Convolution21"
  convolution_param {
    num_output: 12
    bias_term: false
    pad: 1
    kernel_size: 3
    stride: 1
    weight_filler {
      type: "msra"
    }
    bias_filler {
      type: "constant"
    }
  }
}
layer {
  name: "Dropout20"
  type: "Dropout"
  bottom: "Convolution21"
  top: "Dropout20"
  dropout_param {
    dropout_ratio: 0.2
  }
}
layer {
  name: "Concat18"
  type: "Concat"
  bottom: "Concat17"
  bottom: "Dropout20"
  top: "Concat18"
  concat_param {
    axis: 1
  }
}
layer {
  name: "BatchNorm21"
  type: "BatchNorm"
  bottom: "Concat18"
  top: "BatchNorm21"
  param {
    lr_mult: 0
    decay_mult: 0
  }
  param {
    lr_mult: 0
    decay_mult: 0
  }
  param {
    lr_mult: 0
    decay_mult: 0
  }
}
layer {
  name: "Scale21"
  type: "Scale"
  bottom: "BatchNorm21"
  top: "BatchNorm21"
  scale_param {
    filler {
      value: 1
    }
    bias_term: true
    bias_filler {
      value: 0
    }
  }
}
layer {
  name: "ReLU21"
  type: "ReLU"
  bottom: "BatchNorm21"
  top: "BatchNorm21"
}
layer {
  name: "Convolution22"
  type: "Convolution"
  bottom: "BatchNorm21"
  top: "Convolution22"
  convolution_param {
    num_output: 12
    bias_term: false
    pad: 1
    kernel_size: 3
    stride: 1
    weight_filler {
      type: "msra"
    }
    bias_filler {
      type: "constant"
    }
  }
}
layer {
  name: "Dropout21"
  type: "Dropout"
  bottom: "Convolution22"
  top: "Dropout21"
  dropout_param {
    dropout_ratio: 0.2
  }
}
layer {
  name: "Concat19"
  type: "Concat"
  bottom: "Concat18"
  bottom: "Dropout21"
  top: "Concat19"
  concat_param {
    axis: 1
  }
}
layer {
  name: "BatchNorm22"
  type: "BatchNorm"
  bottom: "Concat19"
  top: "BatchNorm22"
  param {
    lr_mult: 0
    decay_mult: 0
  }
  param {
    lr_mult: 0
    decay_mult: 0
  }
  param {
    lr_mult: 0
    decay_mult: 0
  }
}
layer {
  name: "Scale22"
  type: "Scale"
  bottom: "BatchNorm22"
  top: "BatchNorm22"
  scale_param {
    filler {
      value: 1
    }
    bias_term: true
    bias_filler {
      value: 0
    }
  }
}
layer {
  name: "ReLU22"
  type: "ReLU"
  bottom: "BatchNorm22"
  top: "BatchNorm22"
}
layer {
  name: "Convolution23"
  type: "Convolution"
  bottom: "BatchNorm22"
  top: "Convolution23"
  convolution_param {
    num_output: 12
    bias_term: false
    pad: 1
    kernel_size: 3
    stride: 1
    weight_filler {
      type: "msra"
    }
    bias_filler {
      type: "constant"
    }
  }
}
layer {
  name: "Dropout22"
  type: "Dropout"
  bottom: "Convolution23"
  top: "Dropout22"
  dropout_param {
    dropout_ratio: 0.2
  }
}
layer {
  name: "Concat20"
  type: "Concat"
  bottom: "Concat19"
  bottom: "Dropout22"
  top: "Concat20"
  concat_param {
    axis: 1
  }
}
layer {
  name: "BatchNorm23"
  type: "BatchNorm"
  bottom: "Concat20"
  top: "BatchNorm23"
  param {
    lr_mult: 0
    decay_mult: 0
  }
  param {
    lr_mult: 0
    decay_mult: 0
  }
  param {
    lr_mult: 0
    decay_mult: 0
  }
}
layer {
  name: "Scale23"
  type: "Scale"
  bottom: "BatchNorm23"
  top: "BatchNorm23"
  scale_param {
    filler {
      value: 1
    }
    bias_term: true
    bias_filler {
      value: 0
    }
  }
}
layer {
  name: "ReLU23"
  type: "ReLU"
  bottom: "BatchNorm23"
  top: "BatchNorm23"
}
layer {
  name: "Convolution24"
  type: "Convolution"
  bottom: "BatchNorm23"
  top: "Convolution24"
  convolution_param {
    num_output: 12
    bias_term: false
    pad: 1
    kernel_size: 3
    stride: 1
    weight_filler {
      type: "msra"
    }
    bias_filler {
      type: "constant"
    }
  }
}
layer {
  name: "Dropout23"
  type: "Dropout"
  bottom: "Convolution24"
  top: "Dropout23"
  dropout_param {
    dropout_ratio: 0.2
  }
}
layer {
  name: "Concat21"
  type: "Concat"
  bottom: "Concat20"
  bottom: "Dropout23"
  top: "Concat21"
  concat_param {
    axis: 1
  }
}
layer {
  name: "BatchNorm24"
  type: "BatchNorm"
  bottom: "Concat21"
  top: "BatchNorm24"
  param {
    lr_mult: 0
    decay_mult: 0
  }
  param {
    lr_mult: 0
    decay_mult: 0
  }
  param {
    lr_mult: 0
    decay_mult: 0
  }
}
layer {
  name: "Scale24"
  type: "Scale"
  bottom: "BatchNorm24"
  top: "BatchNorm24"
  scale_param {
    filler {
      value: 1
    }
    bias_term: true
    bias_filler {
      value: 0
    }
  }
}
layer {
  name: "ReLU24"
  type: "ReLU"
  bottom: "BatchNorm24"
  top: "BatchNorm24"
}
layer {
  name: "Convolution25"
  type: "Convolution"
  bottom: "BatchNorm24"
  top: "Convolution25"
  convolution_param {
    num_output: 12
    bias_term: false
    pad: 1
    kernel_size: 3
    stride: 1
    weight_filler {
      type: "msra"
    }
    bias_filler {
      type: "constant"
    }
  }
}
layer {
  name: "Dropout24"
  type: "Dropout"
  bottom: "Convolution25"
  top: "Dropout24"
  dropout_param {
    dropout_ratio: 0.2
  }
}
layer {
  name: "Concat22"
  type: "Concat"
  bottom: "Concat21"
  bottom: "Dropout24"
  top: "Concat22"
  concat_param {
    axis: 1
  }
}
layer {
  name: "BatchNorm25"
  type: "BatchNorm"
  bottom: "Concat22"
  top: "BatchNorm25"
  param {
    lr_mult: 0
    decay_mult: 0
  }
  param {
    lr_mult: 0
    decay_mult: 0
  }
  param {
    lr_mult: 0
    decay_mult: 0
  }
}
layer {
  name: "Scale25"
  type: "Scale"
  bottom: "BatchNorm25"
  top: "BatchNorm25"
  scale_param {
    filler {
      value: 1
    }
    bias_term: true
    bias_filler {
      value: 0
    }
  }
}
layer {
  name: "ReLU25"
  type: "ReLU"
  bottom: "BatchNorm25"
  top: "BatchNorm25"
}
layer {
  name: "Convolution26"
  type: "Convolution"
  bottom: "BatchNorm25"
  top: "Convolution26"
  convolution_param {
    num_output: 12
    bias_term: false
    pad: 1
    kernel_size: 3
    stride: 1
    weight_filler {
      type: "msra"
    }
    bias_filler {
      type: "constant"
    }
  }
}
layer {
  name: "Dropout25"
  type: "Dropout"
  bottom: "Convolution26"
  top: "Dropout25"
  dropout_param {
    dropout_ratio: 0.2
  }
}
layer {
  name: "Concat23"
  type: "Concat"
  bottom: "Concat22"
  bottom: "Dropout25"
  top: "Concat23"
  concat_param {
    axis: 1
  }
}
layer {
  name: "BatchNorm26"
  type: "BatchNorm"
  bottom: "Concat23"
  top: "BatchNorm26"
  param {
    lr_mult: 0
    decay_mult: 0
  }
  param {
    lr_mult: 0
    decay_mult: 0
  }
  param {
    lr_mult: 0
    decay_mult: 0
  }
}
layer {
  name: "Scale26"
  type: "Scale"
  bottom: "BatchNorm26"
  top: "BatchNorm26"
  scale_param {
    filler {
      value: 1
    }
    bias_term: true
    bias_filler {
      value: 0
    }
  }
}
layer {
  name: "ReLU26"
  type: "ReLU"
  bottom: "BatchNorm26"
  top: "BatchNorm26"
}
layer {
  name: "Convolution27"
  type: "Convolution"
  bottom: "BatchNorm26"
  top: "Convolution27"
  convolution_param {
    num_output: 12
    bias_term: false
    pad: 1
    kernel_size: 3
    stride: 1
    weight_filler {
      type: "msra"
    }
    bias_filler {
      type: "constant"
    }
  }
}
layer {
  name: "Dropout26"
  type: "Dropout"
  bottom: "Convolution27"
  top: "Dropout26"
  dropout_param {
    dropout_ratio: 0.2
  }
}
layer {
  name: "Concat24"
  type: "Concat"
  bottom: "Concat23"
  bottom: "Dropout26"
  top: "Concat24"
  concat_param {
    axis: 1
  }
}
layer {
  name: "BatchNorm27"
  type: "BatchNorm"
  bottom: "Concat24"
  top: "BatchNorm27"
  param {
    lr_mult: 0
    decay_mult: 0
  }
  param {
    lr_mult: 0
    decay_mult: 0
  }
  param {
    lr_mult: 0
    decay_mult: 0
  }
}
layer {
  name: "Scale27"
  type: "Scale"
  bottom: "BatchNorm27"
  top: "BatchNorm27"
  scale_param {
    filler {
      value: 1
    }
    bias_term: true
    bias_filler {
      value: 0
    }
  }
}
layer {
  name: "ReLU27"
  type: "ReLU"
  bottom: "BatchNorm27"
  top: "BatchNorm27"
}
layer {
  name: "Convolution28"
  type: "Convolution"
  bottom: "BatchNorm27"
  top: "Convolution28"
  convolution_param {
    num_output: 304
    bias_term: false
    pad: 0
   
I0215 10:19:38.117591  4596 layer_factory.hpp:77] Creating layer input-data
I0215 10:19:38.137976  4596 net.cpp:106] Creating Layer input-data
I0215 10:19:38.137995  4596 net.cpp:411] input-data -> data
I0215 10:19:38.138011  4596 net.cpp:411] input-data -> im_info
I0215 10:19:38.138020  4596 net.cpp:411] input-data -> gt_boxes
I0215 10:19:38.150416  4596 net.cpp:150] Setting up input-data
I0215 10:19:38.150452  4596 net.cpp:157] Top shape: 1 3 300 500 (450000)
I0215 10:19:38.150460  4596 net.cpp:157] Top shape: 1 3 (3)
I0215 10:19:38.150465  4596 net.cpp:157] Top shape: 1 4 (4)
I0215 10:19:38.150470  4596 net.cpp:165] Memory required for data: 1800028
I0215 10:19:38.150475  4596 layer_factory.hpp:77] Creating layer data_input-data_0_split
I0215 10:19:38.150490  4596 net.cpp:106] Creating Layer data_input-data_0_split
I0215 10:19:38.150497  4596 net.cpp:454] data_input-data_0_split <- data
I0215 10:19:38.150506  4596 net.cpp:411] data_input-data_0_split -> data_input-data_0_split_0
I0215 10:19:38.150516  4596 net.cpp:411] data_input-data_0_split -> data_input-data_0_split_1
I0215 10:19:38.150574  4596 net.cpp:150] Setting up data_input-data_0_split
I0215 10:19:38.150585  4596 net.cpp:157] Top shape: 1 3 300 500 (450000)
I0215 10:19:38.150594  4596 net.cpp:157] Top shape: 1 3 300 500 (450000)
I0215 10:19:38.150600  4596 net.cpp:165] Memory required for data: 5400028
I0215 10:19:38.150605  4596 layer_factory.hpp:77] Creating layer Convolution1
I0215 10:19:38.150619  4596 net.cpp:106] Creating Layer Convolution1
I0215 10:19:38.150625  4596 net.cpp:454] Convolution1 <- data_input-data_0_split_0
I0215 10:19:38.150635  4596 net.cpp:411] Convolution1 -> Convolution1
I0215 10:19:38.151546  4596 net.cpp:150] Setting up Convolution1
I0215 10:19:38.151561  4596 net.cpp:157] Top shape: 1 16 300 500 (2400000)
I0215 10:19:38.151567  4596 net.cpp:165] Memory required for data: 15000028
I0215 10:19:38.151579  4596 layer_factory.hpp:77] Creating layer Convolution1_Convolution1_0_split
I0215 10:19:38.151588  4596 net.cpp:106] Creating Layer Convolution1_Convolution1_0_split
I0215 10:19:38.151602  4596 net.cpp:454] Convolution1_Convolution1_0_split <- Convolution1
I0215 10:19:38.151610  4596 net.cpp:411] Convolution1_Convolution1_0_split -> Convolution1_Convolution1_0_split_0
I0215 10:19:38.151618  4596 net.cpp:411] Convolution1_Convolution1_0_split -> Convolution1_Convolution1_0_split_1
I0215 10:19:38.151669  4596 net.cpp:150] Setting up Convolution1_Convolution1_0_split
I0215 10:19:38.151681  4596 net.cpp:157] Top shape: 1 16 300 500 (2400000)
I0215 10:19:38.151688  4596 net.cpp:157] Top shape: 1 16 300 500 (2400000)
I0215 10:19:38.151695  4596 net.cpp:165] Memory required for data: 34200028
I0215 10:19:38.151698  4596 layer_factory.hpp:77] Creating layer BatchNorm1
I0215 10:19:38.151710  4596 net.cpp:106] Creating Layer BatchNorm1
I0215 10:19:38.151716  4596 net.cpp:454] BatchNorm1 <- Convolution1_Convolution1_0_split_0
I0215 10:19:38.151722  4596 net.cpp:411] BatchNorm1 -> BatchNorm1
I0215 10:19:38.152688  4596 net.cpp:150] Setting up BatchNorm1
I0215 10:19:38.152709  4596 net.cpp:157] Top shape: 1 16 300 500 (2400000)
I0215 10:19:38.152714  4596 net.cpp:165] Memory required for data: 43800028
I0215 10:19:38.152727  4596 layer_factory.hpp:77] Creating layer Scale1
I0215 10:19:38.152739  4596 net.cpp:106] Creating Layer Scale1
I0215 10:19:38.152745  4596 net.cpp:454] Scale1 <- BatchNorm1
I0215 10:19:38.152752  4596 net.cpp:397] Scale1 -> BatchNorm1 (in-place)
I0215 10:19:38.152814  4596 layer_factory.hpp:77] Creating layer Scale1
I0215 10:19:38.154321  4596 net.cpp:150] Setting up Scale1
I0215 10:19:38.154336  4596 net.cpp:157] Top shape: 1 16 300 500 (2400000)
I0215 10:19:38.154342  4596 net.cpp:165] Memory required for data: 53400028
I0215 10:19:38.154355  4596 layer_factory.hpp:77] Creating layer ReLU1
I0215 10:19:38.154366  4596 net.cpp:106] Creating Layer ReLU1
I0215 10:19:38.154372  4596 net.cpp:454] ReLU1 <- BatchNorm1
I0215 10:19:38.154381  4596 net.cpp:397] ReLU1 -> BatchNorm1 (in-place)
I0215 10:19:38.154392  4596 net.cpp:150] Setting up ReLU1
I0215 10:19:38.154400  4596 net.cpp:157] Top shape: 1 16 300 500 (2400000)
I0215 10:19:38.154405  4596 net.cpp:165] Memory required for data: 63000028
I0215 10:19:38.154410  4596 layer_factory.hpp:77] Creating layer Convolution2
I0215 10:19:38.154422  4596 net.cpp:106] Creating Layer Convolution2
I0215 10:19:38.154428  4596 net.cpp:454] Convolution2 <- BatchNorm1
I0215 10:19:38.154436  4596 net.cpp:411] Convolution2 -> Convolution2
I0215 10:19:38.155333  4596 net.cpp:150] Setting up Convolution2
I0215 10:19:38.155347  4596 net.cpp:157] Top shape: 1 12 300 500 (1800000)
I0215 10:19:38.155354  4596 net.cpp:165] Memory required for data: 70200028
I0215 10:19:38.155360  4596 layer_factory.hpp:77] Creating layer Dropout1
I0215 10:19:38.155377  4596 net.cpp:106] Creating Layer Dropout1
I0215 10:19:38.155383  4596 net.cpp:454] Dropout1 <- Convolution2
I0215 10:19:38.155391  4596 net.cpp:411] Dropout1 -> Dropout1
I0215 10:19:38.155444  4596 net.cpp:150] Setting up Dropout1
I0215 10:19:38.155455  4596 net.cpp:157] Top shape: 1 12 300 500 (1800000)
I0215 10:19:38.155462  4596 net.cpp:165] Memory required for data: 77400028
I0215 10:19:38.155467  4596 layer_factory.hpp:77] Creating layer Concat1
I0215 10:19:38.155474  4596 net.cpp:106] Creating Layer Concat1
I0215 10:19:38.155480  4596 net.cpp:454] Concat1 <- Convolution1_Convolution1_0_split_1
I0215 10:19:38.155488  4596 net.cpp:454] Concat1 <- Dropout1
I0215 10:19:38.155498  4596 net.cpp:411] Concat1 -> Concat1
I0215 10:19:38.155530  4596 net.cpp:150] Setting up Concat1
I0215 10:19:38.155540  4596 net.cpp:157] Top shape: 1 28 300 500 (4200000)
I0215 10:19:38.155546  4596 net.cpp:165] Memory required for data: 94200028
I0215 10:19:38.155551  4596 layer_factory.hpp:77] Creating layer Concat1_Concat1_0_split
I0215 10:19:38.155560  4596 net.cpp:106] Creating Layer Concat1_Concat1_0_split
I0215 10:19:38.155566  4596 net.cpp:454] Concat1_Concat1_0_split <- Concat1
I0215 10:19:38.155573  4596 net.cpp:411] Concat1_Concat1_0_split -> Concat1_Concat1_0_split_0
I0215 10:19:38.155582  4596 net.cpp:411] Concat1_Concat1_0_split -> Concat1_Concat1_0_split_1
I0215 10:19:38.155652  4596 net.cpp:150] Setting up Concat1_Concat1_0_split
I0215 10:19:38.155664  4596 net.cpp:157] Top shape: 1 28 300 500 (4200000)
I0215 10:19:38.155671  4596 net.cpp:157] Top shape: 1 28 300 500 (4200000)
I0215 10:19:38.155676  4596 net.cpp:165] Memory required for data: 127800028
I0215 10:19:38.155681  4596 layer_factory.hpp:77] Creating layer BatchNorm2
I0215 10:19:38.155690  4596 net.cpp:106] Creating Layer BatchNorm2
I0215 10:19:38.155696  4596 net.cpp:454] BatchNorm2 <- Concat1_Concat1_0_split_0
I0215 10:19:38.155704  4596 net.cpp:411] BatchNorm2 -> BatchNorm2
I0215 10:19:38.156661  4596 net.cpp:150] Setting up BatchNorm2
I0215 10:19:38.156677  4596 net.cpp:157] Top shape: 1 28 300 500 (4200000)
I0215 10:19:38.156683  4596 net.cpp:165] Memory required for data: 144600028
I0215 10:19:38.156695  4596 layer_factory.hpp:77] Creating layer Scale2
I0215 10:19:38.156705  4596 net.cpp:106] Creating Layer Scale2
I0215 10:19:38.156711  4596 net.cpp:454] Scale2 <- BatchNorm2
I0215 10:19:38.156721  4596 net.cpp:397] Scale2 -> BatchNorm2 (in-place)
I0215 10:19:38.156779  4596 layer_factory.hpp:77] Creating layer Scale2
I0215 10:19:38.158268  4596 net.cpp:150] Setting up Scale2
I0215 10:19:38.158283  4596 net.cpp:157] Top shape: 1 28 300 500 (4200000)
I0215 10:19:38.158289  4596 net.cpp:165] Memory required for data: 161400028
I0215 10:19:38.158298  4596 layer_factory.hpp:77] Creating layer ReLU2
I0215 10:19:38.158308  4596 net.cpp:106] Creating Layer ReLU2
I0215 10:19:38.158315  4596 net.cpp:454] ReLU2 <- BatchNorm2
I0215 10:19:38.158323  4596 net.cpp:397] ReLU2 -> BatchNorm2 (in-place)
I0215 10:19:38.158331  4596 net.cpp:150] Setting up ReLU2
I0215 10:19:38.158339  4596 net.cpp:157] Top shape: 1 28 300 500 (4200000)
I0215 10:19:38.158344  4596 net.cpp:165] Memory required for data: 178200028
I0215 10:19:38.158349  4596 layer_factory.hpp:77] Creating layer Convolution3
I0215 10:19:38.158360  4596 net.cpp:106] Creating Layer Convolution3
I0215 10:19:38.158366  4596 net.cpp:454] Convolution3 <- BatchNorm2
I0215 10:19:38.158373  4596 net.cpp:411] Convolution3 -> Convolution3
I0215 10:19:38.158716  4596 net.cpp:150] Setting up Convolution3
I0215 10:19:38.158730  4596 net.cpp:157] Top shape: 1 12 300 500 (1800000)
I0215 10:19:38.158735  4596 net.cpp:165] Memory required for data: 185400028
I0215 10:19:38.158741  4596 layer_factory.hpp:77] Creating layer Dropout2
I0215 10:19:38.158749  4596 net.cpp:106] Creating Layer Dropout2
I0215 10:19:38.158756  4596 net.cpp:454] Dropout2 <- Convolution3
I0215 10:19:38.158761  4596 net.cpp:411] Dropout2 -> Dropout2
I0215 10:19:38.158814  4596 net.cpp:150] Setting up Dropout2
I0215 10:19:38.158825  4596 net.cpp:157] Top shape: 1 12 300 500 (1800000)
I0215 10:19:38.158830  4596 net.cpp:165] Memory required for data: 192600028
I0215 10:19:38.158835  4596 layer_factory.hpp:77] Creating layer Concat2
I0215 10:19:38.158844  4596 net.cpp:106] Creating Layer Concat2
I0215 10:19:38.158850  4596 net.cpp:454] Concat2 <- Concat1_Concat1_0_split_1
I0215 10:19:38.158857  4596 net.cpp:454] Concat2 <- Dropout2
I0215 10:19:38.158866  4596 net.cpp:411] Concat2 -> Concat2
I0215 10:19:38.158900  4596 net.cpp:150] Setting up Concat2
I0215 10:19:38.158910  4596 net.cpp:157] Top shape: 1 40 300 500 (6000000)
I0215 10:19:38.158915  4596 net.cpp:165] Memory required for data: 216600028
I0215 10:19:38.158920  4596 layer_factory.hpp:77] Creating layer Concat2_Concat2_0_split
I0215 10:19:38.158926  4596 net.cpp:106] Creating Layer Concat2_Concat2_0_split
I0215 10:19:38.158932  4596 net.cpp:454] Concat2_Concat2_0_split <- Concat2
I0215 10:19:38.158941  4596 net.cpp:411] Concat2_Concat2_0_split -> Concat2_Concat2_0_split_0
I0215 10:19:38.158951  4596 net.cpp:411] Concat2_Concat2_0_split -> Concat2_Concat2_0_split_1
I0215 10:19:38.158998  4596 net.cpp:150] Setting up Concat2_Concat2_0_split
I0215 10:19:38.159008  4596 net.cpp:157] Top shape: 1 40 300 500 (6000000)
I0215 10:19:38.159015  4596 net.cpp:157] Top shape: 1 40 300 500 (6000000)
I0215 10:19:38.159020  4596 net.cpp:165] Memory required for data: 264600028
I0215 10:19:38.159025  4596 layer_factory.hpp:77] Creating layer BatchNorm3
I0215 10:19:38.159036  4596 net.cpp:106] Creating Layer BatchNorm3
I0215 10:19:38.159041  4596 net.cpp:454] BatchNorm3 <- Concat2_Concat2_0_split_0
I0215 10:19:38.159049  4596 net.cpp:411] BatchNorm3 -> BatchNorm3
I0215 10:19:38.160008  4596 net.cpp:150] Setting up BatchNorm3
I0215 10:19:38.160023  4596 net.cpp:157] Top shape: 1 40 300 500 (6000000)
I0215 10:19:38.160029  4596 net.cpp:165] Memory required for data: 288600028
I0215 10:19:38.160039  4596 layer_factory.hpp:77] Creating layer Scale3
I0215 10:19:38.160050  4596 net.cpp:106] Creating Layer Scale3
I0215 10:19:38.160056  4596 net.cpp:454] Scale3 <- BatchNorm3
I0215 10:19:38.160066  4596 net.cpp:397] Scale3 -> BatchNorm3 (in-place)
I0215 10:19:38.160121  4596 layer_factory.hpp:77] Creating layer Scale3
I0215 10:19:38.161598  4596 net.cpp:150] Setting up Scale3
I0215 10:19:38.161613  4596 net.cpp:157] Top shape: 1 40 300 500 (6000000)
I0215 10:19:38.161618  4596 net.cpp:165] Memory required for data: 312600028
I0215 10:19:38.161630  4596 layer_factory.hpp:77] Creating layer ReLU3
I0215 10:19:38.161641  4596 net.cpp:106] Creating Layer ReLU3
I0215 10:19:38.161648  4596 net.cpp:454] ReLU3 <- BatchNorm3
I0215 10:19:38.161655  4596 net.cpp:397] ReLU3 -> BatchNorm3 (in-place)
I0215 10:19:38.161664  4596 net.cpp:150] Setting up ReLU3
I0215 10:19:38.161671  4596 net.cpp:157] Top shape: 1 40 300 500 (6000000)
I0215 10:19:38.161676  4596 net.cpp:165] Memory required for data: 336600028
I0215 10:19:38.161680  4596 layer_factory.hpp:77] Creating layer Convolution4
I0215 10:19:38.161692  4596 net.cpp:106] Creating Layer Convolution4
I0215 10:19:38.161698  4596 net.cpp:454] Convolution4 <- BatchNorm3
I0215 10:19:38.161705  4596 net.cpp:411] Convolution4 -> Convolution4
I0215 10:19:38.162667  4596 net.cpp:150] Setting up Convolution4
I0215 10:19:38.162681  4596 net.cpp:157] Top shape: 1 12 300 500 (1800000)
I0215 10:19:38.162686  4596 net.cpp:165] Memory required for data: 343800028
I0215 10:19:38.162693  4596 layer_factory.hpp:77] Creating layer Dropout3
I0215 10:19:38.162703  4596 net.cpp:106] Creating Layer Dropout3
I0215 10:19:38.162710  4596 net.cpp:454] Dropout3 <- Convolution4
I0215 10:19:38.162717  4596 net.cpp:411] Dropout3 -> Dropout3
I0215 10:19:38.162771  4596 net.cpp:150] Setting up Dropout3
I0215 10:19:38.162782  4596 net.cpp:157] Top shape: 1 12 300 500 (1800000)
I0215 10:19:38.162787  4596 net.cpp:165] Memory required for data: 351000028
I0215 10:19:38.162792  4596 layer_factory.hpp:77] Creating layer Concat3
I0215 10:19:38.162799  4596 net.cpp:106] Creating Layer Concat3
I0215 10:19:38.162806  4596 net.cpp:454] Concat3 <- Concat2_Concat2_0_split_1
I0215 10:19:38.162814  4596 net.cpp:454] Concat3 <- Dropout3
I0215 10:19:38.162822  4596 net.cpp:411] Concat3 -> Concat3
I0215 10:19:38.162855  4596 net.cpp:150] Setting up Concat3
I0215 10:19:38.162866  4596 net.cpp:157] Top shape: 1 52 300 500 (7800000)
I0215 10:19:38.162871  4596 net.cpp:165] Memory required for data: 382200028
I0215 10:19:38.162875  4596 layer_factory.hpp:77] Creating layer Concat3_Concat3_0_split
I0215 10:19:38.162885  4596 net.cpp:106] Creating Layer Concat3_Concat3_0_split
I0215 10:19:38.162891  4596 net.cpp:454] Concat3_Concat3_0_split <- Concat3
I0215 10:19:38.162897  4596 net.cpp:411] Concat3_Concat3_0_split -> Concat3_Concat3_0_split_0
I0215 10:19:38.162905  4596 net.cpp:411] Concat3_Concat3_0_split -> Concat3_Concat3_0_split_1
I0215 10:19:38.162955  4596 net.cpp:150] Setting up Concat3_Concat3_0_split
I0215 10:19:38.162966  4596 net.cpp:157] Top shape: 1 52 300 500 (7800000)
I0215 10:19:38.162972  4596 net.cpp:157] Top shape: 1 52 300 500 (7800000)
I0215 10:19:38.162977  4596 net.cpp:165] Memory required for data: 444600028
I0215 10:19:38.162982  4596 layer_factory.hpp:77] Creating layer BatchNorm4
I0215 10:19:38.162992  4596 net.cpp:106] Creating Layer BatchNorm4
I0215 10:19:38.162998  4596 net.cpp:454] BatchNorm4 <- Concat3_Concat3_0_split_0
I0215 10:19:38.163005  4596 net.cpp:411] BatchNorm4 -> BatchNorm4
I0215 10:19:38.163982  4596 net.cpp:150] Setting up BatchNorm4
I0215 10:19:38.163997  4596 net.cpp:157] Top shape: 1 52 300 500 (7800000)
I0215 10:19:38.164003  4596 net.cpp:165] Memory required for data: 475800028
I0215 10:19:38.164012  4596 layer_factory.hpp:77] Creating layer Scale4
I0215 10:19:38.164022  4596 net.cpp:106] Creating Layer Scale4
I0215 10:19:38.164028  4596 net.cpp:454] Scale4 <- BatchNorm4
I0215 10:19:38.164038  4596 net.cpp:397] Scale4 -> BatchNorm4 (in-place)
I0215 10:19:38.164099  4596 layer_factory.hpp:77] Creating layer Scale4
I0215 10:19:38.165592  4596 net.cpp:150] Setting up Scale4
I0215 10:19:38.165606  4596 net.cpp:157] Top shape: 1 52 300 500 (7800000)
I0215 10:19:38.165612  4596 net.cpp:165] Memory required for data: 507000028
I0215 10:19:38.165621  4596 layer_factory.hpp:77] Creating layer ReLU4
I0215 10:19:38.165632  4596 net.cpp:106] Creating Layer ReLU4
I0215 10:19:38.165638  4596 net.cpp:454] ReLU4 <- BatchNorm4
I0215 10:19:38.165645  4596 net.cpp:397] ReLU4 -> BatchNorm4 (in-place)
I0215 10:19:38.165654  4596 net.cpp:150] Setting up ReLU4
I0215 10:19:38.165662  4596 net.cpp:157] Top shape: 1 52 300 500 (7800000)
I0215 10:19:38.165666  4596 net.cpp:165] Memory required for data: 538200028
I0215 10:19:38.165671  4596 layer_factory.hpp:77] Creating layer Convolution5
I0215 10:19:38.165685  4596 net.cpp:106] Creating Layer Convolution5
I0215 10:19:38.165691  4596 net.cpp:454] Convolution5 <- BatchNorm4
I0215 10:19:38.165699  4596 net.cpp:411] Convolution5 -> Convolution5
I0215 10:19:38.166129  4596 net.cpp:150] Setting up Convolution5
I0215 10:19:38.166141  4596 net.cpp:157] Top shape: 1 12 300 500 (1800000)
I0215 10:19:38.166147  4596 net.cpp:165] Memory required for data: 545400028
I0215 10:19:38.166153  4596 layer_factory.hpp:77] Creating layer Dropout4
I0215 10:19:38.166162  4596 net.cpp:106] Creating Layer Dropout4
I0215 10:19:38.166167  4596 net.cpp:454] Dropout4 <- Convolution5
I0215 10:19:38.166177  4596 net.cpp:411] Dropout4 -> Dropout4
I0215 10:19:38.166230  4596 net.cpp:150] Setting up Dropout4
I0215 10:19:38.166240  4596 net.cpp:157] Top shape: 1 12 300 500 (1800000)
I0215 10:19:38.166246  4596 net.cpp:165] Memory required for data: 552600028
I0215 10:19:38.166250  4596 layer_factory.hpp:77] Creating layer Concat4
I0215 10:19:38.166260  4596 net.cpp:106] Creating Layer Concat4
I0215 10:19:38.166265  4596 net.cpp:454] Concat4 <- Concat3_Concat3_0_split_1
I0215 10:19:38.166272  4596 net.cpp:454] Concat4 <- Dropout4
I0215 10:19:38.166280  4596 net.cpp:411] Concat4 -> Concat4
I0215 10:19:38.166314  4596 net.cpp:150] Setting up Concat4
I0215 10:19:38.166326  4596 net.cpp:157] Top shape: 1 64 300 500 (9600000)
I0215 10:19:38.166330  4596 net.cpp:165] Memory required for data: 591000028
I0215 10:19:38.166335  4596 layer_factory.hpp:77] Creating layer Concat4_Concat4_0_split
I0215 10:19:38.166342  4596 net.cpp:106] Creating Layer Concat4_Concat4_0_split
I0215 10:19:38.166347  4596 net.cpp:454] Concat4_Concat4_0_split <- Concat4
I0215 10:19:38.166357  4596 net.cpp:411] Concat4_Concat4_0_split -> Concat4_Concat4_0_split_0
I0215 10:19:38.166364  4596 net.cpp:411] Concat4_Concat4_0_split -> Concat4_Concat4_0_split_1
I0215 10:19:38.166414  4596 net.cpp:150] Setting up Concat4_Concat4_0_split
I0215 10:19:38.166424  4596 net.cpp:157] Top shape: 1 64 300 500 (9600000)
I0215 10:19:38.166429  4596 net.cpp:157] Top shape: 1 64 300 500 (9600000)
I0215 10:19:38.166435  4596 net.cpp:165] Memory required for data: 667800028
I0215 10:19:38.166440  4596 layer_factory.hpp:77] Creating layer BatchNorm5
I0215 10:19:38.166452  4596 net.cpp:106] Creating Layer BatchNorm5
I0215 10:19:38.166460  4596 net.cpp:454] BatchNorm5 <- Concat4_Concat4_0_split_0
I0215 10:19:38.166467  4596 net.cpp:411] BatchNorm5 -> BatchNorm5
I0215 10:19:38.167433  4596 net.cpp:150] Setting up BatchNorm5
I0215 10:19:38.167448  4596 net.cpp:157] Top shape: 1 64 300 500 (9600000)
I0215 10:19:38.167454  4596 net.cpp:165] Memory required for data: 706200028
I0215 10:19:38.167464  4596 layer_factory.hpp:77] Creating layer Scale5
I0215 10:19:38.167475  4596 net.cpp:106] Creating Layer Scale5
I0215 10:19:38.167481  4596 net.cpp:454] Scale5 <- BatchNorm5
I0215 10:19:38.167489  4596 net.cpp:397] Scale5 -> BatchNorm5 (in-place)
I0215 10:19:38.167549  4596 layer_factory.hpp:77] Creating layer Scale5
I0215 10:19:38.169071  4596 net.cpp:150] Setting up Scale5
I0215 10:19:38.169086  4596 net.cpp:157] Top shape: 1 64 300 500 (9600000)
I0215 10:19:38.169092  4596 net.cpp:165] Memory required for data: 744600028
I0215 10:19:38.169100  4596 layer_factory.hpp:77] Creating layer ReLU5
I0215 10:19:38.169109  4596 net.cpp:106] Creating Layer ReLU5
I0215 10:19:38.169116  4596 net.cpp:454] ReLU5 <- BatchNorm5
I0215 10:19:38.169121  4596 net.cpp:397] ReLU5 -> BatchNorm5 (in-place)
I0215 10:19:38.169129  4596 net.cpp:150] Setting up ReLU5
I0215 10:19:38.169137  4596 net.cpp:157] Top shape: 1 64 300 500 (9600000)
I0215 10:19:38.169142  4596 net.cpp:165] Memory required for data: 783000028
I0215 10:19:38.169147  4596 layer_factory.hpp:77] Creating layer Convolution6
I0215 10:19:38.169159  4596 net.cpp:106] Creating Layer Convolution6
I0215 10:19:38.169165  4596 net.cpp:454] Convolution6 <- BatchNorm5
I0215 10:19:38.169173  4596 net.cpp:411] Convolution6 -> Convolution6
I0215 10:19:38.169644  4596 net.cpp:150] Setting up Convolution6
I0215 10:19:38.169657  4596 net.cpp:157] Top shape: 1 12 300 500 (1800000)
I0215 10:19:38.169663  4596 net.cpp:165] Memory required for data: 790200028
I0215 10:19:38.169669  4596 layer_factory.hpp:77] Creating layer Dropout5
I0215 10:19:38.169677  4596 net.cpp:106] Creating Layer Dropout5
I0215 10:19:38.169683  4596 net.cpp:454] Dropout5 <- Convolution6
I0215 10:19:38.169693  4596 net.cpp:411] Dropout5 -> Dropout5
I0215 10:19:38.169749  4596 net.cpp:150] Setting up Dropout5
I0215 10:19:38.169759  4596 net.cpp:157] Top shape: 1 12 300 500 (1800000)
I0215 10:19:38.169765  4596 net.cpp:165] Memory required for data: 797400028
I0215 10:19:38.169770  4596 layer_factory.hpp:77] Creating layer Concat5
I0215 10:19:38.169777  4596 net.cpp:106] Creating Layer Concat5
I0215 10:19:38.169783  4596 net.cpp:454] Concat5 <- Concat4_Concat4_0_split_1
I0215 10:19:38.169790  4596 net.cpp:454] Concat5 <- Dropout5
I0215 10:19:38.169797  4596 net.cpp:411] Concat5 -> Concat5
I0215 10:19:38.169833  4596 net.cpp:150] Setting up Concat5
I0215 10:19:38.169843  4596 net.cpp:157] Top shape: 1 76 300 500 (11400000)
I0215 10:19:38.169848  4596 net.cpp:165] Memory required for data: 843000028
I0215 10:19:38.169853  4596 layer_factory.hpp:77] Creating layer Concat5_Concat5_0_split
I0215 10:19:38.169860  4596 net.cpp:106] Creating Layer Concat5_Concat5_0_split
I0215 10:19:38.169867  4596 net.cpp:454] Concat5_Concat5_0_split <- Concat5
I0215 10:19:38.169874  4596 net.cpp:411] Concat5_Concat5_0_split -> Concat5_Concat5_0_split_0
I0215 10:19:38.169883  4596 net.cpp:411] Concat5_Concat5_0_split -> Concat5_Concat5_0_split_1
I0215 10:19:38.169934  4596 net.cpp:150] Setting up Concat5_Concat5_0_split
I0215 10:19:38.169945  4596 net.cpp:157] Top shape: 1 76 300 500 (11400000)
I0215 10:19:38.169950  4596 net.cpp:157] Top shape: 1 76 300 500 (11400000)
I0215 10:19:38.169955  4596 net.cpp:165] Memory required for data: 934200028
I0215 10:19:38.169960  4596 layer_factory.hpp:77] Creating layer BatchNorm6
I0215 10:19:38.169968  4596 net.cpp:106] Creating Layer BatchNorm6
I0215 10:19:38.169973  4596 net.cpp:454] BatchNorm6 <- Concat5_Concat5_0_split_0
I0215 10:19:38.169981  4596 net.cpp:411] BatchNorm6 -> BatchNorm6
I0215 10:19:38.170941  4596 net.cpp:150] Setting up BatchNorm6
I0215 10:19:38.170955  4596 net.cpp:157] Top shape: 1 76 300 500 (11400000)
I0215 10:19:38.170961  4596 net.cpp:165] Memory required for data: 979800028
I0215 10:19:38.170979  4596 layer_factory.hpp:77] Creating layer Scale6
I0215 10:19:38.170989  4596 net.cpp:106] Creating Layer Scale6
I0215 10:19:38.170995  4596 net.cpp:454] Scale6 <- BatchNorm6
I0215 10:19:38.171002  4596 net.cpp:397] Scale6 -> BatchNorm6 (in-place)
I0215 10:19:38.171062  4596 layer_factory.hpp:77] Creating layer Scale6
I0215 10:19:38.172572  4596 net.cpp:150] Setting up Scale6
I0215 10:19:38.172587  4596 net.cpp:157] Top shape: 1 76 300 500 (11400000)
I0215 10:19:38.172595  4596 net.cpp:165] Memory required for data: 1025400028
I0215 10:19:38.172602  4596 layer_factory.hpp:77] Creating layer ReLU6
I0215 10:19:38.172611  4596 net.cpp:106] Creating Layer ReLU6
I0215 10:19:38.172617  4596 net.cpp:454] ReLU6 <- BatchNorm6
I0215 10:19:38.172626  4596 net.cpp:397] ReLU6 -> BatchNorm6 (in-place)
I0215 10:19:38.172634  4596 net.cpp:150] Setting up ReLU6
I0215 10:19:38.172641  4596 net.cpp:157] Top shape: 1 76 300 500 (11400000)
I0215 10:19:38.172647  4596 net.cpp:165] Memory required for data: 1071000028
I0215 10:19:38.172652  4596 layer_factory.hpp:77] Creating layer Convolution7
I0215 10:19:38.172662  4596 net.cpp:106] Creating Layer Convolution7
I0215 10:19:38.172668  4596 net.cpp:454] Convolution7 <- BatchNorm6
I0215 10:19:38.172677  4596 net.cpp:411] Convolution7 -> Convolution7
I0215 10:19:38.173183  4596 net.cpp:150] Setting up Convolution7
I0215 10:19:38.173197  4596 net.cpp:157] Top shape: 1 12 300 500 (1800000)
I0215 10:19:38.173202  4596 net.cpp:165] Memory required for data: 1078200028
I0215 10:19:38.173208  4596 layer_factory.hpp:77] Creating layer Dropout6
I0215 10:19:38.173216  4596 net.cpp:106] Creating Layer Dropout6
I0215 10:19:38.173223  4596 net.cpp:454] Dropout6 <- Convolution7
I0215 10:19:38.173230  4596 net.cpp:411] Dropout6 -> Dropout6
I0215 10:19:38.173285  4596 net.cpp:150] Setting up Dropout6
I0215 10:19:38.173296  4596 net.cpp:157] Top shape: 1 12 300 500 (1800000)
I0215 10:19:38.173301  4596 net.cpp:165] Memory required for data: 1085400028
I0215 10:19:38.173306  4596 layer_factory.hpp:77] Creating layer Concat6
I0215 10:19:38.173316  4596 net.cpp:106] Creating Layer Concat6
I0215 10:19:38.173322  4596 net.cpp:454] Concat6 <- Concat5_Concat5_0_split_1
I0215 10:19:38.173328  4596 net.cpp:454] Concat6 <- Dropout6
I0215 10:19:38.173336  4596 net.cpp:411] Concat6 -> Concat6
I0215 10:19:38.173372  4596 net.cpp:150] Setting up Concat6
I0215 10:19:38.173382  4596 net.cpp:157] Top shape: 1 88 300 500 (13200000)
I0215 10:19:38.173388  4596 net.cpp:165] Memory required for data: 1138200028
I0215 10:19:38.173393  4596 layer_factory.hpp:77] Creating layer Concat6_Concat6_0_split
I0215 10:19:38.173399  4596 net.cpp:106] Creating Layer Concat6_Concat6_0_split
I0215 10:19:38.173405  4596 net.cpp:454] Concat6_Concat6_0_split <- Concat6
I0215 10:19:38.173413  4596 net.cpp:411] Concat6_Concat6_0_split -> Concat6_Concat6_0_split_0
I0215 10:19:38.173423  4596 net.cpp:411] Concat6_Concat6_0_split -> Concat6_Concat6_0_split_1
I0215 10:19:38.173472  4596 net.cpp:150] Setting up Concat6_Concat6_0_split
I0215 10:19:38.173483  4596 net.cpp:157] Top shape: 1 88 300 500 (13200000)
I0215 10:19:38.173490  4596 net.cpp:157] Top shape: 1 88 300 500 (13200000)
I0215 10:19:38.173496  4596 net.cpp:165] Memory required for data: 1243800028
I0215 10:19:38.173499  4596 layer_factory.hpp:77] Creating layer BatchNorm7
I0215 10:19:38.173509  4596 net.cpp:106] Creating Layer BatchNorm7
I0215 10:19:38.173516  4596 net.cpp:454] BatchNorm7 <- Concat6_Concat6_0_split_0
I0215 10:19:38.173523  4596 net.cpp:411] BatchNorm7 -> BatchNorm7
I0215 10:19:38.174484  4596 net.cpp:150] Setting up BatchNorm7
I0215 10:19:38.174497  4596 net.cpp:157] Top shape: 1 88 300 500 (13200000)
I0215 10:19:38.174504  4596 net.cpp:165] Memory required for data: 1296600028
I0215 10:19:38.174513  4596 layer_factory.hpp:77] Creating layer Scale7
I0215 10:19:38.174525  4596 net.cpp:106] Creating Layer Scale7
I0215 10:19:38.174531  4596 net.cpp:454] Scale7 <- BatchNorm7
I0215 10:19:38.174537  4596 net.cpp:397] Scale7 -> BatchNorm7 (in-place)
I0215 10:19:38.174598  4596 layer_factory.hpp:77] Creating layer Scale7
I0215 10:19:38.176115  4596 net.cpp:150] Setting up Scale7
I0215 10:19:38.176131  4596 net.cpp:157] Top shape: 1 88 300 500 (13200000)
I0215 10:19:38.176137  4596 net.cpp:165] Memory required for data: 1349400028
I0215 10:19:38.176146  4596 layer_factory.hpp:77] Creating layer ReLU7
I0215 10:19:38.176154  4596 net.cpp:106] Creating Layer ReLU7
I0215 10:19:38.176161  4596 net.cpp:454] ReLU7 <- BatchNorm7
I0215 10:19:38.176167  4596 net.cpp:397] ReLU7 -> BatchNorm7 (in-place)
I0215 10:19:38.176175  4596 net.cpp:150] Setting up ReLU7
I0215 10:19:38.176182  4596 net.cpp:157] Top shape: 1 88 300 500 (13200000)
I0215 10:19:38.176187  4596 net.cpp:165] Memory required for data: 1402200028
I0215 10:19:38.176192  4596 layer_factory.hpp:77] Creating layer Convolution8
I0215 10:19:38.176204  4596 net.cpp:106] Creating Layer Convolution8
I0215 10:19:38.176211  4596 net.cpp:454] Convolution8 <- BatchNorm7
I0215 10:19:38.176220  4596 net.cpp:411] Convolution8 -> Convolution8
I0215 10:19:38.176774  4596 net.cpp:150] Setting up Convolution8
I0215 10:19:38.176787  4596 net.cpp:157] Top shape: 1 12 300 500 (1800000)
I0215 10:19:38.176792  4596 net.cpp:165] Memory required for data: 1409400028
I0215 10:19:38.176800  4596 layer_factory.hpp:77] Creating layer Dropout7
I0215 10:19:38.176810  4596 net.cpp:106] Creating Layer Dropout7
I0215 10:19:38.176815  4596 net.cpp:454] Dropout7 <- Convolution8
I0215 10:19:38.176821  4596 net.cpp:411] Dropout7 -> Dropout7
I0215 10:19:38.176878  4596 net.cpp:150] Setting up Dropout7
I0215 10:19:38.176888  4596 net.cpp:157] Top shape: 1 12 300 500 (1800000)
I0215 10:19:38.176894  4596 net.cpp:165] Memory required for data: 1416600028
I0215 10:19:38.176899  4596 layer_factory.hpp:77] Creating layer Concat7
I0215 10:19:38.176906  4596 net.cpp:106] Creating Layer Concat7
I0215 10:19:38.176913  4596 net.cpp:454] Concat7 <- Concat6_Concat6_0_split_1
I0215 10:19:38.176918  4596 net.cpp:454] Concat7 <- Dropout7
I0215 10:19:38.176928  4596 net.cpp:411] Concat7 -> Concat7
I0215 10:19:38.176962  4596 net.cpp:150] Setting up Concat7
I0215 10:19:38.176972  4596 net.cpp:157] Top shape: 1 100 300 500 (15000000)
I0215 10:19:38.176977  4596 net.cpp:165] Memory required for data: 1476600028
I0215 10:19:38.176982  4596 layer_factory.hpp:77] Creating layer Concat7_Concat7_0_split
I0215 10:19:38.176991  4596 net.cpp:106] Creating Layer Concat7_Concat7_0_split
I0215 10:19:38.176997  4596 net.cpp:454] Concat7_Concat7_0_split <- Concat7
I0215 10:19:38.177003  4596 net.cpp:411] Concat7_Concat7_0_split -> Concat7_Concat7_0_split_0
I0215 10:19:38.177012  4596 net.cpp:411] Concat7_Concat7_0_split -> Concat7_Concat7_0_split_1
I0215 10:19:38.177062  4596 net.cpp:150] Setting up Concat7_Concat7_0_split
I0215 10:19:38.177073  4596 net.cpp:157] Top shape: 1 100 300 500 (15000000)
I0215 10:19:38.177079  4596 net.cpp:157] Top shape: 1 100 300 500 (15000000)
I0215 10:19:38.177084  4596 net.cpp:165] Memory required for data: 1596600028
I0215 10:19:38.177089  4596 layer_factory.hpp:77] Creating layer BatchNorm8
I0215 10:19:38.177099  4596 net.cpp:106] Creating Layer BatchNorm8
I0215 10:19:38.177106  4596 net.cpp:454] BatchNorm8 <- Concat7_Concat7_0_split_0
I0215 10:19:38.177112  4596 net.cpp:411] BatchNorm8 -> BatchNorm8
I0215 10:19:38.178077  4596 net.cpp:150] Setting up BatchNorm8
I0215 10:19:38.178093  4596 net.cpp:157] Top shape: 1 100 300 500 (15000000)
I0215 10:19:38.178099  4596 net.cpp:165] Memory required for data: 1656600028
I0215 10:19:38.178109  4596 layer_factory.hpp:77] Creating layer Scale8
I0215 10:19:38.178118  4596 net.cpp:106] Creating Layer Scale8
I0215 10:19:38.178124  4596 net.cpp:454] Scale8 <- BatchNorm8
I0215 10:19:38.178133  4596 net.cpp:397] Scale8 -> BatchNorm8 (in-place)
I0215 10:19:38.178196  4596 layer_factory.hpp:77] Creating layer Scale8
I0215 10:19:38.179704  4596 net.cpp:150] Setting up Scale8
I0215 10:19:38.179720  4596 net.cpp:157] Top shape: 1 100 300 500 (15000000)
I0215 10:19:38.179725  4596 net.cpp:165] Memory required for data: 1716600028
I0215 10:19:38.179734  4596 layer_factory.hpp:77] Creating layer ReLU8
I0215 10:19:38.179743  4596 net.cpp:106] Creating Layer ReLU8
I0215 10:19:38.179749  4596 net.cpp:454] ReLU8 <- BatchNorm8
I0215 10:19:38.179756  4596 net.cpp:397] ReLU8 -> BatchNorm8 (in-place)
I0215 10:19:38.179765  4596 net.cpp:150] Setting up ReLU8
I0215 10:19:38.179771  4596 net.cpp:157] Top shape: 1 100 300 500 (15000000)
I0215 10:19:38.179777  4596 net.cpp:165] Memory required for data: 1776600028
I0215 10:19:38.179781  4596 layer_factory.hpp:77] Creating layer Convolution9
I0215 10:19:38.179795  4596 net.cpp:106] Creating Layer Convolution9
I0215 10:19:38.179800  4596 net.cpp:454] Convolution9 <- BatchNorm8
I0215 10:19:38.179807  4596 net.cpp:411] Convolution9 -> Convolution9
I0215 10:19:38.180402  4596 net.cpp:150] Setting up Convolution9
I0215 10:19:38.180415  4596 net.cpp:157] Top shape: 1 12 300 500 (1800000)
I0215 10:19:38.180420  4596 net.cpp:165] Memory required for data: 1783800028
I0215 10:19:38.180428  4596 layer_factory.hpp:77] Creating layer Dropout8
I0215 10:19:38.180435  4596 net.cpp:106] Creating Layer Dropout8
I0215 10:19:38.180441  4596 net.cpp:454] Dropout8 <- Convolution9
I0215 10:19:38.180447  4596 net.cpp:411] Dropout8 -> Dropout8
I0215 10:19:38.180503  4596 net.cpp:150] Setting up Dropout8
I0215 10:19:38.180513  4596 net.cpp:157] Top shape: 1 12 300 500 (1800000)
I0215 10:19:38.180519  4596 net.cpp:165] Memory required for data: 1791000028
I0215 10:19:38.180524  4596 layer_factory.hpp:77] Creating layer Concat8
I0215 10:19:38.180533  4596 net.cpp:106] Creating Layer Concat8
I0215 10:19:38.180539  4596 net.cpp:454] Concat8 <- Concat7_Concat7_0_split_1
I0215 10:19:38.180546  4596 net.cpp:454] Concat8 <- Dropout8
I0215 10:19:38.180552  4596 net.cpp:411] Concat8 -> Concat8
I0215 10:19:38.180588  4596 net.cpp:150] Setting up Concat8
I0215 10:19:38.180600  4596 net.cpp:157] Top shape: 1 112 300 500 (16800000)
I0215 10:19:38.180606  4596 net.cpp:165] Memory required for data: 1858200028
I0215 10:19:38.180610  4596 layer_factory.hpp:77] Creating layer BatchNorm9
I0215 10:19:38.180619  4596 net.cpp:106] Creating Layer BatchNorm9
I0215 10:19:38.180624  4596 net.cpp:454] BatchNorm9 <- Concat8
I0215 10:19:38.180632  4596 net.cpp:411] BatchNorm9 -> BatchNorm9
I0215 10:19:38.186535  4596 net.cpp:150] Setting up BatchNorm9
I0215 10:19:38.186571  4596 net.cpp:157] Top shape: 1 112 300 500 (16800000)
I0215 10:19:38.186579  4596 net.cpp:165] Memory required for data: 1925400028
I0215 10:19:38.186599  4596 layer_factory.hpp:77] Creating layer Scale9
I0215 10:19:38.186619  4596 net.cpp:106] Creating Layer Scale9
I0215 10:19:38.186630  4596 net.cpp:454] Scale9 <- BatchNorm9
I0215 10:19:38.186641  4596 net.cpp:397] Scale9 -> BatchNorm9 (in-place)
I0215 10:19:38.186728  4596 layer_factory.hpp:77] Creating layer Scale9
I0215 10:19:38.190342  4596 net.cpp:150] Setting up Scale9
I0215 10:19:38.190361  4596 net.cpp:157] Top shape: 1 112 300 500 (16800000)
I0215 10:19:38.190366  4596 net.cpp:165] Memory required for data: 1992600028
I0215 10:19:38.190376  4596 layer_factory.hpp:77] Creating layer ReLU9
I0215 10:19:38.190385  4596 net.cpp:106] Creating Layer ReLU9
I0215 10:19:38.190392  4596 net.cpp:454] ReLU9 <- BatchNorm9
I0215 10:19:38.190398  4596 net.cpp:397] ReLU9 -> BatchNorm9 (in-place)
I0215 10:19:38.190408  4596 net.cpp:150] Setting up ReLU9
I0215 10:19:38.190417  4596 net.cpp:157] Top shape: 1 112 300 500 (16800000)
I0215 10:19:38.190423  4596 net.cpp:165] Memory required for data: 2059800028
I0215 10:19:38.190428  4596 layer_factory.hpp:77] Creating layer Convolution10
I0215 10:19:38.190445  4596 net.cpp:106] Creating Layer Convolution10
I0215 10:19:38.190452  4596 net.cpp:454] Convolution10 <- BatchNorm9
I0215 10:19:38.190462  4596 net.cpp:411] Convolution10 -> Convolution10
I0215 10:19:38.191216  4596 net.cpp:150] Setting up Convolution10
I0215 10:19:38.191231  4596 net.cpp:157] Top shape: 1 112 300 500 (16800000)
I0215 10:19:38.191237  4596 net.cpp:165] Memory required for data: 2127000028
I0215 10:19:38.191244  4596 layer_factory.hpp:77] Creating layer Dropout9
I0215 10:19:38.191256  4596 net.cpp:106] Creating Layer Dropout9
I0215 10:19:38.191262  4596 net.cpp:454] Dropout9 <- Convolution10
I0215 10:19:38.191272  4596 net.cpp:411] Dropout9 -> Dropout9
I0215 10:19:38.191339  4596 net.cpp:150] Setting up Dropout9
I0215 10:19:38.191351  4596 net.cpp:157] Top shape: 1 112 300 500 (16800000)
I0215 10:19:38.191356  4596 net.cpp:165] Memory required for data: 2194200028
I0215 10:19:38.191361  4596 layer_factory.hpp:77] Creating layer Pooling1
I0215 10:19:38.191380  4596 net.cpp:106] Creating Layer Pooling1
I0215 10:19:38.191386  4596 net.cpp:454] Pooling1 <- Dropout9
I0215 10:19:38.191395  4596 net.cpp:411] Pooling1 -> Pooling1
I0215 10:19:38.191437  4596 net.cpp:150] Setting up Pooling1
I0215 10:19:38.191447  4596 net.cpp:157] Top shape: 1 112 150 250 (4200000)
I0215 10:19:38.191452  4596 net.cpp:165] Memory required for data: 2211000028
I0215 10:19:38.191457  4596 layer_factory.hpp:77] Creating layer Pooling1_Pooling1_0_split
I0215 10:19:38.191465  4596 net.cpp:106] Creating Layer Pooling1_Pooling1_0_split
I0215 10:19:38.191470  4596 net.cpp:454] Pooling1_Pooling1_0_split <- Pooling1
I0215 10:19:38.191478  4596 net.cpp:411] Pooling1_Pooling1_0_split -> Pooling1_Pooling1_0_split_0
I0215 10:19:38.191486  4596 net.cpp:411] Pooling1_Pooling1_0_split -> Pooling1_Pooling1_0_split_1
I0215 10:19:38.191545  4596 net.cpp:150] Setting up Pooling1_Pooling1_0_split
I0215 10:19:38.191555  4596 net.cpp:157] Top shape: 1 112 150 250 (4200000)
I0215 10:19:38.191561  4596 net.cpp:157] Top shape: 1 112 150 250 (4200000)
I0215 10:19:38.191566  4596 net.cpp:165] Memory required for data: 2244600028
I0215 10:19:38.191571  4596 layer_factory.hpp:77] Creating layer BatchNorm10
I0215 10:19:38.191582  4596 net.cpp:106] Creating Layer BatchNorm10
I0215 10:19:38.191588  4596 net.cpp:454] BatchNorm10 <- Pooling1_Pooling1_0_split_0
I0215 10:19:38.191620  4596 net.cpp:411] BatchNorm10 -> BatchNorm10
I0215 10:19:38.201154  4596 net.cpp:150] Setting up BatchNorm10
I0215 10:19:38.201174  4596 net.cpp:157] Top shape: 1 112 150 250 (4200000)
I0215 10:19:38.201180  4596 net.cpp:165] Memory required for data: 2261400028
I0215 10:19:38.201192  4596 layer_factory.hpp:77] Creating layer Scale10
I0215 10:19:38.201206  4596 net.cpp:106] Creating Layer Scale10
I0215 10:19:38.201215  4596 net.cpp:454] Scale10 <- BatchNorm10
I0215 10:19:38.201222  4596 net.cpp:397] Scale10 -> BatchNorm10 (in-place)
I0215 10:19:38.201295  4596 layer_factory.hpp:77] Creating layer Scale10
I0215 10:19:38.201548  4596 net.cpp:150] Setting up Scale10
I0215 10:19:38.201562  4596 net.cpp:157] Top shape: 1 112 150 250 (4200000)
I0215 10:19:38.201570  4596 net.cpp:165] Memory required for data: 2278200028
I0215 10:19:38.201580  4596 layer_factory.hpp:77] Creating layer ReLU10
I0215 10:19:38.201589  4596 net.cpp:106] Creating Layer ReLU10
I0215 10:19:38.201596  4596 net.cpp:454] ReLU10 <- BatchNorm10
I0215 10:19:38.201606  4596 net.cpp:397] ReLU10 -> BatchNorm10 (in-place)
I0215 10:19:38.201614  4596 net.cpp:150] Setting up ReLU10
I0215 10:19:38.201622  4596 net.cpp:157] Top shape: 1 112 150 250 (4200000)
I0215 10:19:38.201628  4596 net.cpp:165] Memory required for data: 2295000028
I0215 10:19:38.201634  4596 layer_factory.hpp:77] Creating layer Convolution11
I0215 10:19:38.201647  4596 net.cpp:106] Creating Layer Convolution11
I0215 10:19:38.201653  4596 net.cpp:454] Convolution11 <- BatchNorm10
I0215 10:19:38.201660  4596 net.cpp:411] Convolution11 -> Convolution11
I0215 10:19:38.202473  4596 net.cpp:150] Setting up Convolution11
I0215 10:19:38.202489  4596 net.cpp:157] Top shape: 1 12 150 250 (450000)
I0215 10:19:38.202496  4596 net.cpp:165] Memory required for data: 2296800028
I0215 10:19:38.202503  4596 layer_factory.hpp:77] Creating layer Dropout10
I0215 10:19:38.202513  4596 net.cpp:106] Creating Layer Dropout10
I0215 10:19:38.202520  4596 net.cpp:454] Dropout10 <- Convolution11
I0215 10:19:38.202531  4596 net.cpp:411] Dropout10 -> Dropout10
I0215 10:19:38.202605  4596 net.cpp:150] Setting up Dropout10
I0215 10:19:38.202618  4596 net.cpp:157] Top shape: 1 12 150 250 (450000)
I0215 10:19:38.202625  4596 net.cpp:165] Memory required for data: 2298600028
I0215 10:19:38.202630  4596 layer_factory.hpp:77] Creating layer Concat9
I0215 10:19:38.202641  4596 net.cpp:106] Creating Layer Concat9
I0215 10:19:38.202646  4596 net.cpp:454] Concat9 <- Pooling1_Pooling1_0_split_1
I0215 10:19:38.202653  4596 net.cpp:454] Concat9 <- Dropout10
I0215 10:19:38.202661  4596 net.cpp:411] Concat9 -> Concat9
I0215 10:19:38.202704  4596 net.cpp:150] Setting up Concat9
I0215 10:19:38.202716  4596 net.cpp:157] Top shape: 1 124 150 250 (4650000)
I0215 10:19:38.202723  4596 net.cpp:165] Memory required for data: 2317200028
I0215 10:19:38.202728  4596 layer_factory.hpp:77] Creating layer Concat9_Concat9_0_split
I0215 10:19:38.202736  4596 net.cpp:106] Creating Layer Concat9_Concat9_0_split
I0215 10:19:38.202742  4596 net.cpp:454] Concat9_Concat9_0_split <- Concat9
I0215 10:19:38.202754  4596 net.cpp:411] Concat9_Concat9_0_split -> Concat9_Concat9_0_split_0
I0215 10:19:38.202774  4596 net.cpp:411] Concat9_Concat9_0_split -> Concat9_Concat9_0_split_1
I0215 10:19:38.202836  4596 net.cpp:150] Setting up Concat9_Concat9_0_split
I0215 10:19:38.202848  4596 net.cpp:157] Top shape: 1 124 150 250 (4650000)
I0215 10:19:38.202857  4596 net.cpp:157] Top shape: 1 124 150 250 (4650000)
I0215 10:19:38.202862  4596 net.cpp:165] Memory required for data: 2354400028
I0215 10:19:38.202867  4596 layer_factory.hpp:77] Creating layer BatchNorm11
I0215 10:19:38.202879  4596 net.cpp:106] Creating Layer BatchNorm11
I0215 10:19:38.202888  4596 net.cpp:454] BatchNorm11 <- Concat9_Concat9_0_split_0
I0215 10:19:38.202896  4596 net.cpp:411] BatchNorm11 -> BatchNorm11
I0215 10:19:38.203258  4596 net.cpp:150] Setting up BatchNorm11
I0215 10:19:38.203271  4596 net.cpp:157] Top shape: 1 124 150 250 (4650000)
I0215 10:19:38.203277  4596 net.cpp:165] Memory required for data: 2373000028
I0215 10:19:38.203287  4596 layer_factory.hpp:77] Creating layer Scale11
I0215 10:19:38.203299  4596 net.cpp:106] Creating Layer Scale11
I0215 10:19:38.203305  4596 net.cpp:454] Scale11 <- BatchNorm11
I0215 10:19:38.203315  4596 net.cpp:397] Scale11 -> BatchNorm11 (in-place)
I0215 10:19:38.203387  4596 layer_factory.hpp:77] Creating layer Scale11
I0215 10:19:38.203665  4596 net.cpp:150] Setting up Scale11
I0215 10:19:38.203680  4596 net.cpp:157] Top shape: 1 124 150 250 (4650000)
I0215 10:19:38.203685  4596 net.cpp:165] Memory required for data: 2391600028
I0215 10:19:38.203706  4596 layer_factory.hpp:77] Creating layer ReLU11
I0215 10:19:38.203718  4596 net.cpp:106] Creating Layer ReLU11
I0215 10:19:38.203725  4596 net.cpp:454] ReLU11 <- BatchNorm11
I0215 10:19:38.203734  4596 net.cpp:397] ReLU11 -> BatchNorm11 (in-place)
I0215 10:19:38.203743  4596 net.cpp:150] Setting up ReLU11
I0215 10:19:38.203752  4596 net.cpp:157] Top shape: 1 124 150 250 (4650000)
I0215 10:19:38.203758  4596 net.cpp:165] Memory required for data: 2410200028
I0215 10:19:38.203763  4596 layer_factory.hpp:77] Creating layer Convolution12
I0215 10:19:38.203778  4596 net.cpp:106] Creating Layer Convolution12
I0215 10:19:38.203785  4596 net.cpp:454] Convolution12 <- BatchNorm11
I0215 10:19:38.203795  4596 net.cpp:411] Convolution12 -> Convolution12
I0215 10:19:38.204560  4596 net.cpp:150] Setting up Convolution12
I0215 10:19:38.204574  4596 net.cpp:157] Top shape: 1 12 150 250 (450000)
I0215 10:19:38.204581  4596 net.cpp:165] Memory required for data: 2412000028
I0215 10:19:38.204588  4596 layer_factory.hpp:77] Creating layer Dropout11
I0215 10:19:38.204598  4596 net.cpp:106] Creating Layer Dropout11
I0215 10:19:38.204604  4596 net.cpp:454] Dropout11 <- Convolution12
I0215 10:19:38.204615  4596 net.cpp:411] Dropout11 -> Dropout11
I0215 10:19:38.204680  4596 net.cpp:150] Setting up Dropout11
I0215 10:19:38.204692  4596 net.cpp:157] Top shape: 1 12 150 250 (450000)
I0215 10:19:38.204699  4596 net.cpp:165] Memory required for data: 2413800028
I0215 10:19:38.204704  4596 layer_factory.hpp:77] Creating layer Concat10
I0215 10:19:38.204716  4596 net.cpp:106] Creating Layer Concat10
I0215 10:19:38.204723  4596 net.cpp:454] Concat10 <- Concat9_Concat9_0_split_1
I0215 10:19:38.204730  4596 net.cpp:454] Concat10 <- Dropout11
I0215 10:19:38.204738  4596 net.cpp:411] Concat10 -> Concat10
I0215 10:19:38.204780  4596 net.cpp:150] Setting up Concat10
I0215 10:19:38.204794  4596 net.cpp:157] Top shape: 1 136 150 250 (5100000)
I0215 10:19:38.204802  4596 net.cpp:165] Memory required for data: 2434200028
I0215 10:19:38.204807  4596 layer_factory.hpp:77] Creating layer Concat10_Concat10_0_split
I0215 10:19:38.204814  4596 net.cpp:106] Creating Layer Concat10_Concat10_0_split
I0215 10:19:38.204821  4596 net.cpp:454] Concat10_Concat10_0_split <- Concat10
I0215 10:19:38.204830  4596 net.cpp:411] Concat10_Concat10_0_split -> Concat10_Concat10_0_split_0
I0215 10:19:38.204839  4596 net.cpp:411] Concat10_Concat10_0_split -> Concat10_Concat10_0_split_1
I0215 10:19:38.204900  4596 net.cpp:150] Setting up Concat10_Concat10_0_split
I0215 10:19:38.204911  4596 net.cpp:157] Top shape: 1 136 150 250 (5100000)
I0215 10:19:38.204918  4596 net.cpp:157] Top shape: 1 136 150 250 (5100000)
I0215 10:19:38.204924  4596 net.cpp:165] Memory required for data: 2475000028
I0215 10:19:38.204929  4596 layer_factory.hpp:77] Creating layer BatchNorm12
I0215 10:19:38.204941  4596 net.cpp:106] Creating Layer BatchNorm12
I0215 10:19:38.204947  4596 net.cpp:454] BatchNorm12 <- Concat10_Concat10_0_split_0
I0215 10:19:38.204958  4596 net.cpp:411] BatchNorm12 -> BatchNorm12
I0215 10:19:38.206233  4596 net.cpp:150] Setting up BatchNorm12
I0215 10:19:38.206249  4596 net.cpp:157] Top shape: 1 136 150 250 (5100000)
I0215 10:19:38.206256  4596 net.cpp:165] Memory required for data: 2495400028
I0215 10:19:38.206269  4596 layer_factory.hpp:77] Creating layer Scale12
I0215 10:19:38.206281  4596 net.cpp:106] Creating Layer Scale12
I0215 10:19:38.206288  4596 net.cpp:454] Scale12 <- BatchNorm12
I0215 10:19:38.206297  4596 net.cpp:397] Scale12 -> BatchNorm12 (in-place)
I0215 10:19:38.206364  4596 layer_factory.hpp:77] Creating layer Scale12
I0215 10:19:38.206640  4596 net.cpp:150] Setting up Scale12
I0215 10:19:38.206655  4596 net.cpp:157] Top shape: 1 136 150 250 (5100000)
I0215 10:19:38.206660  4596 net.cpp:165] Memory required for data: 2515800028
I0215 10:19:38.206668  4596 layer_factory.hpp:77] Creating layer ReLU12
I0215 10:19:38.206678  4596 net.cpp:106] Creating Layer ReLU12
I0215 10:19:38.206686  4596 net.cpp:454] ReLU12 <- BatchNorm12
I0215 10:19:38.206693  4596 net.cpp:397] ReLU12 -> BatchNorm12 (in-place)
I0215 10:19:38.206702  4596 net.cpp:150] Setting up ReLU12
I0215 10:19:38.206710  4596 net.cpp:157] Top shape: 1 136 150 250 (5100000)
I0215 10:19:38.206715  4596 net.cpp:165] Memory required for data: 2536200028
I0215 10:19:38.206720  4596 layer_factory.hpp:77] Creating layer Convolution13
I0215 10:19:38.206734  4596 net.cpp:106] Creating Layer Convolution13
I0215 10:19:38.206742  4596 net.cpp:454] Convolution13 <- BatchNorm12
I0215 10:19:38.206750  4596 net.cpp:411] Convolution13 -> Convolution13
I0215 10:19:38.210861  4596 net.cpp:150] Setting up Convolution13
I0215 10:19:38.210906  4596 net.cpp:157] Top shape: 1 12 150 250 (450000)
I0215 10:19:38.210913  4596 net.cpp:165] Memory required for data: 2538000028
I0215 10:19:38.210935  4596 layer_factory.hpp:77] Creating layer Dropout12
I0215 10:19:38.210958  4596 net.cpp:106] Creating Layer Dropout12
I0215 10:19:38.210980  4596 net.cpp:454] Dropout12 <- Convolution13
I0215 10:19:38.210999  4596 net.cpp:411] Dropout12 -> Dropout12
I0215 10:19:38.211068  4596 net.cpp:150] Setting up Dropout12
I0215 10:19:38.211081  4596 net.cpp:157] Top shape: 1 12 150 250 (450000)
I0215 10:19:38.211086  4596 net.cpp:165] Memory required for data: 2539800028
I0215 10:19:38.211091  4596 layer_factory.hpp:77] Creating layer Concat11
I0215 10:19:38.211099  4596 net.cpp:106] Creating Layer Concat11
I0215 10:19:38.211109  4596 net.cpp:454] Concat11 <- Concat10_Concat10_0_split_1
I0215 10:19:38.211117  4596 net.cpp:454] Concat11 <- Dropout12
I0215 10:19:38.211127  4596 net.cpp:411] Concat11 -> Concat11
I0215 10:19:38.211164  4596 net.cpp:150] Setting up Concat11
I0215 10:19:38.211175  4596 net.cpp:157] Top shape: 1 148 150 250 (5550000)
I0215 10:19:38.211180  4596 net.cpp:165] Memory required for data: 2562000028
I0215 10:19:38.211185  4596 layer_factory.hpp:77] Creating layer Concat11_Concat11_0_split
I0215 10:19:38.211194  4596 net.cpp:106] Creating Layer Concat11_Concat11_0_split
I0215 10:19:38.211199  4596 net.cpp:454] Concat11_Concat11_0_split <- Concat11
I0215 10:19:38.211207  4596 net.cpp:411] Concat11_Concat11_0_split -> Concat11_Concat11_0_split_0
I0215 10:19:38.211217  4596 net.cpp:411] Concat11_Concat11_0_split -> Concat11_Concat11_0_split_1
I0215 10:19:38.211274  4596 net.cpp:150] Setting up Concat11_Concat11_0_split
I0215 10:19:38.211284  4596 net.cpp:157] Top shape: 1 148 150 250 (5550000)
I0215 10:19:38.211292  4596 net.cpp:157] Top shape: 1 148 150 250 (5550000)
I0215 10:19:38.211297  4596 net.cpp:165] Memory required for data: 2606400028
I0215 10:19:38.211302  4596 layer_factory.hpp:77] Creating layer BatchNorm13
I0215 10:19:38.211314  4596 net.cpp:106] Creating Layer BatchNorm13
I0215 10:19:38.211320  4596 net.cpp:454] BatchNorm13 <- Concat11_Concat11_0_split_0
I0215 10:19:38.211333  4596 net.cpp:411] BatchNorm13 -> BatchNorm13
I0215 10:19:38.211762  4596 net.cpp:150] Setting up BatchNorm13
I0215 10:19:38.211776  4596 net.cpp:157] Top shape: 1 148 150 250 (5550000)
I0215 10:19:38.211783  4596 net.cpp:165] Memory required for data: 2628600028
I0215 10:19:38.211793  4596 layer_factory.hpp:77] Creating layer Scale13
I0215 10:19:38.211807  4596 net.cpp:106] Creating Layer Scale13
I0215 10:19:38.211812  4596 net.cpp:454] Scale13 <- BatchNorm13
I0215 10:19:38.211820  4596 net.cpp:397] Scale13 -> BatchNorm13 (in-place)
I0215 10:19:38.211884  4596 layer_factory.hpp:77] Creating layer Scale13
I0215 10:19:38.212142  4596 net.cpp:150] Setting up Scale13
I0215 10:19:38.212155  4596 net.cpp:157] Top shape: 1 148 150 250 (5550000)
I0215 10:19:38.212160  4596 net.cpp:165] Memory required for data: 2650800028
I0215 10:19:38.212167  4596 layer_factory.hpp:77] Creating layer ReLU13
I0215 10:19:38.212175  4596 net.cpp:106] Creating Layer ReLU13
I0215 10:19:38.212180  4596 net.cpp:454] ReLU13 <- BatchNorm13
I0215 10:19:38.212185  4596 net.cpp:397] ReLU13 -> BatchNorm13 (in-place)
I0215 10:19:38.212193  4596 net.cpp:150] Setting up ReLU13
I0215 10:19:38.212198  4596 net.cpp:157] Top shape: 1 148 150 250 (5550000)
I0215 10:19:38.212203  4596 net.cpp:165] Memory required for data: 2673000028
I0215 10:19:38.212206  4596 layer_factory.hpp:77] Creating layer Convolution14
I0215 10:19:38.212220  4596 net.cpp:106] Creating Layer Convolution14
I0215 10:19:38.212226  4596 net.cpp:454] Convolution14 <- BatchNorm13
I0215 10:19:38.212234  4596 net.cpp:411] Convolution14 -> Convolution14
I0215 10:19:38.213068  4596 net.cpp:150] Setting up Convolution14
I0215 10:19:38.213081  4596 net.cpp:157] Top shape: 1 12 150 250 (450000)
I0215 10:19:38.213086  4596 net.cpp:165] Memory required for data: 2674800028
I0215 10:19:38.213095  4596 layer_factory.hpp:77] Creating layer Dropout13
I0215 10:19:38.213110  4596 net.cpp:106] Creating Layer Dropout13
I0215 10:19:38.213116  4596 net.cpp:454] Dropout13 <- Convolution14
I0215 10:19:38.213124  4596 net.cpp:411] Dropout13 -> Dropout13
I0215 10:19:38.213184  4596 net.cpp:150] Setting up Dropout13
I0215 10:19:38.213196  4596 net.cpp:157] Top shape: 1 12 150 250 (450000)
I0215 10:19:38.213201  4596 net.cpp:165] Memory required for data: 2676600028
I0215 10:19:38.213207  4596 layer_factory.hpp:77] Creating layer Concat12
I0215 10:19:38.213214  4596 net.cpp:106] Creating Layer Concat12
I0215 10:19:38.213220  4596 net.cpp:454] Concat12 <- Concat11_Concat11_0_split_1
I0215 10:19:38.213228  4596 net.cpp:454] Concat12 <- Dropout13
I0215 10:19:38.213238  4596 net.cpp:411] Concat12 -> Concat12
I0215 10:19:38.213275  4596 net.cpp:150] Setting up Concat12
I0215 10:19:38.213285  4596 net.cpp:157] Top shape: 1 160 150 250 (6000000)
I0215 10:19:38.213291  4596 net.cpp:165] Memory required for data: 2700600028
I0215 10:19:38.213296  4596 layer_factory.hpp:77] Creating layer Concat12_Concat12_0_split
I0215 10:19:38.213305  4596 net.cpp:106] Creating Layer Concat12_Concat12_0_split
I0215 10:19:38.213311  4596 net.cpp:454] Concat12_Concat12_0_split <- Concat12
I0215 10:19:38.213320  4596 net.cpp:411] Concat12_Concat12_0_split -> Concat12_Concat12_0_split_0
I0215 10:19:38.213326  4596 net.cpp:411] Concat12_Concat12_0_split -> Concat12_Concat12_0_split_1
I0215 10:19:38.213384  4596 net.cpp:150] Setting up Concat12_Concat12_0_split
I0215 10:19:38.213393  4596 net.cpp:157] Top shape: 1 160 150 250 (6000000)
I0215 10:19:38.213398  4596 net.cpp:157] Top shape: 1 160 150 250 (6000000)
I0215 10:19:38.213402  4596 net.cpp:165] Memory required for data: 2748600028
I0215 10:19:38.213407  4596 layer_factory.hpp:77] Creating layer BatchNorm14
I0215 10:19:38.213416  4596 net.cpp:106] Creating Layer BatchNorm14
I0215 10:19:38.213421  4596 net.cpp:454] BatchNorm14 <- Concat12_Concat12_0_split_0
I0215 10:19:38.213428  4596 net.cpp:411] BatchNorm14 -> BatchNorm14
I0215 10:19:38.215817  4596 net.cpp:150] Setting up BatchNorm14
I0215 10:19:38.215837  4596 net.cpp:157] Top shape: 1 160 150 250 (6000000)
I0215 10:19:38.215843  4596 net.cpp:165] Memory required for data: 2772600028
I0215 10:19:38.215857  4596 layer_factory.hpp:77] Creating layer Scale14
I0215 10:19:38.215870  4596 net.cpp:106] Creating Layer Scale14
I0215 10:19:38.215878  4596 net.cpp:454] Scale14 <- BatchNorm14
I0215 10:19:38.215888  4596 net.cpp:397] Scale14 -> BatchNorm14 (in-place)
I0215 10:19:38.215958  4596 layer_factory.hpp:77] Creating layer Scale14
I0215 10:19:38.216245  4596 net.cpp:150] Setting up Scale14
I0215 10:19:38.216258  4596 net.cpp:157] Top shape: 1 160 150 250 (6000000)
I0215 10:19:38.216262  4596 net.cpp:165] Memory required for data: 2796600028
I0215 10:19:38.216274  4596 layer_factory.hpp:77] Creating layer ReLU14
I0215 10:19:38.216281  4596 net.cpp:106] Creating Layer ReLU14
I0215 10:19:38.216286  4596 net.cpp:454] ReLU14 <- BatchNorm14
I0215 10:19:38.216295  4596 net.cpp:397] ReLU14 -> BatchNorm14 (in-place)
I0215 10:19:38.216302  4596 net.cpp:150] Setting up ReLU14
I0215 10:19:38.216308  4596 net.cpp:157] Top shape: 1 160 150 250 (6000000)
I0215 10:19:38.216313  4596 net.cpp:165] Memory required for data: 2820600028
I0215 10:19:38.216318  4596 layer_factory.hpp:77] Creating layer Convolution15
I0215 10:19:38.216331  4596 net.cpp:106] Creating Layer Convolution15
I0215 10:19:38.216337  4596 net.cpp:454] Convolution15 <- BatchNorm14
I0215 10:19:38.216346  4596 net.cpp:411] Convolution15 -> Convolution15
I0215 10:19:38.217248  4596 net.cpp:150] Setting up Convolution15
I0215 10:19:38.217260  4596 net.cpp:157] Top shape: 1 12 150 250 (450000)
I0215 10:19:38.217265  4596 net.cpp:165] Memory required for data: 2822400028
I0215 10:19:38.217273  4596 layer_factory.hpp:77] Creating layer Dropout14
I0215 10:19:38.217281  4596 net.cpp:106] Creating Layer Dropout14
I0215 10:19:38.217288  4596 net.cpp:454] Dropout14 <- Convolution15
I0215 10:19:38.217296  4596 net.cpp:411] Dropout14 -> Dropout14
I0215 10:19:38.217363  4596 net.cpp:150] Setting up Dropout14
I0215 10:19:38.217373  4596 net.cpp:157] Top shape: 1 12 150 250 (450000)
I0215 10:19:38.217378  4596 net.cpp:165] Memory required for data: 2824200028
I0215 10:19:38.217383  4596 layer_factory.hpp:77] Creating layer Concat13
I0215 10:19:38.217391  4596 net.cpp:106] Creating Layer Concat13
I0215 10:19:38.217397  4596 net.cpp:454] Concat13 <- Concat12_Concat12_0_split_1
I0215 10:19:38.217403  4596 net.cpp:454] Concat13 <- Dropout14
I0215 10:19:38.217411  4596 net.cpp:411] Concat13 -> Concat13
I0215 10:19:38.217452  4596 net.cpp:150] Setting up Concat13
I0215 10:19:38.217461  4596 net.cpp:157] Top shape: 1 172 150 250 (6450000)
I0215 10:19:38.217466  4596 net.cpp:165] Memory required for data: 2850000028
I0215 10:19:38.217473  4596 layer_factory.hpp:77] Creating layer Concat13_Concat13_0_split
I0215 10:19:38.217480  4596 net.cpp:106] Creating Layer Concat13_Concat13_0_split
I0215 10:19:38.217486  4596 net.cpp:454] Concat13_Concat13_0_split <- Concat13
I0215 10:19:38.217494  4596 net.cpp:411] Concat13_Concat13_0_split -> Concat13_Concat13_0_split_0
I0215 10:19:38.217502  4596 net.cpp:411] Concat13_Concat13_0_split -> Concat13_Concat13_0_split_1
I0215 10:19:38.217564  4596 net.cpp:150] Setting up Concat13_Concat13_0_split
I0215 10:19:38.217576  4596 net.cpp:157] Top shape: 1 172 150 250 (6450000)
I0215 10:19:38.217581  4596 net.cpp:157] Top shape: 1 172 150 250 (6450000)
I0215 10:19:38.217586  4596 net.cpp:165] Memory required for data: 2901600028
I0215 10:19:38.217591  4596 layer_factory.hpp:77] Creating layer BatchNorm15
I0215 10:19:38.217600  4596 net.cpp:106] Creating Layer BatchNorm15
I0215 10:19:38.217605  4596 net.cpp:454] BatchNorm15 <- Concat13_Concat13_0_split_0
I0215 10:19:38.217614  4596 net.cpp:411] BatchNorm15 -> BatchNorm15
I0215 10:19:38.217983  4596 net.cpp:150] Setting up BatchNorm15
I0215 10:19:38.217993  4596 net.cpp:157] Top shape: 1 172 150 250 (6450000)
I0215 10:19:38.217998  4596 net.cpp:165] Memory required for data: 2927400028
I0215 10:19:38.218008  4596 layer_factory.hpp:77] Creating layer Scale15
I0215 10:19:38.218019  4596 net.cpp:106] Creating Layer Scale15
I0215 10:19:38.218025  4596 net.cpp:454] Scale15 <- BatchNorm15
I0215 10:19:38.218035  4596 net.cpp:397] Scale15 -> BatchNorm15 (in-place)
I0215 10:19:38.218101  4596 layer_factory.hpp:77] Creating layer Scale15
I0215 10:19:38.218369  4596 net.cpp:150] Setting up Scale15
I0215 10:19:38.218380  4596 net.cpp:157] Top shape: 1 172 150 250 (6450000)
I0215 10:19:38.218385  4596 net.cpp:165] Memory required for data: 2953200028
I0215 10:19:38.218394  4596 layer_factory.hpp:77] Creating layer ReLU15
I0215 10:19:38.218401  4596 net.cpp:106] Creating Layer ReLU15
I0215 10:19:38.218407  4596 net.cpp:454] ReLU15 <- BatchNorm15
I0215 10:19:38.218413  4596 net.cpp:397] ReLU15 -> BatchNorm15 (in-place)
I0215 10:19:38.218420  4596 net.cpp:150] Setting up ReLU15
I0215 10:19:38.218427  4596 net.cpp:157] Top shape: 1 172 150 250 (6450000)
I0215 10:19:38.218431  4596 net.cpp:165] Memory required for data: 2979000028
I0215 10:19:38.218437  4596 layer_factory.hpp:77] Creating layer Convolution16
I0215 10:19:38.218449  4596 net.cpp:106] Creating Layer Convolution16
I0215 10:19:38.218454  4596 net.cpp:454] Convolution16 <- BatchNorm15
I0215 10:19:38.218464  4596 net.cpp:411] Convolution16 -> Convolution16
I0215 10:19:38.219383  4596 net.cpp:150] Setting up Convolution16
I0215 10:19:38.219396  4596 net.cpp:157] Top shape: 1 12 150 250 (450000)
I0215 10:19:38.219401  4596 net.cpp:165] Memory required for data: 2980800028
I0215 10:19:38.219408  4596 layer_factory.hpp:77] Creating layer Dropout15
I0215 10:19:38.219416  4596 net.cpp:106] Creating Layer Dropout15
I0215 10:19:38.219422  4596 net.cpp:454] Dropout15 <- Convolution16
I0215 10:19:38.219429  4596 net.cpp:411] Dropout15 -> Dropout15
I0215 10:19:38.219494  4596 net.cpp:150] Setting up Dropout15
I0215 10:19:38.219504  4596 net.cpp:157] Top shape: 1 12 150 250 (450000)
I0215 10:19:38.219509  4596 net.cpp:165] Memory required for data: 2982600028
I0215 10:19:38.219514  4596 layer_factory.hpp:77] Creating layer Concat14
I0215 10:19:38.219527  4596 net.cpp:106] Creating Layer Concat14
I0215 10:19:38.219532  4596 net.cpp:454] Concat14 <- Concat13_Concat13_0_split_1
I0215 10:19:38.219539  4596 net.cpp:454] Concat14 <- Dropout15
I0215 10:19:38.219547  4596 net.cpp:411] Concat14 -> Concat14
I0215 10:19:38.219616  4596 net.cpp:150] Setting up Concat14
I0215 10:19:38.219631  4596 net.cpp:157] Top shape: 1 184 150 250 (6900000)
I0215 10:19:38.219636  4596 net.cpp:165] Memory required for data: 3010200028
I0215 10:19:38.219642  4596 layer_factory.hpp:77] Creating layer Concat14_Concat14_0_split
I0215 10:19:38.219650  4596 net.cpp:106] Creating Layer Concat14_Concat14_0_split
I0215 10:19:38.219655  4596 net.cpp:454] Concat14_Concat14_0_split <- Concat14
I0215 10:19:38.219661  4596 net.cpp:411] Concat14_Concat14_0_split -> Concat14_Concat14_0_split_0
I0215 10:19:38.219669  4596 net.cpp:411] Concat14_Concat14_0_split -> Concat14_Concat14_0_split_1
I0215 10:19:38.219734  4596 net.cpp:150] Setting up Concat14_Concat14_0_split
I0215 10:19:38.219744  4596 net.cpp:157] Top shape: 1 184 150 250 (6900000)
I0215 10:19:38.219753  4596 net.cpp:157] Top shape: 1 184 150 250 (6900000)
I0215 10:19:38.219758  4596 net.cpp:165] Memory required for data: 3065400028
I0215 10:19:38.219764  4596 layer_factory.hpp:77] Creating layer BatchNorm16
I0215 10:19:38.219772  4596 net.cpp:106] Creating Layer BatchNorm16
I0215 10:19:38.219777  4596 net.cpp:454] BatchNorm16 <- Concat14_Concat14_0_split_0
I0215 10:19:38.219786  4596 net.cpp:411] BatchNorm16 -> BatchNorm16
I0215 10:19:38.220834  4596 net.cpp:150] Setting up BatchNorm16
I0215 10:19:38.220849  4596 net.cpp:157] Top shape: 1 184 150 250 (6900000)
I0215 10:19:38.220854  4596 net.cpp:165] Memory required for data: 3093000028
I0215 10:19:38.220863  4596 layer_factory.hpp:77] Creating layer Scale16
I0215 10:19:38.220872  4596 net.cpp:106] Creating Layer Scale16
I0215 10:19:38.220878  4596 net.cpp:454] Scale16 <- BatchNorm16
I0215 10:19:38.220887  4596 net.cpp:397] Scale16 -> BatchNorm16 (in-place)
I0215 10:19:38.220957  4596 layer_factory.hpp:77] Creating layer Scale16
I0215 10:19:38.221215  4596 net.cpp:150] Setting up Scale16
I0215 10:19:38.221226  4596 net.cpp:157] Top shape: 1 184 150 250 (6900000)
I0215 10:19:38.221231  4596 net.cpp:165] Memory required for data: 3120600028
I0215 10:19:38.221240  4596 layer_factory.hpp:77] Creating layer ReLU16
I0215 10:19:38.221251  4596 net.cpp:106] Creating Layer ReLU16
I0215 10:19:38.221257  4596 net.cpp:454] ReLU16 <- BatchNorm16
I0215 10:19:38.221264  4596 net.cpp:397] ReLU16 -> BatchNorm16 (in-place)
I0215 10:19:38.221271  4596 net.cpp:150] Setting up ReLU16
I0215 10:19:38.221278  4596 net.cpp:157] Top shape: 1 184 150 250 (6900000)
I0215 10:19:38.221282  4596 net.cpp:165] Memory required for data: 3148200028
I0215 10:19:38.221287  4596 layer_factory.hpp:77] Creating layer Convolution17
I0215 10:19:38.221298  4596 net.cpp:106] Creating Layer Convolution17
I0215 10:19:38.221303  4596 net.cpp:454] Convolution17 <- BatchNorm16
I0215 10:19:38.221313  4596 net.cpp:411] Convolution17 -> Convolution17
I0215 10:19:38.222270  4596 net.cpp:150] Setting up Convolution17
I0215 10:19:38.222282  4596 net.cpp:157] Top shape: 1 12 150 250 (450000)
I0215 10:19:38.222287  4596 net.cpp:165] Memory required for data: 3150000028
I0215 10:19:38.222295  4596 layer_factory.hpp:77] Creating layer Dropout16
I0215 10:19:38.222304  4596 net.cpp:106] Creating Layer Dropout16
I0215 10:19:38.222311  4596 net.cpp:454] Dropout16 <- Convolution17
I0215 10:19:38.222318  4596 net.cpp:411] Dropout16 -> Dropout16
I0215 10:19:38.222388  4596 net.cpp:150] Setting up Dropout16
I0215 10:19:38.222398  4596 net.cpp:157] Top shape: 1 12 150 250 (450000)
I0215 10:19:38.222403  4596 net.cpp:165] Memory required for data: 3151800028
I0215 10:19:38.222407  4596 layer_factory.hpp:77] Creating layer Concat15
I0215 10:19:38.222416  4596 net.cpp:106] Creating Layer Concat15
I0215 10:19:38.222422  4596 net.cpp:454] Concat15 <- Concat14_Concat14_0_split_1
I0215 10:19:38.222429  4596 net.cpp:454] Concat15 <- Dropout16
I0215 10:19:38.222437  4596 net.cpp:411] Concat15 -> Concat15
I0215 10:19:38.222477  4596 net.cpp:150] Setting up Concat15
I0215 10:19:38.222488  4596 net.cpp:157] Top shape: 1 196 150 250 (7350000)
I0215 10:19:38.222492  4596 net.cpp:165] Memory required for data: 3181200028
I0215 10:19:38.222497  4596 layer_factory.hpp:77] Creating layer Concat15_Concat15_0_split
I0215 10:19:38.222504  4596 net.cpp:106] Creating Layer Concat15_Concat15_0_split
I0215 10:19:38.222509  4596 net.cpp:454] Concat15_Concat15_0_split <- Concat15
I0215 10:19:38.222518  4596 net.cpp:411] Concat15_Concat15_0_split -> Concat15_Concat15_0_split_0
I0215 10:19:38.222527  4596 net.cpp:411] Concat15_Concat15_0_split -> Concat15_Concat15_0_split_1
I0215 10:19:38.222589  4596 net.cpp:150] Setting up Concat15_Concat15_0_split
I0215 10:19:38.222599  4596 net.cpp:157] Top shape: 1 196 150 250 (7350000)
I0215 10:19:38.222604  4596 net.cpp:157] Top shape: 1 196 150 250 (7350000)
I0215 10:19:38.222609  4596 net.cpp:165] Memory required for data: 3240000028
I0215 10:19:38.222614  4596 layer_factory.hpp:77] Creating layer BatchNorm17
I0215 10:19:38.222625  4596 net.cpp:106] Creating Layer BatchNorm17
I0215 10:19:38.222630  4596 net.cpp:454] BatchNorm17 <- Concat15_Concat15_0_split_0
I0215 10:19:38.222636  4596 net.cpp:411] BatchNorm17 -> BatchNorm17
I0215 10:19:38.223107  4596 net.cpp:150] Setting up BatchNorm17
I0215 10:19:38.223119  4596 net.cpp:157] Top shape: 1 196 150 250 (7350000)
I0215 10:19:38.223124  4596 net.cpp:165] Memory required for data: 3269400028
I0215 10:19:38.223135  4596 layer_factory.hpp:77] Creating layer Scale17
I0215 10:19:38.223146  4596 net.cpp:106] Creating Layer Scale17
I0215 10:19:38.223152  4596 net.cpp:454] Scale17 <- BatchNorm17
I0215 10:19:38.223160  4596 net.cpp:397] Scale17 -> BatchNorm17 (in-place)
I0215 10:19:38.223228  4596 layer_factory.hpp:77] Creating layer Scale17
I0215 10:19:38.223476  4596 net.cpp:150] Setting up Scale17
I0215 10:19:38.223489  4596 net.cpp:157] Top shape: 1 196 150 250 (7350000)
I0215 10:19:38.223493  4596 net.cpp:165] Memory required for data: 3298800028
I0215 10:19:38.223501  4596 layer_factory.hpp:77] Creating layer ReLU17
I0215 10:19:38.223511  4596 net.cpp:106] Creating Layer ReLU17
I0215 10:19:38.223517  4596 net.cpp:454] ReLU17 <- BatchNorm17
I0215 10:19:38.223523  4596 net.cpp:397] ReLU17 -> BatchNorm17 (in-place)
I0215 10:19:38.223531  4596 net.cpp:150] Setting up ReLU17
I0215 10:19:38.223537  4596 net.cpp:157] Top shape: 1 196 150 250 (7350000)
I0215 10:19:38.223541  4596 net.cpp:165] Memory required for data: 3328200028
I0215 10:19:38.223546  4596 layer_factory.hpp:77] Creating layer Convolution18
I0215 10:19:38.223558  4596 net.cpp:106] Creating Layer Convolution18
I0215 10:19:38.223563  4596 net.cpp:454] Convolution18 <- BatchNorm17
I0215 10:19:38.223573  4596 net.cpp:411] Convolution18 -> Convolution18
I0215 10:19:38.224606  4596 net.cpp:150] Setting up Convolution18
I0215 10:19:38.224618  4596 net.cpp:157] Top shape: 1 12 150 250 (450000)
I0215 10:19:38.224623  4596 net.cpp:165] Memory required for data: 3330000028
I0215 10:19:38.224632  4596 layer_factory.hpp:77] Creating layer Dropout17
I0215 10:19:38.224642  4596 net.cpp:106] Creating Layer Dropout17
I0215 10:19:38.224647  4596 net.cpp:454] Dropout17 <- Convolution18
I0215 10:19:38.224654  4596 net.cpp:411] Dropout17 -> Dropout17
I0215 10:19:38.224720  4596 net.cpp:150] Setting up Dropout17
I0215 10:19:38.224731  4596 net.cpp:157] Top shape: 1 12 150 250 (450000)
I0215 10:19:38.224735  4596 net.cpp:165] Memory required for data: 3331800028
I0215 10:19:38.224742  4596 layer_factory.hpp:77] Creating layer Concat16
I0215 10:19:38.224750  4596 net.cpp:106] Creating Layer Concat16
I0215 10:19:38.224756  4596 net.cpp:454] Concat16 <- Concat15_Concat15_0_split_1
I0215 10:19:38.224761  4596 net.cpp:454] Concat16 <- Dropout17
I0215 10:19:38.224771  4596 net.cpp:411] Concat16 -> Concat16
I0215 10:19:38.224810  4596 net.cpp:150] Setting up Concat16
I0215 10:19:38.224820  4596 net.cpp:157] Top shape: 1 208 150 250 (7800000)
I0215 10:19:38.224824  4596 net.cpp:165] Memory required for data: 3363000028
I0215 10:19:38.224830  4596 layer_factory.hpp:77] Creating layer BatchNorm18
I0215 10:19:38.224839  4596 net.cpp:106] Creating Layer BatchNorm18
I0215 10:19:38.224845  4596 net.cpp:454] BatchNorm18 <- Concat16
I0215 10:19:38.224853  4596 net.cpp:411] BatchNorm18 -> BatchNorm18
I0215 10:19:38.225935  4596 net.cpp:150] Setting up BatchNorm18
I0215 10:19:38.225949  4596 net.cpp:157] Top shape: 1 208 150 250 (7800000)
I0215 10:19:38.225953  4596 net.cpp:165] Memory required for data: 3394200028
I0215 10:19:38.225965  4596 layer_factory.hpp:77] Creating layer Scale18
I0215 10:19:38.225975  4596 net.cpp:106] Creating Layer Scale18
I0215 10:19:38.225980  4596 net.cpp:454] Scale18 <- BatchNorm18
I0215 10:19:38.225989  4596 net.cpp:397] Scale18 -> BatchNorm18 (in-place)
I0215 10:19:38.226059  4596 layer_factory.hpp:77] Creating layer Scale18
I0215 10:19:38.226307  4596 net.cpp:150] Setting up Scale18
I0215 10:19:38.226320  4596 net.cpp:157] Top shape: 1 208 150 250 (7800000)
I0215 10:19:38.226325  4596 net.cpp:165] Memory required for data: 3425400028
I0215 10:19:38.226333  4596 layer_factory.hpp:77] Creating layer ReLU18
I0215 10:19:38.226346  4596 net.cpp:106] Creating Layer ReLU18
I0215 10:19:38.226351  4596 net.cpp:454] ReLU18 <- BatchNorm18
I0215 10:19:38.226357  4596 net.cpp:397] ReLU18 -> BatchNorm18 (in-place)
I0215 10:19:38.226364  4596 net.cpp:150] Setting up ReLU18
I0215 10:19:38.226372  4596 net.cpp:157] Top shape: 1 208 150 250 (7800000)
I0215 10:19:38.226375  4596 net.cpp:165] Memory required for data: 3456600028
I0215 10:19:38.226382  4596 layer_factory.hpp:77] Creating layer Convolution19
I0215 10:19:38.226393  4596 net.cpp:106] Creating Layer Convolution19
I0215 10:19:38.226399  4596 net.cpp:454] Convolution19 <- BatchNorm18
I0215 10:19:38.226407  4596 net.cpp:411] Convolution19 -> Convolution19
I0215 10:19:38.228135  4596 net.cpp:150] Setting up Convolution19
I0215 10:19:38.228152  4596 net.cpp:157] Top shape: 1 208 150 250 (7800000)
I0215 10:19:38.228157  4596 net.cpp:165] Memory required for data: 3487800028
I0215 10:19:38.228165  4596 layer_factory.hpp:77] Creating layer Dropout18
I0215 10:19:38.228175  4596 net.cpp:106] Creating Layer Dropout18
I0215 10:19:38.228183  4596 net.cpp:454] Dropout18 <- Convolution19
I0215 10:19:38.228193  4596 net.cpp:411] Dropout18 -> Dropout18
I0215 10:19:38.228262  4596 net.cpp:150] Setting up Dropout18
I0215 10:19:38.228274  4596 net.cpp:157] Top shape: 1 208 150 250 (7800000)
I0215 10:19:38.228281  4596 net.cpp:165] Memory required for data: 3519000028
I0215 10:19:38.228286  4596 layer_factory.hpp:77] Creating layer Pooling2
I0215 10:19:38.228298  4596 net.cpp:106] Creating Layer Pooling2
I0215 10:19:38.228305  4596 net.cpp:454] Pooling2 <- Dropout18
I0215 10:19:38.228317  4596 net.cpp:411] Pooling2 -> Pooling2
I0215 10:19:38.228360  4596 net.cpp:150] Setting up Pooling2
I0215 10:19:38.228371  4596 net.cpp:157] Top shape: 1 208 75 125 (1950000)
I0215 10:19:38.228379  4596 net.cpp:165] Memory required for data: 3526800028
I0215 10:19:38.228384  4596 layer_factory.hpp:77] Creating layer Pooling2_Pooling2_0_split
I0215 10:19:38.228392  4596 net.cpp:106] Creating Layer Pooling2_Pooling2_0_split
I0215 10:19:38.228399  4596 net.cpp:454] Pooling2_Pooling2_0_split <- Pooling2
I0215 10:19:38.228407  4596 net.cpp:411] Pooling2_Pooling2_0_split -> Pooling2_Pooling2_0_split_0
I0215 10:19:38.228417  4596 net.cpp:411] Pooling2_Pooling2_0_split -> Pooling2_Pooling2_0_split_1
I0215 10:19:38.228482  4596 net.cpp:150] Setting up Pooling2_Pooling2_0_split
I0215 10:19:38.228493  4596 net.cpp:157] Top shape: 1 208 75 125 (1950000)
I0215 10:19:38.228502  4596 net.cpp:157] Top shape: 1 208 75 125 (1950000)
I0215 10:19:38.228507  4596 net.cpp:165] Memory required for data: 3542400028
I0215 10:19:38.228512  4596 layer_factory.hpp:77] Creating layer BatchNorm19
I0215 10:19:38.228565  4596 net.cpp:106] Creating Layer BatchNorm19
I0215 10:19:38.228572  4596 net.cpp:454] BatchNorm19 <- Pooling2_Pooling2_0_split_0
I0215 10:19:38.228579  4596 net.cpp:411] BatchNorm19 -> BatchNorm19
I0215 10:19:38.228955  4596 net.cpp:150] Setting up BatchNorm19
I0215 10:19:38.228965  4596 net.cpp:157] Top shape: 1 208 75 125 (1950000)
I0215 10:19:38.228971  4596 net.cpp:165] Memory required for data: 3550200028
I0215 10:19:38.228982  4596 layer_factory.hpp:77] Creating layer Scale19
I0215 10:19:38.228993  4596 net.cpp:106] Creating Layer Scale19
I0215 10:19:38.228999  4596 net.cpp:454] Scale19 <- BatchNorm19
I0215 10:19:38.229005  4596 net.cpp:397] Scale19 -> BatchNorm19 (in-place)
I0215 10:19:38.229074  4596 layer_factory.hpp:77] Creating layer Scale19
I0215 10:19:38.229300  4596 net.cpp:150] Setting up Scale19
I0215 10:19:38.229311  4596 net.cpp:157] Top shape: 1 208 75 125 (1950000)
I0215 10:19:38.229316  4596 net.cpp:165] Memory required for data: 3558000028
I0215 10:19:38.229324  4596 layer_factory.hpp:77] Creating layer ReLU19
I0215 10:19:38.229332  4596 net.cpp:106] Creating Layer ReLU19
I0215 10:19:38.229337  4596 net.cpp:454] ReLU19 <- BatchNorm19
I0215 10:19:38.229346  4596 net.cpp:397] ReLU19 -> BatchNorm19 (in-place)
I0215 10:19:38.229354  4596 net.cpp:150] Setting up ReLU19
I0215 10:19:38.229360  4596 net.cpp:157] Top shape: 1 208 75 125 (1950000)
I0215 10:19:38.229365  4596 net.cpp:165] Memory required for data: 3565800028
I0215 10:19:38.229370  4596 layer_factory.hpp:77] Creating layer Convolution20
I0215 10:19:38.229382  4596 net.cpp:106] Creating Layer Convolution20
I0215 10:19:38.229387  4596 net.cpp:454] Convolution20 <- BatchNorm19
I0215 10:19:38.229394  4596 net.cpp:411] Convolution20 -> Convolution20
I0215 10:19:38.230437  4596 net.cpp:150] Setting up Convolution20
I0215 10:19:38.230448  4596 net.cpp:157] Top shape: 1 12 75 125 (112500)
I0215 10:19:38.230453  4596 net.cpp:165] Memory required for data: 3566250028
I0215 10:19:38.230461  4596 layer_factory.hpp:77] Creating layer Dropout19
I0215 10:19:38.230469  4596 net.cpp:106] Creating Layer Dropout19
I0215 10:19:38.230475  4596 net.cpp:454] Dropout19 <- Convolution20
I0215 10:19:38.230484  4596 net.cpp:411] Dropout19 -> Dropout19
I0215 10:19:38.230551  4596 net.cpp:150] Setting up Dropout19
I0215 10:19:38.230561  4596 net.cpp:157] Top shape: 1 12 75 125 (112500)
I0215 10:19:38.230566  4596 net.cpp:165] Memory required for data: 3566700028
I0215 10:19:38.230571  4596 layer_factory.hpp:77] Creating layer Concat17
I0215 10:19:38.230578  4596 net.cpp:106] Creating Layer Concat17
I0215 10:19:38.230584  4596 net.cpp:454] Concat17 <- Pooling2_Pooling2_0_split_1
I0215 10:19:38.230590  4596 net.cpp:454] Concat17 <- Dropout19
I0215 10:19:38.230598  4596 net.cpp:411] Concat17 -> Concat17
I0215 10:19:38.230640  4596 net.cpp:150] Setting up Concat17
I0215 10:19:38.230650  4596 net.cpp:157] Top shape: 1 220 75 125 (2062500)
I0215 10:19:38.230655  4596 net.cpp:165] Memory required for data: 3574950028
I0215 10:19:38.230660  4596 layer_factory.hpp:77] Creating layer Concat17_Concat17_0_split
I0215 10:19:38.230669  4596 net.cpp:106] Creating Layer Concat17_Concat17_0_split
I0215 10:19:38.230674  4596 net.cpp:454] Concat17_Concat17_0_split <- Concat17
I0215 10:19:38.230682  4596 net.cpp:411] Concat17_Concat17_0_split -> Concat17_Concat17_0_split_0
I0215 10:19:38.230690  4596 net.cpp:411] Concat17_Concat17_0_split -> Concat17_Concat17_0_split_1
I0215 10:19:38.230752  4596 net.cpp:150] Setting up Concat17_Concat17_0_split
I0215 10:19:38.230763  4596 net.cpp:157] Top shape: 1 220 75 125 (2062500)
I0215 10:19:38.230769  4596 net.cpp:157] Top shape: 1 220 75 125 (2062500)
I0215 10:19:38.230773  4596 net.cpp:165] Memory required for data: 3591450028
I0215 10:19:38.230778  4596 layer_factory.hpp:77] Creating layer BatchNorm20
I0215 10:19:38.230787  4596 net.cpp:106] Creating Layer BatchNorm20
I0215 10:19:38.230795  4596 net.cpp:454] BatchNorm20 <- Concat17_Concat17_0_split_0
I0215 10:19:38.230803  4596 net.cpp:411] BatchNorm20 -> BatchNorm20
I0215 10:19:38.231191  4596 net.cpp:150] Setting up BatchNorm20
I0215 10:19:38.231205  4596 net.cpp:157] Top shape: 1 220 75 125 (2062500)
I0215 10:19:38.231211  4596 net.cpp:165] Memory required for data: 3599700028
I0215 10:19:38.231221  4596 layer_factory.hpp:77] Creating layer Scale20
I0215 10:19:38.231235  4596 net.cpp:106] Creating Layer Scale20
I0215 10:19:38.231242  4596 net.cpp:454] Scale20 <- BatchNorm20
I0215 10:19:38.231250  4596 net.cpp:397] Scale20 -> BatchNorm20 (in-place)
I0215 10:19:38.231318  4596 layer_factory.hpp:77] Creating layer Scale20
I0215 10:19:38.231564  4596 net.cpp:150] Setting up Scale20
I0215 10:19:38.231578  4596 net.cpp:157] Top shape: 1 220 75 125 (2062500)
I0215 10:19:38.231585  4596 net.cpp:165] Memory required for data: 3607950028
I0215 10:19:38.231606  4596 layer_factory.hpp:77] Creating layer ReLU20
I0215 10:19:38.231623  4596 net.cpp:106] Creating Layer ReLU20
I0215 10:19:38.231629  4596 net.cpp:454] ReLU20 <- BatchNorm20
I0215 10:19:38.231637  4596 net.cpp:397] ReLU20 -> BatchNorm20 (in-place)
I0215 10:19:38.231644  4596 net.cpp:150] Setting up ReLU20
I0215 10:19:38.231652  4596 net.cpp:157] Top shape: 1 220 75 125 (2062500)
I0215 10:19:38.231659  4596 net.cpp:165] Memory required for data: 3616200028
I0215 10:19:38.231664  4596 layer_factory.hpp:77] Creating layer Convolution21
I0215 10:19:38.231679  4596 net.cpp:106] Creating Layer Convolution21
I0215 10:19:38.231685  4596 net.cpp:454] Convolution21 <- BatchNorm20
I0215 10:19:38.231693  4596 net.cpp:411] Convolution21 -> Convolution21
I0215 10:19:38.232784  4596 net.cpp:150] Setting up Convolution21
I0215 10:19:38.232798  4596 net.cpp:157] Top shape: 1 12 75 125 (112500)
I0215 10:19:38.232805  4596 net.cpp:165] Memory required for data: 3616650028
I0215 10:19:38.232812  4596 layer_factory.hpp:77] Creating layer Dropout20
I0215 10:19:38.232821  4596 net.cpp:106] Creating Layer Dropout20
I0215 10:19:38.232828  4596 net.cpp:454] Dropout20 <- Convolution21
I0215 10:19:38.232838  4596 net.cpp:411] Dropout20 -> Dropout20
I0215 10:19:38.232908  4596 net.cpp:150] Setting up Dropout20
I0215 10:19:38.232919  4596 net.cpp:157] Top shape: 1 12 75 125 (112500)
I0215 10:19:38.232925  4596 net.cpp:165] Memory required for data: 3617100028
I0215 10:19:38.232931  4596 layer_factory.hpp:77] Creating layer Concat18
I0215 10:19:38.232941  4596 net.cpp:106] Creating Layer Concat18
I0215 10:19:38.232949  4596 net.cpp:454] Concat18 <- Concat17_Concat17_0_split_1
I0215 10:19:38.232956  4596 net.cpp:454] Concat18 <- Dropout20
I0215 10:19:38.232966  4596 net.cpp:411] Concat18 -> Concat18
I0215 10:19:38.233009  4596 net.cpp:150] Setting up Concat18
I0215 10:19:38.233021  4596 net.cpp:157] Top shape: 1 232 75 125 (2175000)
I0215 10:19:38.233027  4596 net.cpp:165] Memory required for data: 3625800028
I0215 10:19:38.233033  4596 layer_factory.hpp:77] Creating layer Concat18_Concat18_0_split
I0215 10:19:38.233042  4596 net.cpp:106] Creating Layer Concat18_Concat18_0_split
I0215 10:19:38.233048  4596 net.cpp:454] Concat18_Concat18_0_split <- Concat18
I0215 10:19:38.233058  4596 net.cpp:411] Concat18_Concat18_0_split -> Concat18_Concat18_0_split_0
I0215 10:19:38.233067  4596 net.cpp:411] Concat18_Concat18_0_split -> Concat18_Concat18_0_split_1
I0215 10:19:38.233131  4596 net.cpp:150] Setting up Concat18_Concat18_0_split
I0215 10:19:38.233142  4596 net.cpp:157] Top shape: 1 232 75 125 (2175000)
I0215 10:19:38.233150  4596 net.cpp:157] Top shape: 1 232 75 125 (2175000)
I0215 10:19:38.233155  4596 net.cpp:165] Memory required for data: 3643200028
I0215 10:19:38.233160  4596 layer_factory.hpp:77] Creating layer BatchNorm21
I0215 10:19:38.233173  4596 net.cpp:106] Creating Layer BatchNorm21
I0215 10:19:38.233180  4596 net.cpp:454] BatchNorm21 <- Concat18_Concat18_0_split_0
I0215 10:19:38.233188  4596 net.cpp:411] BatchNorm21 -> BatchNorm21
I0215 10:19:38.233562  4596 net.cpp:150] Setting up BatchNorm21
I0215 10:19:38.233575  4596 net.cpp:157] Top shape: 1 232 75 125 (2175000)
I0215 10:19:38.233582  4596 net.cpp:165] Memory required for data: 3651900028
I0215 10:19:38.233592  4596 layer_factory.hpp:77] Creating layer Scale21
I0215 10:19:38.233603  4596 net.cpp:106] Creating Layer Scale21
I0215 10:19:38.233611  4596 net.cpp:454] Scale21 <- BatchNorm21
I0215 10:19:38.233619  4596 net.cpp:397] Scale21 -> BatchNorm21 (in-place)
I0215 10:19:38.233688  4596 layer_factory.hpp:77] Creating layer Scale21
I0215 10:19:38.233928  4596 net.cpp:150] Setting up Scale21
I0215 10:19:38.233942  4596 net.cpp:157] Top shape: 1 232 75 125 (2175000)
I0215 10:19:38.233948  4596 net.cpp:165] Memory required for data: 3660600028
I0215 10:19:38.233958  4596 layer_factory.hpp:77] Creating layer ReLU21
I0215 10:19:38.233968  4596 net.cpp:106] Creating Layer ReLU21
I0215 10:19:38.233974  4596 net.cpp:454] ReLU21 <- BatchNorm21
I0215 10:19:38.233980  4596 net.cpp:397] ReLU21 -> BatchNorm21 (in-place)
I0215 10:19:38.233989  4596 net.cpp:150] Setting up ReLU21
I0215 10:19:38.233997  4596 net.cpp:157] Top shape: 1 232 75 125 (2175000)
I0215 10:19:38.234004  4596 net.cpp:165] Memory required for data: 3669300028
I0215 10:19:38.234009  4596 layer_factory.hpp:77] Creating layer Convolution22
I0215 10:19:38.234024  4596 net.cpp:106] Creating Layer Convolution22
I0215 10:19:38.234030  4596 net.cpp:454] Convolution22 <- BatchNorm21
I0215 10:19:38.234038  4596 net.cpp:411] Convolution22 -> Convolution22
I0215 10:19:38.235172  4596 net.cpp:150] Setting up Convolution22
I0215 10:19:38.235185  4596 net.cpp:157] Top shape: 1 12 75 125 (112500)
I0215 10:19:38.235190  4596 net.cpp:165] Memory required for data: 3669750028
I0215 10:19:38.235198  4596 layer_factory.hpp:77] Creating layer Dropout21
I0215 10:19:38.235209  4596 net.cpp:106] Creating Layer Dropout21
I0215 10:19:38.235216  4596 net.cpp:454] Dropout21 <- Convolution22
I0215 10:19:38.235224  4596 net.cpp:411] Dropout21 -> Dropout21
I0215 10:19:38.235292  4596 net.cpp:150] Setting up Dropout21
I0215 10:19:38.235304  4596 net.cpp:157] Top shape: 1 12 75 125 (112500)
I0215 10:19:38.235311  4596 net.cpp:165] Memory required for data: 3670200028
I0215 10:19:38.235316  4596 layer_factory.hpp:77] Creating layer Concat19
I0215 10:19:38.235327  4596 net.cpp:106] Creating Layer Concat19
I0215 10:19:38.235333  4596 net.cpp:454] Concat19 <- Concat18_Concat18_0_split_1
I0215 10:19:38.235340  4596 net.cpp:454] Concat19 <- Dropout21
I0215 10:19:38.235350  4596 net.cpp:411] Concat19 -> Concat19
I0215 10:19:38.235394  4596 net.cpp:150] Setting up Concat19
I0215 10:19:38.235404  4596 net.cpp:157] Top shape: 1 244 75 125 (2287500)
I0215 10:19:38.235410  4596 net.cpp:165] Memory required for data: 3679350028
I0215 10:19:38.235416  4596 layer_factory.hpp:77] Creating layer Concat19_Concat19_0_split
I0215 10:19:38.235427  4596 net.cpp:106] Creating Layer Concat19_Concat19_0_split
I0215 10:19:38.235433  4596 net.cpp:454] Concat19_Concat19_0_split <- Concat19
I0215 10:19:38.235440  4596 net.cpp:411] Concat19_Concat19_0_split -> Concat19_Concat19_0_split_0
I0215 10:19:38.235471  4596 net.cpp:411] Concat19_Concat19_0_split -> Concat19_Concat19_0_split_1
I0215 10:19:38.235543  4596 net.cpp:150] Setting up Concat19_Concat19_0_split
I0215 10:19:38.235556  4596 net.cpp:157] Top shape: 1 244 75 125 (2287500)
I0215 10:19:38.235563  4596 net.cpp:157] Top shape: 1 244 75 125 (2287500)
I0215 10:19:38.235569  4596 net.cpp:165] Memory required for data: 3697650028
I0215 10:19:38.235575  4596 layer_factory.hpp:77] Creating layer BatchNorm22
I0215 10:19:38.235605  4596 net.cpp:106] Creating Layer BatchNorm22
I0215 10:19:38.235615  4596 net.cpp:454] BatchNorm22 <- Concat19_Concat19_0_split_0
I0215 10:19:38.235623  4596 net.cpp:411] BatchNorm22 -> BatchNorm22
I0215 10:19:38.235996  4596 net.cpp:150] Setting up BatchNorm22
I0215 10:19:38.236009  4596 net.cpp:157] Top shape: 1 244 75 125 (2287500)
I0215 10:19:38.236016  4596 net.cpp:165] Memory required for data: 3706800028
I0215 10:19:38.236065  4596 layer_factory.hpp:77] Creating layer Scale22
I0215 10:19:38.236078  4596 net.cpp:106] Creating Layer Scale22
I0215 10:19:38.236084  4596 net.cpp:454] Scale22 <- BatchNorm22
I0215 10:19:38.236093  4596 net.cpp:397] Scale22 -> BatchNorm22 (in-place)
I0215 10:19:38.236165  4596 layer_factory.hpp:77] Creating layer Scale22
I0215 10:19:38.236395  4596 net.cpp:150] Setting up Scale22
I0215 10:19:38.236408  4596 net.cpp:157] Top shape: 1 244 75 125 (2287500)
I0215 10:19:38.236414  4596 net.cpp:165] Memory required for data: 3715950028
I0215 10:19:38.236423  4596 layer_factory.hpp:77] Creating layer ReLU22
I0215 10:19:38.236433  4596 net.cpp:106] Creating Layer ReLU22
I0215 10:19:38.236440  4596 net.cpp:454] ReLU22 <- BatchNorm22
I0215 10:19:38.236449  4596 net.cpp:397] ReLU22 -> BatchNorm22 (in-place)
I0215 10:19:38.236459  4596 net.cpp:150] Setting up ReLU22
I0215 10:19:38.236466  4596 net.cpp:157] Top shape: 1 244 75 125 (2287500)
I0215 10:19:38.236471  4596 net.cpp:165] Memory required for data: 3725100028
I0215 10:19:38.236476  4596 layer_factory.hpp:77] Creating layer Convolution23
I0215 10:19:38.236491  4596 net.cpp:106] Creating Layer Convolution23
I0215 10:19:38.236498  4596 net.cpp:454] Convolution23 <- BatchNorm22
I0215 10:19:38.236506  4596 net.cpp:411] Convolution23 -> Convolution23
I0215 10:19:38.237680  4596 net.cpp:150] Setting up Convolution23
I0215 10:19:38.237694  4596 net.cpp:157] Top shape: 1 12 75 125 (112500)
I0215 10:19:38.237701  4596 net.cpp:165] Memory required for data: 3725550028
I0215 10:19:38.237710  4596 layer_factory.hpp:77] Creating layer Dropout22
I0215 10:19:38.237720  4596 net.cpp:106] Creating Layer Dropout22
I0215 10:19:38.237725  4596 net.cpp:454] Dropout22 <- Convolution23
I0215 10:19:38.237733  4596 net.cpp:411] Dropout22 -> Dropout22
I0215 10:19:38.237805  4596 net.cpp:150] Setting up Dropout22
I0215 10:19:38.237820  4596 net.cpp:157] Top shape: 1 12 75 125 (112500)
I0215 10:19:38.237826  4596 net.cpp:165] Memory required for data: 3726000028
I0215 10:19:38.237833  4596 layer_factory.hpp:77] Creating layer Concat20
I0215 10:19:38.237843  4596 net.cpp:106] Creating Layer Concat20
I0215 10:19:38.237849  4596 net.cpp:454] Concat20 <- Concat19_Concat19_0_split_1
I0215 10:19:38.237857  4596 net.cpp:454] Concat20 <- Dropout22
I0215 10:19:38.237865  4596 net.cpp:411] Concat20 -> Concat20
I0215 10:19:38.237910  4596 net.cpp:150] Setting up Concat20
I0215 10:19:38.237922  4596 net.cpp:157] Top shape: 1 256 75 125 (2400000)
I0215 10:19:38.237928  4596 net.cpp:165] Memory required for data: 3735600028
I0215 10:19:38.237933  4596 layer_factory.hpp:77] Creating layer Concat20_Concat20_0_split
I0215 10:19:38.237941  4596 net.cpp:106] Creating Layer Concat20_Concat20_0_split
I0215 10:19:38.237948  4596 net.cpp:454] Concat20_Concat20_0_split <- Concat20
I0215 10:19:38.237956  4596 net.cpp:411] Concat20_Concat20_0_split -> Concat20_Concat20_0_split_0
I0215 10:19:38.237967  4596 net.cpp:411] Concat20_Concat20_0_split -> Concat20_Concat20_0_split_1
I0215 10:19:38.238029  4596 net.cpp:150] Setting up Concat20_Concat20_0_split
I0215 10:19:38.238044  4596 net.cpp:157] Top shape: 1 256 75 125 (2400000)
I0215 10:19:38.238051  4596 net.cpp:157] Top shape: 1 256 75 125 (2400000)
I0215 10:19:38.238056  4596 net.cpp:165] Memory required for data: 3754800028
I0215 10:19:38.238062  4596 layer_factory.hpp:77] Creating layer BatchNorm23
I0215 10:19:38.238070  4596 net.cpp:106] Creating Layer BatchNorm23
I0215 10:19:38.238077  4596 net.cpp:454] BatchNorm23 <- Concat20_Concat20_0_split_0
I0215 10:19:38.238086  4596 net.cpp:411] BatchNorm23 -> BatchNorm23
I0215 10:19:38.238431  4596 net.cpp:150] Setting up BatchNorm23
I0215 10:19:38.238445  4596 net.cpp:157] Top shape: 1 256 75 125 (2400000)
I0215 10:19:38.238451  4596 net.cpp:165] Memory required for data: 3764400028
I0215 10:19:38.238462  4596 layer_factory.hpp:77] Creating layer Scale23
I0215 10:19:38.238472  4596 net.cpp:106] Creating Layer Scale23
I0215 10:19:38.238479  4596 net.cpp:454] Scale23 <- BatchNorm23
I0215 10:19:38.238490  4596 net.cpp:397] Scale23 -> BatchNorm23 (in-place)
I0215 10:19:38.238561  4596 layer_factory.hpp:77] Creating layer Scale23
I0215 10:19:38.238780  4596 net.cpp:150] Setting up Scale23
I0215 10:19:38.238792  4596 net.cpp:157] Top shape: 1 256 75 125 (2400000)
I0215 10:19:38.238798  4596 net.cpp:165] Memory required for data: 3774000028
I0215 10:19:38.238807  4596 layer_factory.hpp:77] Creating layer ReLU23
I0215 10:19:38.238816  4596 net.cpp:106] Creating Layer ReLU23
I0215 10:19:38.238822  4596 net.cpp:454] ReLU23 <- BatchNorm23
I0215 10:19:38.238829  4596 net.cpp:397] ReLU23 -> BatchNorm23 (in-place)
I0215 10:19:38.238838  4596 net.cpp:150] Setting up ReLU23
I0215 10:19:38.238845  4596 net.cpp:157] Top shape: 1 256 75 125 (2400000)
I0215 10:19:38.238852  4596 net.cpp:165] Memory required for data: 3783600028
I0215 10:19:38.238857  4596 layer_factory.hpp:77] Creating layer Convolution24
I0215 10:19:38.238872  4596 net.cpp:106] Creating Layer Convolution24
I0215 10:19:38.238878  4596 net.cpp:454] Convolution24 <- BatchNorm23
I0215 10:19:38.238886  4596 net.cpp:411] Convolution24 -> Convolution24
I0215 10:19:38.240135  4596 net.cpp:150] Setting up Convolution24
I0215 10:19:38.240151  4596 net.cpp:157] Top shape: 1 12 75 125 (112500)
I0215 10:19:38.240157  4596 net.cpp:165] Memory required for data: 3784050028
I0215 10:19:38.240164  4596 layer_factory.hpp:77] Creating layer Dropout23
I0215 10:19:38.240173  4596 net.cpp:106] Creating Layer Dropout23
I0215 10:19:38.240180  4596 net.cpp:454] Dropout23 <- Convolution24
I0215 10:19:38.240192  4596 net.cpp:411] Dropout23 -> Dropout23
I0215 10:19:38.240262  4596 net.cpp:150] Setting up Dropout23
I0215 10:19:38.240273  4596 net.cpp:157] Top shape: 1 12 75 125 (112500)
I0215 10:19:38.240278  4596 net.cpp:165] Memory required for data: 3784500028
I0215 10:19:38.240284  4596 layer_factory.hpp:77] Creating layer Concat21
I0215 10:19:38.240295  4596 net.cpp:106] Creating Layer Concat21
I0215 10:19:38.240303  4596 net.cpp:454] Concat21 <- Concat20_Concat20_0_split_1
I0215 10:19:38.240309  4596 net.cpp:454] Concat21 <- Dropout23
I0215 10:19:38.240316  4596 net.cpp:411] Concat21 -> Concat21
I0215 10:19:38.240360  4596 net.cpp:150] Setting up Concat21
I0215 10:19:38.240371  4596 net.cpp:157] Top shape: 1 268 75 125 (2512500)
I0215 10:19:38.240377  4596 net.cpp:165] Memory required for data: 3794550028
I0215 10:19:38.240382  4596 layer_factory.hpp:77] Creating layer Concat21_Concat21_0_split
I0215 10:19:38.240391  4596 net.cpp:106] Creating Layer Concat21_Concat21_0_split
I0215 10:19:38.240397  4596 net.cpp:454] Concat21_Concat21_0_split <- Concat21
I0215 10:19:38.240406  4596 net.cpp:411] Concat21_Concat21_0_split -> Concat21_Concat21_0_split_0
I0215 10:19:38.240417  4596 net.cpp:411] Concat21_Concat21_0_split -> Concat21_Concat21_0_split_1
I0215 10:19:38.240480  4596 net.cpp:150] Setting up Concat21_Concat21_0_split
I0215 10:19:38.240492  4596 net.cpp:157] Top shape: 1 268 75 125 (2512500)
I0215 10:19:38.240500  4596 net.cpp:157] Top shape: 1 268 75 125 (2512500)
I0215 10:19:38.240505  4596 net.cpp:165] Memory required for data: 3814650028
I0215 10:19:38.240511  4596 layer_factory.hpp:77] Creating layer BatchNorm24
I0215 10:19:38.240520  4596 net.cpp:106] Creating Layer BatchNorm24
I0215 10:19:38.240526  4596 net.cpp:454] BatchNorm24 <- Concat21_Concat21_0_split_0
I0215 10:19:38.240535  4596 net.cpp:411] BatchNorm24 -> BatchNorm24
I0215 10:19:38.241576  4596 net.cpp:150] Setting up BatchNorm24
I0215 10:19:38.241592  4596 net.cpp:157] Top shape: 1 268 75 125 (2512500)
I0215 10:19:38.241598  4596 net.cpp:165] Memory required for data: 3824700028
I0215 10:19:38.241610  4596 layer_factory.hpp:77] Creating layer Scale24
I0215 10:19:38.241622  4596 net.cpp:106] Creating Layer Scale24
I0215 10:19:38.241631  4596 net.cpp:454] Scale24 <- BatchNorm24
I0215 10:19:38.241638  4596 net.cpp:397] Scale24 -> BatchNorm24 (in-place)
I0215 10:19:38.241721  4596 layer_factory.hpp:77] Creating layer Scale24
I0215 10:19:38.241951  4596 net.cpp:150] Setting up Scale24
I0215 10:19:38.241967  4596 net.cpp:157] Top shape: 1 268 75 125 (2512500)
I0215 10:19:38.241974  4596 net.cpp:165] Memory required for data: 3834750028
I0215 10:19:38.241983  4596 layer_factory.hpp:77] Creating layer ReLU24
I0215 10:19:38.241994  4596 net.cpp:106] Creating Layer ReLU24
I0215 10:19:38.242002  4596 net.cpp:454] ReLU24 <- BatchNorm24
I0215 10:19:38.242009  4596 net.cpp:397] ReLU24 -> BatchNorm24 (in-place)
I0215 10:19:38.242018  4596 net.cpp:150] Setting up ReLU24
I0215 10:19:38.242027  4596 net.cpp:157] Top shape: 1 268 75 125 (2512500)
I0215 10:19:38.242033  4596 net.cpp:165] Memory required for data: 3844800028
I0215 10:19:38.242038  4596 layer_factory.hpp:77] Creating layer Convolution25
I0215 10:19:38.242050  4596 net.cpp:106] Creating Layer Convolution25
I0215 10:19:38.242058  4596 net.cpp:454] Convolution25 <- BatchNorm24
I0215 10:19:38.242067  4596 net.cpp:411] Convolution25 -> Convolution25
I0215 10:19:38.243975  4596 net.cpp:150] Setting up Convolution25
I0215 10:19:38.243993  4596 net.cpp:157] Top shape: 1 12 75 125 (112500)
I0215 10:19:38.243999  4596 net.cpp:165] Memory required for data: 3845250028
I0215 10:19:38.244006  4596 layer_factory.hpp:77] Creating layer Dropout24
I0215 10:19:38.244016  4596 net.cpp:106] Creating Layer Dropout24
I0215 10:19:38.244024  4596 net.cpp:454] Dropout24 <- Convolution25
I0215 10:19:38.244035  4596 net.cpp:411] Dropout24 -> Dropout24
I0215 10:19:38.244105  4596 net.cpp:150] Setting up Dropout24
I0215 10:19:38.244118  4596 net.cpp:157] Top shape: 1 12 75 125 (112500)
I0215 10:19:38.244124  4596 net.cpp:165] Memory required for data: 3845700028
I0215 10:19:38.244129  4596 layer_factory.hpp:77] Creating layer Concat22
I0215 10:19:38.244141  4596 net.cpp:106] Creating Layer Concat22
I0215 10:19:38.244148  4596 net.cpp:454] Concat22 <- Concat21_Concat21_0_split_1
I0215 10:19:38.244154  4596 net.cpp:454] Concat22 <- Dropout24
I0215 10:19:38.244163  4596 net.cpp:411] Concat22 -> Concat22
I0215 10:19:38.244210  4596 net.cpp:150] Setting up Concat22
I0215 10:19:38.244222  4596 net.cpp:157] Top shape: 1 280 75 125 (2625000)
I0215 10:19:38.244228  4596 net.cpp:165] Memory required for data: 3856200028
I0215 10:19:38.244233  4596 layer_factory.hpp:77] Creating layer Concat22_Concat22_0_split
I0215 10:19:38.244243  4596 net.cpp:106] Creating Layer Concat22_Concat22_0_split
I0215 10:19:38.244251  4596 net.cpp:454] Concat22_Concat22_0_split <- Concat22
I0215 10:19:38.244261  4596 net.cpp:411] Concat22_Concat22_0_split -> Concat22_Concat22_0_split_0
I0215 10:19:38.244271  4596 net.cpp:411] Concat22_Concat22_0_split -> Concat22_Concat22_0_split_1
I0215 10:19:38.244333  4596 net.cpp:150] Setting up Concat22_Concat22_0_split
I0215 10:19:38.244345  4596 net.cpp:157] Top shape: 1 280 75 125 (2625000)
I0215 10:19:38.244354  4596 net.cpp:157] Top shape: 1 280 75 125 (2625000)
I0215 10:19:38.244359  4596 net.cpp:165] Memory required for data: 3877200028
I0215 10:19:38.244364  4596 layer_factory.hpp:77] Creating layer BatchNorm25
I0215 10:19:38.244375  4596 net.cpp:106] Creating Layer BatchNorm25
I0215 10:19:38.244382  4596 net.cpp:454] BatchNorm25 <- Concat22_Concat22_0_split_0
I0215 10:19:38.244391  4596 net.cpp:411] BatchNorm25 -> BatchNorm25
I0215 10:19:38.244761  4596 net.cpp:150] Setting up BatchNorm25
I0215 10:19:38.244776  4596 net.cpp:157] Top shape: 1 280 75 125 (2625000)
I0215 10:19:38.244781  4596 net.cpp:165] Memory required for data: 3887700028
I0215 10:19:38.244791  4596 layer_factory.hpp:77] Creating layer Scale25
I0215 10:19:38.244803  4596 net.cpp:106] Creating Layer Scale25
I0215 10:19:38.244810  4596 net.cpp:454] Scale25 <- BatchNorm25
I0215 10:19:38.244822  4596 net.cpp:397] Scale25 -> BatchNorm25 (in-place)
I0215 10:19:38.244899  4596 layer_factory.hpp:77] Creating layer Scale25
I0215 10:19:38.245126  4596 net.cpp:150] Setting up Scale25
I0215 10:19:38.245139  4596 net.cpp:157] Top shape: 1 280 75 125 (2625000)
I0215 10:19:38.245146  4596 net.cpp:165] Memory required for data: 3898200028
I0215 10:19:38.245154  4596 layer_factory.hpp:77] Creating layer ReLU25
I0215 10:19:38.245167  4596 net.cpp:106] Creating Layer ReLU25
I0215 10:19:38.245173  4596 net.cpp:454] ReLU25 <- BatchNorm25
I0215 10:19:38.245180  4596 net.cpp:397] ReLU25 -> BatchNorm25 (in-place)
I0215 10:19:38.245189  4596 net.cpp:150] Setting up ReLU25
I0215 10:19:38.245198  4596 net.cpp:157] Top shape: 1 280 75 125 (2625000)
I0215 10:19:38.245203  4596 net.cpp:165] Memory required for data: 3908700028
I0215 10:19:38.245208  4596 layer_factory.hpp:77] Creating layer Convolution26
I0215 10:19:38.245219  4596 net.cpp:106] Creating Layer Convolution26
I0215 10:19:38.245226  4596 net.cpp:454] Convolution26 <- BatchNorm25
I0215 10:19:38.245234  4596 net.cpp:411] Convolution26 -> Convolution26
I0215 10:19:38.246539  4596 net.cpp:150] Setting up Convolution26
I0215 10:19:38.246553  4596 net.cpp:157] Top shape: 1 12 75 125 (112500)
I0215 10:19:38.246559  4596 net.cpp:165] Memory required for data: 3909150028
I0215 10:19:38.246567  4596 layer_factory.hpp:77] Creating layer Dropout25
I0215 10:19:38.246577  4596 net.cpp:106] Creating Layer Dropout25
I0215 10:19:38.246584  4596 net.cpp:454] Dropout25 <- Convolution26
I0215 10:19:38.246594  4596 net.cpp:411] Dropout25 -> Dropout25
I0215 10:19:38.246662  4596 net.cpp:150] Setting up Dropout25
I0215 10:19:38.246675  4596 net.cpp:157] Top shape: 1 12 75 125 (112500)
I0215 10:19:38.246681  4596 net.cpp:165] Memory required for data: 3909600028
I0215 10:19:38.246686  4596 layer_factory.hpp:77] Creating layer Concat23
I0215 10:19:38.246698  4596 net.cpp:106] Creating Layer Concat23
I0215 10:19:38.246706  4596 net.cpp:454] Concat23 <- Concat22_Concat22_0_split_1
I0215 10:19:38.246713  4596 net.cpp:454] Concat23 <- Dropout25
I0215 10:19:38.246723  4596 net.cpp:411] Concat23 -> Concat23
I0215 10:19:38.246764  4596 net.cpp:150] Setting up Concat23
I0215 10:19:38.246776  4596 net.cpp:157] Top shape: 1 292 75 125 (2737500)
I0215 10:19:38.246783  4596 net.cpp:165] Memory required for data: 3920550028
I0215 10:19:38.246788  4596 layer_factory.hpp:77] Creating layer Concat23_Concat23_0_split
I0215 10:19:38.246794  4596 net.cpp:106] Creating Layer Concat23_Concat23_0_split
I0215 10:19:38.246801  4596 net.cpp:454] Concat23_Concat23_0_split <- Concat23
I0215 10:19:38.246809  4596 net.cpp:411] Concat23_Concat23_0_split -> Concat23_Concat23_0_split_0
I0215 10:19:38.246819  4596 net.cpp:411] Concat23_Concat23_0_split -> Concat23_Concat23_0_split_1
I0215 10:19:38.246884  4596 net.cpp:150] Setting up Concat23_Concat23_0_split
I0215 10:19:38.246896  4596 net.cpp:157] Top shape: 1 292 75 125 (2737500)
I0215 10:19:38.246904  4596 net.cpp:157] Top shape: 1 292 75 125 (2737500)
I0215 10:19:38.246909  4596 net.cpp:165] Memory required for data: 3942450028
I0215 10:19:38.246915  4596 layer_factory.hpp:77] Creating layer BatchNorm26
I0215 10:19:38.246927  4596 net.cpp:106] Creating Layer BatchNorm26
I0215 10:19:38.246932  4596 net.cpp:454] BatchNorm26 <- Concat23_Concat23_0_split_0
I0215 10:19:38.246942  4596 net.cpp:411] BatchNorm26 -> BatchNorm26
I0215 10:19:38.247316  4596 net.cpp:150] Setting up BatchNorm26
I0215 10:19:38.247329  4596 net.cpp:157] Top shape: 1 292 75 125 (2737500)
I0215 10:19:38.247336  4596 net.cpp:165] Memory required for data: 3953400028
I0215 10:19:38.247346  4596 layer_factory.hpp:77] Creating layer Scale26
I0215 10:19:38.247356  4596 net.cpp:106] Creating Layer Scale26
I0215 10:19:38.247364  4596 net.cpp:454] Scale26 <- BatchNorm26
I0215 10:19:38.247375  4596 net.cpp:397] Scale26 -> BatchNorm26 (in-place)
I0215 10:19:38.247452  4596 layer_factory.hpp:77] Creating layer Scale26
I0215 10:19:38.247714  4596 net.cpp:150] Setting up Scale26
I0215 10:19:38.247728  4596 net.cpp:157] Top shape: 1 292 75 125 (2737500)
I0215 10:19:38.247735  4596 net.cpp:165] Memory required for data: 3964350028
I0215 10:19:38.247747  4596 layer_factory.hpp:77] Creating layer ReLU26
I0215 10:19:38.247761  4596 net.cpp:106] Creating Layer ReLU26
I0215 10:19:38.247768  4596 net.cpp:454] ReLU26 <- BatchNorm26
I0215 10:19:38.247776  4596 net.cpp:397] ReLU26 -> BatchNorm26 (in-place)
I0215 10:19:38.247786  4596 net.cpp:150] Setting up ReLU26
I0215 10:19:38.247793  4596 net.cpp:157] Top shape: 1 292 75 125 (2737500)
I0215 10:19:38.247799  4596 net.cpp:165] Memory required for data: 3975300028
I0215 10:19:38.247804  4596 layer_factory.hpp:77] Creating layer Convolution27
I0215 10:19:38.247817  4596 net.cpp:106] Creating Layer Convolution27
I0215 10:19:38.247822  4596 net.cpp:454] Convolution27 <- BatchNorm26
I0215 10:19:38.247833  4596 net.cpp:411] Convolution27 -> Convolution27
I0215 10:19:38.249177  4596 net.cpp:150] Setting up Convolution27
I0215 10:19:38.249191  4596 net.cpp:157] Top shape: 1 12 75 125 (112500)
I0215 10:19:38.249197  4596 net.cpp:165] Memory required for data: 3975750028
I0215 10:19:38.249205  4596 layer_factory.hpp:77] Creating layer Dropout26
I0215 10:19:38.249214  4596 net.cpp:106] Creating Layer Dropout26
I0215 10:19:38.249223  4596 net.cpp:454] Dropout26 <- Convolution27
I0215 10:19:38.249233  4596 net.cpp:411] Dropout26 -> Dropout26
I0215 10:19:38.249303  4596 net.cpp:150] Setting up Dropout26
I0215 10:19:38.249316  4596 net.cpp:157] Top shape: 1 12 75 125 (112500)
I0215 10:19:38.249322  4596 net.cpp:165] Memory required for data: 3976200028
I0215 10:19:38.249327  4596 layer_factory.hpp:77] Creating layer Concat24
I0215 10:19:38.249337  4596 net.cpp:106] Creating Layer Concat24
I0215 10:19:38.249344  4596 net.cpp:454] Concat24 <- Concat23_Concat23_0_split_1
I0215 10:19:38.249352  4596 net.cpp:454] Concat24 <- Dropout26
I0215 10:19:38.249362  4596 net.cpp:411] Concat24 -> Concat24
I0215 10:19:38.249408  4596 net.cpp:150] Setting up Concat24
I0215 10:19:38.249419  4596 net.cpp:157] Top shape: 1 304 75 125 (2850000)
I0215 10:19:38.249425  4596 net.cpp:165] Memory required for data: 3987600028
I0215 10:19:38.249431  4596 layer_factory.hpp:77] Creating layer BatchNorm27
I0215 10:19:38.249441  4596 net.cpp:106] Creating Layer BatchNorm27
I0215 10:19:38.249449  4596 net.cpp:454] BatchNorm27 <- Concat24
I0215 10:19:38.249456  4596 net.cpp:411] BatchNorm27 -> BatchNorm27
I0215 10:19:38.249831  4596 net.cpp:150] Setting up BatchNorm27
I0215 10:19:38.249845  4596 net.cpp:157] Top shape: 1 304 75 125 (2850000)
I0215 10:19:38.249850  4596 net.cpp:165] Memory required for data: 3999000028
I0215 10:19:38.249861  4596 layer_factory.hpp:77] Creating layer Scale27
I0215 10:19:38.249874  4596 net.cpp:106] Creating Layer Scale27
I0215 10:19:38.249881  4596 net.cpp:454] Scale27 <- BatchNorm27
I0215 10:19:38.249889  4596 net.cpp:397] Scale27 -> BatchNorm27 (in-place)
I0215 10:19:38.249966  4596 layer_factory.hpp:77] Creating layer Scale27
I0215 10:19:38.250200  4596 net.cpp:150] Setting up Scale27
I0215 10:19:38.250214  4596 net.cpp:157] Top shape: 1 304 75 125 (2850000)
I0215 10:19:38.250221  4596 net.cpp:165] Memory required for data: 4010400028
I0215 10:19:38.250229  4596 layer_factory.hpp:77] Creating layer ReLU27
I0215 10:19:38.250239  4596 net.cpp:106] Creating Layer ReLU27
I0215 10:19:38.250247  4596 net.cpp:454] ReLU27 <- BatchNorm27
I0215 10:19:38.250255  4596 net.cpp:397] ReLU27 -> BatchNorm27 (in-place)
I0215 10:19:38.250264  4596 net.cpp:150] Setting up ReLU27
I0215 10:19:38.250272  4596 net.cpp:157] Top shape: 1 304 75 125 (2850000)
I0215 10:19:38.250278  4596 net.cpp:165] Memory required for data: 4021800028
I0215 10:19:38.250283  4596 layer_factory.hpp:77] Creating layer Convolution28
I0215 10:19:38.250294  4596 net.cpp:106] Creating Layer Convolution28
I0215 10:19:38.250301  4596 net.cpp:454] Convolution28 <- BatchNorm27
I0215 10:19:38.250311  4596 net.cpp:411] Convolution28 -> Convolution28
I0215 10:19:38.253628  4596 net.cpp:150] Setting up Convolution28
I0215 10:19:38.253643  4596 net.cpp:157] Top shape: 1 304 75 125 (2850000)
I0215 10:19:38.253648  4596 net.cpp:165] Memory required for data: 4033200028
I0215 10:19:38.253656  4596 layer_factory.hpp:77] Creating layer Dropout27
I0215 10:19:38.253669  4596 net.cpp:106] Creating Layer Dropout27
I0215 10:19:38.253675  4596 net.cpp:454] Dropout27 <- Convolution28
I0215 10:19:38.253684  4596 net.cpp:411] Dropout27 -> Dropout27
I0215 10:19:38.253754  4596 net.cpp:150] Setting up Dropout27
I0215 10:19:38.253767  4596 net.cpp:157] Top shape: 1 304 75 125 (2850000)
I0215 10:19:38.253773  4596 net.cpp:165] Memory required for data: 4044600028
I0215 10:19:38.253778  4596 layer_factory.hpp:77] Creating layer Pooling3
I0215 10:19:38.253789  4596 net.cpp:106] Creating Layer Pooling3
I0215 10:19:38.253796  4596 net.cpp:454] Pooling3 <- Dropout27
I0215 10:19:38.253805  4596 net.cpp:411] Pooling3 -> Pooling3
I0215 10:19:38.253849  4596 net.cpp:150] Setting up Pooling3
I0215 10:19:38.253865  4596 net.cpp:157] Top shape: 1 304 38 63 (727776)
I0215 10:19:38.253870  4596 net.cpp:165] Memory required for data: 4047511132
I0215 10:19:38.253875  4596 layer_factory.hpp:77] Creating layer BatchNorm28
I0215 10:19:38.253885  4596 net.cpp:106] Creating Layer BatchNorm28
I0215 10:19:38.253892  4596 net.cpp:454] BatchNorm28 <- Pooling3
I0215 10:19:38.253901  4596 net.cpp:411] BatchNorm28 -> BatchNorm28
I0215 10:19:38.254282  4596 net.cpp:150] Setting up BatchNorm28
I0215 10:19:38.254295  4596 net.cpp:157] Top shape: 1 304 38 63 (727776)
I0215 10:19:38.254302  4596 net.cpp:165] Memory required for data: 4050422236
I0215 10:19:38.254313  4596 layer_factory.hpp:77] Creating layer Scale28
I0215 10:19:38.254326  4596 net.cpp:106] Creating Layer Scale28
I0215 10:19:38.254333  4596 net.cpp:454] Scale28 <- BatchNorm28
I0215 10:19:38.254344  4596 net.cpp:397] Scale28 -> BatchNorm28 (in-place)
I0215 10:19:38.254425  4596 layer_factory.hpp:77] Creating layer Scale28
I0215 10:19:38.254663  4596 net.cpp:150] Setting up Scale28
I0215 10:19:38.254676  4596 net.cpp:157] Top shape: 1 304 38 63 (727776)
I0215 10:19:38.254683  4596 net.cpp:165] Memory required for data: 4053333340
I0215 10:19:38.254691  4596 layer_factory.hpp:77] Creating layer ReLU28
I0215 10:19:38.254701  4596 net.cpp:106] Creating Layer ReLU28
I0215 10:19:38.254709  4596 net.cpp:454] ReLU28 <- BatchNorm28
I0215 10:19:38.254714  4596 net.cpp:397] ReLU28 -> BatchNorm28 (in-place)
I0215 10:19:38.254724  4596 net.cpp:150] Setting up ReLU28
I0215 10:19:38.254731  4596 net.cpp:157] Top shape: 1 304 38 63 (727776)
I0215 10:19:38.254737  4596 net.cpp:165] Memory required for data: 4056244444
I0215 10:19:38.254742  4596 layer_factory.hpp:77] Creating layer rpn_conv/3x3
I0215 10:19:38.254757  4596 net.cpp:106] Creating Layer rpn_conv/3x3
I0215 10:19:38.254765  4596 net.cpp:454] rpn_conv/3x3 <- BatchNorm28
I0215 10:19:38.254775  4596 net.cpp:411] rpn_conv/3x3 -> rpn/output
I0215 10:19:38.302778  4596 net.cpp:150] Setting up rpn_conv/3x3
I0215 10:19:38.302799  4596 net.cpp:157] Top shape: 1 512 38 63 (1225728)
I0215 10:19:38.302804  4596 net.cpp:165] Memory required for data: 4061147356
I0215 10:19:38.302814  4596 layer_factory.hpp:77] Creating layer rpn_relu/3x3
I0215 10:19:38.302822  4596 net.cpp:106] Creating Layer rpn_relu/3x3
I0215 10:19:38.302829  4596 net.cpp:454] rpn_relu/3x3 <- rpn/output
I0215 10:19:38.302837  4596 net.cpp:397] rpn_relu/3x3 -> rpn/output (in-place)
I0215 10:19:38.302846  4596 net.cpp:150] Setting up rpn_relu/3x3
I0215 10:19:38.302852  4596 net.cpp:157] Top shape: 1 512 38 63 (1225728)
I0215 10:19:38.302856  4596 net.cpp:165] Memory required for data: 4066050268
I0215 10:19:38.302861  4596 layer_factory.hpp:77] Creating layer rpn/output_rpn_relu/3x3_0_split
I0215 10:19:38.302867  4596 net.cpp:106] Creating Layer rpn/output_rpn_relu/3x3_0_split
I0215 10:19:38.302875  4596 net.cpp:454] rpn/output_rpn_relu/3x3_0_split <- rpn/output
I0215 10:19:38.302881  4596 net.cpp:411] rpn/output_rpn_relu/3x3_0_split -> rpn/output_rpn_relu/3x3_0_split_0
I0215 10:19:38.302889  4596 net.cpp:411] rpn/output_rpn_relu/3x3_0_split -> rpn/output_rpn_relu/3x3_0_split_1
I0215 10:19:38.302954  4596 net.cpp:150] Setting up rpn/output_rpn_relu/3x3_0_split
I0215 10:19:38.302968  4596 net.cpp:157] Top shape: 1 512 38 63 (1225728)
I0215 10:19:38.302975  4596 net.cpp:157] Top shape: 1 512 38 63 (1225728)
I0215 10:19:38.302980  4596 net.cpp:165] Memory required for data: 4075856092
I0215 10:19:38.302985  4596 layer_factory.hpp:77] Creating layer rpn_cls_score
I0215 10:19:38.302996  4596 net.cpp:106] Creating Layer rpn_cls_score
I0215 10:19:38.303004  4596 net.cpp:454] rpn_cls_score <- rpn/output_rpn_relu/3x3_0_split_0
I0215 10:19:38.303012  4596 net.cpp:411] rpn_cls_score -> rpn_cls_score
I0215 10:19:38.304810  4596 net.cpp:150] Setting up rpn_cls_score
I0215 10:19:38.304842  4596 net.cpp:157] Top shape: 1 50 38 63 (119700)
I0215 10:19:38.304852  4596 net.cpp:165] Memory required for data: 4076334892
I0215 10:19:38.304879  4596 layer_factory.hpp:77] Creating layer rpn_cls_score_rpn_cls_score_0_split
I0215 10:19:38.304889  4596 net.cpp:106] Creating Layer rpn_cls_score_rpn_cls_score_0_split
I0215 10:19:38.304896  4596 net.cpp:454] rpn_cls_score_rpn_cls_score_0_split <- rpn_cls_score
I0215 10:19:38.304908  4596 net.cpp:411] rpn_cls_score_rpn_cls_score_0_split -> rpn_cls_score_rpn_cls_score_0_split_0
I0215 10:19:38.304922  4596 net.cpp:411] rpn_cls_score_rpn_cls_score_0_split -> rpn_cls_score_rpn_cls_score_0_split_1
I0215 10:19:38.305009  4596 net.cpp:150] Setting up rpn_cls_score_rpn_cls_score_0_split
I0215 10:19:38.305024  4596 net.cpp:157] Top shape: 1 50 38 63 (119700)
I0215 10:19:38.305035  4596 net.cpp:157] Top shape: 1 50 38 63 (119700)
I0215 10:19:38.305040  4596 net.cpp:165] Memory required for data: 4077292492
I0215 10:19:38.305047  4596 layer_factory.hpp:77] Creating layer rpn_bbox_pred
I0215 10:19:38.305065  4596 net.cpp:106] Creating Layer rpn_bbox_pred
I0215 10:19:38.305074  4596 net.cpp:454] rpn_bbox_pred <- rpn/output_rpn_relu/3x3_0_split_1
I0215 10:19:38.305111  4596 net.cpp:411] rpn_bbox_pred -> rpn_bbox_pred
I0215 10:19:38.308557  4596 net.cpp:150] Setting up rpn_bbox_pred
I0215 10:19:38.308586  4596 net.cpp:157] Top shape: 1 100 38 63 (239400)
I0215 10:19:38.308596  4596 net.cpp:165] Memory required for data: 4078250092
I0215 10:19:38.308610  4596 layer_factory.hpp:77] Creating layer rpn_cls_score_reshape
I0215 10:19:38.308629  4596 net.cpp:106] Creating Layer rpn_cls_score_reshape
I0215 10:19:38.308650  4596 net.cpp:454] rpn_cls_score_reshape <- rpn_cls_score_rpn_cls_score_0_split_0
I0215 10:19:38.308661  4596 net.cpp:411] rpn_cls_score_reshape -> rpn_cls_score_reshape
I0215 10:19:38.308728  4596 net.cpp:150] Setting up rpn_cls_score_reshape
I0215 10:19:38.308743  4596 net.cpp:157] Top shape: 1 2 950 63 (119700)
I0215 10:19:38.308750  4596 net.cpp:165] Memory required for data: 4078728892
I0215 10:19:38.308756  4596 layer_factory.hpp:77] Creating layer rpn-data
I0215 10:19:38.309859  4596 net.cpp:106] Creating Layer rpn-data
I0215 10:19:38.309878  4596 net.cpp:454] rpn-data <- rpn_cls_score_rpn_cls_score_0_split_1
I0215 10:19:38.309888  4596 net.cpp:454] rpn-data <- gt_boxes
I0215 10:19:38.309895  4596 net.cpp:454] rpn-data <- im_info
I0215 10:19:38.309902  4596 net.cpp:454] rpn-data <- data_input-data_0_split_1
I0215 10:19:38.309926  4596 net.cpp:411] rpn-data -> rpn_labels
I0215 10:19:38.309938  4596 net.cpp:411] rpn-data -> rpn_bbox_targets
I0215 10:19:38.309950  4596 net.cpp:411] rpn-data -> rpn_bbox_inside_weights
I0215 10:19:38.309962  4596 net.cpp:411] rpn-data -> rpn_bbox_outside_weights
I0215 10:19:38.326153  4596 net.cpp:150] Setting up rpn-data
I0215 10:19:38.326195  4596 net.cpp:157] Top shape: 1 1 950 63 (59850)
I0215 10:19:38.326202  4596 net.cpp:157] Top shape: 1 100 38 63 (239400)
I0215 10:19:38.326208  4596 net.cpp:157] Top shape: 1 100 38 63 (239400)
I0215 10:19:38.326213  4596 net.cpp:157] Top shape: 1 100 38 63 (239400)
I0215 10:19:38.326218  4596 net.cpp:165] Memory required for data: 4081841092
I0215 10:19:38.326227  4596 layer_factory.hpp:77] Creating layer rpn_loss_cls
I0215 10:19:38.326249  4596 net.cpp:106] Creating Layer rpn_loss_cls
I0215 10:19:38.326261  4596 net.cpp:454] rpn_loss_cls <- rpn_cls_score_reshape
I0215 10:19:38.326273  4596 net.cpp:454] rpn_loss_cls <- rpn_labels
I0215 10:19:38.326284  4596 net.cpp:411] rpn_loss_cls -> rpn_cls_loss
…
