…
solver_mode: GPU
stepvalue: 30000
stepvalue: 80000
type: "Nesterov"
I0220 14:02:13.774590 22185 solver.cpp:81] Creating training net from train_net file: models/pascal_voc/VGG16/dense28net/train_densenet.prototxt
I0220 14:02:13.778112 22185 net.cpp:49] Initializing net from parameters: 
name: "Densenet_28_layers"
state {
  phase: TRAIN
}
layer {
  name: "input-data"
  type: "Python"
  top: "data"
  top: "im_info"
  top: "gt_boxes"
  python_param {
    module: "roi_data_layer.layer"
    layer: "RoIDataLayer"
    param_str: "\'num_classes\': 21"
  }
}
layer {
  name: "Convolution1"
  type: "Convolution"
  bottom: "data"
  top: "Convolution1"
  convolution_param {
    num_output: 16
    bias_term: false
    pad: 1
    kernel_size: 3
    stride: 1
    weight_filler {
      type: "msra"
    }
    bias_filler {
      type: "constant"
    }
  }
}
layer {
  name: "BatchNorm1"
  type: "BatchNorm"
  bottom: "Convolution1"
  top: "BatchNorm1"
  param {
    lr_mult: 0
    decay_mult: 0
  }
  param {
    lr_mult: 0
    decay_mult: 0
  }
  param {
    lr_mult: 0
    decay_mult: 0
  }
}
layer {
  name: "Scale1"
  type: "Scale"
  bottom: "BatchNorm1"
  top: "BatchNorm1"
  scale_param {
    filler {
      value: 1
    }
    bias_term: true
    bias_filler {
      value: 0
    }
  }
}
layer {
  name: "ReLU1"
  type: "ReLU"
  bottom: "BatchNorm1"
  top: "BatchNorm1"
}
layer {
  name: "Convolution2"
  type: "Convolution"
  bottom: "BatchNorm1"
  top: "Convolution2"
  convolution_param {
    num_output: 12
    bias_term: false
    pad: 1
    kernel_size: 3
    stride: 1
    weight_filler {
      type: "msra"
    }
    bias_filler {
      type: "constant"
    }
  }
}
layer {
  name: "Dropout1"
  type: "Dropout"
  bottom: "Convolution2"
  top: "Dropout1"
  dropout_param {
    dropout_ratio: 0.2
  }
}
layer {
  name: "Concat1"
  type: "Concat"
  bottom: "Convolution1"
  bottom: "Dropout1"
  top: "Concat1"
  concat_param {
    axis: 1
  }
}
layer {
  name: "BatchNorm2"
  type: "BatchNorm"
  bottom: "Concat1"
  top: "BatchNorm2"
  param {
    lr_mult: 0
    decay_mult: 0
  }
  param {
    lr_mult: 0
    decay_mult: 0
  }
  param {
    lr_mult: 0
    decay_mult: 0
  }
}
layer {
  name: "Scale2"
  type: "Scale"
  bottom: "BatchNorm2"
  top: "BatchNorm2"
  scale_param {
    filler {
      value: 1
    }
    bias_term: true
    bias_filler {
      value: 0
    }
  }
}
layer {
  name: "ReLU2"
  type: "ReLU"
  bottom: "BatchNorm2"
  top: "BatchNorm2"
}
layer {
  name: "Convolution3"
  type: "Convolution"
  bottom: "BatchNorm2"
  top: "Convolution3"
  convolution_param {
    num_output: 12
    bias_term: false
    pad: 1
    kernel_size: 3
    stride: 1
    weight_filler {
      type: "msra"
    }
    bias_filler {
      type: "constant"
    }
  }
}
layer {
  name: "Dropout2"
  type: "Dropout"
  bottom: "Convolution3"
  top: "Dropout2"
  dropout_param {
    dropout_ratio: 0.2
  }
}
layer {
  name: "Concat2"
  type: "Concat"
  bottom: "Concat1"
  bottom: "Dropout2"
  top: "Concat2"
  concat_param {
    axis: 1
  }
}
layer {
  name: "BatchNorm3"
  type: "BatchNorm"
  bottom: "Concat2"
  top: "BatchNorm3"
  param {
    lr_mult: 0
    decay_mult: 0
  }
  param {
    lr_mult: 0
    decay_mult: 0
  }
  param {
    lr_mult: 0
    decay_mult: 0
  }
}
layer {
  name: "Scale3"
  type: "Scale"
  bottom: "BatchNorm3"
  top: "BatchNorm3"
  scale_param {
    filler {
      value: 1
    }
    bias_term: true
    bias_filler {
      value: 0
    }
  }
}
layer {
  name: "ReLU3"
  type: "ReLU"
  bottom: "BatchNorm3"
  top: "BatchNorm3"
}
layer {
  name: "Convolution4"
  type: "Convolution"
  bottom: "BatchNorm3"
  top: "Convolution4"
  convolution_param {
    num_output: 12
    bias_term: false
    pad: 1
    kernel_size: 3
    stride: 1
    weight_filler {
      type: "msra"
    }
    bias_filler {
      type: "constant"
    }
  }
}
layer {
  name: "Dropout3"
  type: "Dropout"
  bottom: "Convolution4"
  top: "Dropout3"
  dropout_param {
    dropout_ratio: 0.2
  }
}
layer {
  name: "Concat3"
  type: "Concat"
  bottom: "Concat2"
  bottom: "Dropout3"
  top: "Concat3"
  concat_param {
    axis: 1
  }
}
layer {
  name: "BatchNorm4"
  type: "BatchNorm"
  bottom: "Concat3"
  top: "BatchNorm4"
  param {
    lr_mult: 0
    decay_mult: 0
  }
  param {
    lr_mult: 0
    decay_mult: 0
  }
  param {
    lr_mult: 0
    decay_mult: 0
  }
}
layer {
  name: "Scale4"
  type: "Scale"
  bottom: "BatchNorm4"
  top: "BatchNorm4"
  scale_param {
    filler {
      value: 1
    }
    bias_term: true
    bias_filler {
      value: 0
    }
  }
}
layer {
  name: "ReLU4"
  type: "ReLU"
  bottom: "BatchNorm4"
  top: "BatchNorm4"
}
layer {
  name: "Convolution5"
  type: "Convolution"
  bottom: "BatchNorm4"
  top: "Convolution5"
  convolution_param {
    num_output: 12
    bias_term: false
    pad: 1
    kernel_size: 3
    stride: 1
    weight_filler {
      type: "msra"
    }
    bias_filler {
      type: "constant"
    }
  }
}
layer {
  name: "Dropout4"
  type: "Dropout"
  bottom: "Convolution5"
  top: "Dropout4"
  dropout_param {
    dropout_ratio: 0.2
  }
}
layer {
  name: "Concat4"
  type: "Concat"
  bottom: "Concat3"
  bottom: "Dropout4"
  top: "Concat4"
  concat_param {
    axis: 1
  }
}
layer {
  name: "BatchNorm5"
  type: "BatchNorm"
  bottom: "Concat4"
  top: "BatchNorm5"
  param {
    lr_mult: 0
    decay_mult: 0
  }
  param {
    lr_mult: 0
    decay_mult: 0
  }
  param {
    lr_mult: 0
    decay_mult: 0
  }
}
layer {
  name: "Scale5"
  type: "Scale"
  bottom: "BatchNorm5"
  top: "BatchNorm5"
  scale_param {
    filler {
      value: 1
    }
    bias_term: true
    bias_filler {
      value: 0
    }
  }
}
layer {
  name: "ReLU5"
  type: "ReLU"
  bottom: "BatchNorm5"
  top: "BatchNorm5"
}
layer {
  name: "Convolution6"
  type: "Convolution"
  bottom: "BatchNorm5"
  top: "Convolution6"
  convolution_param {
    num_output: 12
    bias_term: false
    pad: 1
    kernel_size: 3
    stride: 1
    weight_filler {
      type: "msra"
    }
    bias_filler {
      type: "constant"
    }
  }
}
layer {
  name: "Dropout5"
  type: "Dropout"
  bottom: "Convolution6"
  top: "Dropout5"
  dropout_param {
    dropout_ratio: 0.2
  }
}
layer {
  name: "Concat5"
  type: "Concat"
  bottom: "Concat4"
  bottom: "Dropout5"
  top: "Concat5"
  concat_param {
    axis: 1
  }
}
layer {
  name: "BatchNorm6"
  type: "BatchNorm"
  bottom: "Concat5"
  top: "BatchNorm6"
  param {
    lr_mult: 0
    decay_mult: 0
  }
  param {
    lr_mult: 0
    decay_mult: 0
  }
  param {
    lr_mult: 0
    decay_mult: 0
  }
}
layer {
  name: "Scale6"
  type: "Scale"
  bottom: "BatchNorm6"
  top: "BatchNorm6"
  scale_param {
    filler {
      value: 1
    }
    bias_term: true
    bias_filler {
      value: 0
    }
  }
}
layer {
  name: "ReLU6"
  type: "ReLU"
  bottom: "BatchNorm6"
  top: "BatchNorm6"
}
layer {
  name: "Convolution7"
  type: "Convolution"
  bottom: "BatchNorm6"
  top: "Convolution7"
  convolution_param {
    num_output: 12
    bias_term: false
    pad: 1
    kernel_size: 3
    stride: 1
    weight_filler {
      type: "msra"
    }
    bias_filler {
      type: "constant"
    }
  }
}
layer {
  name: "Dropout6"
  type: "Dropout"
  bottom: "Convolution7"
  top: "Dropout6"
  dropout_param {
    dropout_ratio: 0.2
  }
}
layer {
  name: "Concat6"
  type: "Concat"
  bottom: "Concat5"
  bottom: "Dropout6"
  top: "Concat6"
  concat_param {
    axis: 1
  }
}
layer {
  name: "BatchNorm7"
  type: "BatchNorm"
  bottom: "Concat6"
  top: "BatchNorm7"
  param {
    lr_mult: 0
    decay_mult: 0
  }
  param {
    lr_mult: 0
    decay_mult: 0
  }
  param {
    lr_mult: 0
    decay_mult: 0
  }
}
layer {
  name: "Scale7"
  type: "Scale"
  bottom: "BatchNorm7"
  top: "BatchNorm7"
  scale_param {
    filler {
      value: 1
    }
    bias_term: true
    bias_filler {
      value: 0
    }
  }
}
layer {
  name: "ReLU7"
  type: "ReLU"
  bottom: "BatchNorm7"
  top: "BatchNorm7"
}
layer {
  name: "Convolution8"
  type: "Convolution"
  bottom: "BatchNorm7"
  top: "Convolution8"
  convolution_param {
    num_output: 12
    bias_term: false
    pad: 1
    kernel_size: 3
    stride: 1
    weight_filler {
      type: "msra"
    }
    bias_filler {
      type: "constant"
    }
  }
}
layer {
  name: "Dropout7"
  type: "Dropout"
  bottom: "Convolution8"
  top: "Dropout7"
  dropout_param {
    dropout_ratio: 0.2
  }
}
layer {
  name: "Concat7"
  type: "Concat"
  bottom: "Concat6"
  bottom: "Dropout7"
  top: "Concat7"
  concat_param {
    axis: 1
  }
}
layer {
  name: "BatchNorm8"
  type: "BatchNorm"
  bottom: "Concat7"
  top: "BatchNorm8"
  param {
    lr_mult: 0
    decay_mult: 0
  }
  param {
    lr_mult: 0
    decay_mult: 0
  }
  param {
    lr_mult: 0
    decay_mult: 0
  }
}
layer {
  name: "Scale8"
  type: "Scale"
  bottom: "BatchNorm8"
  top: "BatchNorm8"
  scale_param {
    filler {
      value: 1
    }
    bias_term: true
    bias_filler {
      value: 0
    }
  }
}
layer {
  name: "ReLU8"
  type: "ReLU"
  bottom: "BatchNorm8"
  top: "BatchNorm8"
}
layer {
  name: "Convolution9"
  type: "Convolution"
  bottom: "BatchNorm8"
  top: "Convolution9"
  convolution_param {
    num_output: 12
    bias_term: false
    pad: 1
    kernel_size: 3
    stride: 1
    weight_filler {
      type: "msra"
    }
    bias_filler {
      type: "constant"
    }
  }
}
layer {
  name: "Dropout8"
  type: "Dropout"
  bottom: "Convolution9"
  top: "Dropout8"
  dropout_param {
    dropout_ratio: 0.2
  }
}
layer {
  name: "Concat8"
  type: "Concat"
  bottom: "Concat7"
  bottom: "Dropout8"
  top: "Concat8"
  concat_param {
    axis: 1
  }
}
layer {
  name: "BatchNorm9"
  type: "BatchNorm"
  bottom: "Concat8"
  top: "BatchNorm9"
  param {
    lr_mult: 0
    decay_mult: 0
  }
  param {
    lr_mult: 0
    decay_mult: 0
  }
  param {
    lr_mult: 0
    decay_mult: 0
  }
}
layer {
  name: "Scale9"
  type: "Scale"
  bottom: "BatchNorm9"
  top: "BatchNorm9"
  scale_param {
    filler {
      value: 1
    }
    bias_term: true
    bias_filler {
      value: 0
    }
  }
}
layer {
  name: "ReLU9"
  type: "ReLU"
  bottom: "BatchNorm9"
  top: "BatchNorm9"
}
layer {
  name: "Convolution10"
  type: "Convolution"
  bottom: "BatchNorm9"
  top: "Convolution10"
  convolution_param {
    num_output: 112
    bias_term: false
    pad: 0
    kernel_size: 1
    stride: 1
    weight_filler {
      type: "msra"
    }
    bias_filler {
      type: "constant"
    }
  }
}
layer {
  name: "Dropout9"
  type: "Dropout"
  bottom: "Convolution10"
  top: "Dropout9"
  dropout_param {
    dropout_ratio: 0.2
  }
}
layer {
  name: "Pooling1"
  type: "Pooling"
  bottom: "Dropout9"
  top: "Pooling1"
  pooling_param {
    pool: AVE
    kernel_size: 2
    stride: 2
  }
}
layer {
  name: "BatchNorm10"
  type: "BatchNorm"
  bottom: "Pooling1"
  top: "BatchNorm10"
  param {
    lr_mult: 0
    decay_mult: 0
  }
  param {
    lr_mult: 0
    decay_mult: 0
  }
  param {
    lr_mult: 0
    decay_mult: 0
  }
}
layer {
  name: "Scale10"
  type: "Scale"
  bottom: "BatchNorm10"
  top: "BatchNorm10"
  scale_param {
    filler {
      value: 1
    }
    bias_term: true
    bias_filler {
      value: 0
    }
  }
}
layer {
  name: "ReLU10"
  type: "ReLU"
  bottom: "BatchNorm10"
  top: "BatchNorm10"
}
layer {
  name: "Convolution11"
  type: "Convolution"
  bottom: "BatchNorm10"
  top: "Convolution11"
  convolution_param {
    num_output: 12
    bias_term: false
    pad: 1
    kernel_size: 3
    stride: 1
    weight_filler {
      type: "msra"
    }
    bias_filler {
      type: "constant"
    }
  }
}
layer {
  name: "Dropout10"
  type: "Dropout"
  bottom: "Convolution11"
  top: "Dropout10"
  dropout_param {
    dropout_ratio: 0.2
  }
}
layer {
  name: "Concat9"
  type: "Concat"
  bottom: "Pooling1"
  bottom: "Dropout10"
  top: "Concat9"
  concat_param {
    axis: 1
  }
}
layer {
  name: "BatchNorm11"
  type: "BatchNorm"
  bottom: "Concat9"
  top: "BatchNorm11"
  param {
    lr_mult: 0
    decay_mult: 0
  }
  param {
    lr_mult: 0
    decay_mult: 0
  }
  param {
    lr_mult: 0
    decay_mult: 0
  }
}
layer {
  name: "Scale11"
  type: "Scale"
  bottom: "BatchNorm11"
  top: "BatchNorm11"
  scale_param {
    filler {
      value: 1
    }
    bias_term: true
    bias_filler {
      value: 0
    }
  }
}
layer {
  name: "ReLU11"
  type: "ReLU"
  bottom: "BatchNorm11"
  top: "BatchNorm11"
}
layer {
  name: "Convolution12"
  type: "Convolution"
  bottom: "BatchNorm11"
  top: "Convolution12"
  convolution_param {
    num_output: 12
    bias_term: false
    pad: 1
    kernel_size: 3
    stride: 1
    weight_filler {
      type: "msra"
    }
    bias_filler {
      type: "constant"
    }
  }
}
layer {
  name: "Dropout11"
  type: "Dropout"
  bottom: "Convolution12"
  top: "Dropout11"
  dropout_param {
    dropout_ratio: 0.2
  }
}
layer {
  name: "Concat10"
  type: "Concat"
  bottom: "Concat9"
  bottom: "Dropout11"
  top: "Concat10"
  concat_param {
    axis: 1
  }
}
layer {
  name: "BatchNorm12"
  type: "BatchNorm"
  bottom: "Concat10"
  top: "BatchNorm12"
  param {
    lr_mult: 0
    decay_mult: 0
  }
  param {
    lr_mult: 0
    decay_mult: 0
  }
  param {
    lr_mult: 0
    decay_mult: 0
  }
}
layer {
  name: "Scale12"
  type: "Scale"
  bottom: "BatchNorm12"
  top: "BatchNorm12"
  scale_param {
    filler {
      value: 1
    }
    bias_term: true
    bias_filler {
      value: 0
    }
  }
}
layer {
  name: "ReLU12"
  type: "ReLU"
  bottom: "BatchNorm12"
  top: "BatchNorm12"
}
layer {
  name: "Convolution13"
  type: "Convolution"
  bottom: "BatchNorm12"
  top: "Convolution13"
  convolution_param {
    num_output: 12
    bias_term: false
    pad: 1
    kernel_size: 3
    stride: 1
    weight_filler {
      type: "msra"
    }
    bias_filler {
      type: "constant"
    }
  }
}
layer {
  name: "Dropout12"
  type: "Dropout"
  bottom: "Convolution13"
  top: "Dropout12"
  dropout_param {
    dropout_ratio: 0.2
  }
}
layer {
  name: "Concat11"
  type: "Concat"
  bottom: "Concat10"
  bottom: "Dropout12"
  top: "Concat11"
  concat_param {
    axis: 1
  }
}
layer {
  name: "BatchNorm13"
  type: "BatchNorm"
  bottom: "Concat11"
  top: "BatchNorm13"
  param {
    lr_mult: 0
    decay_mult: 0
  }
  param {
    lr_mult: 0
    decay_mult: 0
  }
  param {
    lr_mult: 0
    decay_mult: 0
  }
}
layer {
  name: "Scale13"
  type: "Scale"
  bottom: "BatchNorm13"
  top: "BatchNorm13"
  scale_param {
    filler {
      value: 1
    }
    bias_term: true
    bias_filler {
      value: 0
    }
  }
}
layer {
  name: "ReLU13"
  type: "ReLU"
  bottom: "BatchNorm13"
  top: "BatchNorm13"
}
layer {
  name: "Convolution14"
  type: "Convolution"
  bottom: "BatchNorm13"
  top: "Convolution14"
  convolution_param {
    num_output: 12
    bias_term: false
    pad: 1
    kernel_size: 3
    stride: 1
    weight_filler {
      type: "msra"
    }
    bias_filler {
      type: "constant"
    }
  }
}
layer {
  name: "Dropout13"
  type: "Dropout"
  bottom: "Convolution14"
  top: "Dropout13"
  dropout_param {
    dropout_ratio: 0.2
  }
}
layer {
  name: "Concat12"
  type: "Concat"
  bottom: "Concat11"
  bottom: "Dropout13"
  top: "Concat12"
  concat_param {
    axis: 1
  }
}
layer {
  name: "BatchNorm14"
  type: "BatchNorm"
  bottom: "Concat12"
  top: "BatchNorm14"
  param {
    lr_mult: 0
    decay_mult: 0
  }
  param {
    lr_mult: 0
    decay_mult: 0
  }
  param {
    lr_mult: 0
    decay_mult: 0
  }
}
layer {
  name: "Scale14"
  type: "Scale"
  bottom: "BatchNorm14"
  top: "BatchNorm14"
  scale_param {
    filler {
      value: 1
    }
    bias_term: true
    bias_filler {
      value: 0
    }
  }
}
layer {
  name: "ReLU14"
  type: "ReLU"
  bottom: "BatchNorm14"
  top: "BatchNorm14"
}
layer {
  name: "Convolution15"
  type: "Convolution"
  bottom: "BatchNorm14"
  top: "Convolution15"
  convolution_param {
    num_output: 12
    bias_term: false
    pad: 1
    kernel_size: 3
    stride: 1
    weight_filler {
      type: "msra"
    }
    bias_filler {
      type: "constant"
    }
  }
}
layer {
  name: "Dropout14"
  type: "Dropout"
  bottom: "Convolution15"
  top: "Dropout14"
  dropout_param {
    dropout_ratio: 0.2
  }
}
layer {
  name: "Concat13"
  type: "Concat"
  bottom: "Concat12"
  bottom: "Dropout14"
  top: "Concat13"
  concat_param {
    axis: 1
  }
}
layer {
  name: "BatchNorm15"
  type: "BatchNorm"
  bottom: "Concat13"
  top: "BatchNorm15"
  param {
    lr_mult: 0
    decay_mult: 0
  }
  param {
    lr_mult: 0
    decay_mult: 0
  }
  param {
    lr_mult: 0
    decay_mult: 0
  }
}
layer {
  name: "Scale15"
  type: "Scale"
  bottom: "BatchNorm15"
  top: "BatchNorm15"
  scale_param {
    filler {
      value: 1
    }
    bias_term: true
    bias_filler {
      value: 0
    }
  }
}
layer {
  name: "ReLU15"
  type: "ReLU"
  bottom: "BatchNorm15"
  top: "BatchNorm15"
}
layer {
  name: "Convolution16"
  type: "Convolution"
  bottom: "BatchNorm15"
  top: "Convolution16"
  convolution_param {
    num_output: 12
    bias_term: false
    pad: 1
    kernel_size: 3
    stride: 1
    weight_filler {
      type: "msra"
    }
    bias_filler {
      type: "constant"
    }
  }
}
layer {
  name: "Dropout15"
  type: "Dropout"
  bottom: "Convolution16"
  top: "Dropout15"
  dropout_param {
    dropout_ratio: 0.2
  }
}
layer {
  name: "Concat14"
  type: "Concat"
  bottom: "Concat13"
  bottom: "Dropout15"
  top: "Concat14"
  concat_param {
    axis: 1
  }
}
layer {
  name: "BatchNorm16"
  type: "BatchNorm"
  bottom: "Concat14"
  top: "BatchNorm16"
  param {
    lr_mult: 0
    decay_mult: 0
  }
  param {
    lr_mult: 0
    decay_mult: 0
  }
  param {
    lr_mult: 0
    decay_mult: 0
  }
}
layer {
  name: "Scale16"
  type: "Scale"
  bottom: "BatchNorm16"
  top: "BatchNorm16"
  scale_param {
    filler {
      value: 1
    }
    bias_term: true
    bias_filler {
      value: 0
    }
  }
}
layer {
  name: "ReLU16"
  type: "ReLU"
  bottom: "BatchNorm16"
  top: "BatchNorm16"
}
layer {
  name: "Convolution17"
  type: "Convolution"
  bottom: "BatchNorm16"
  top: "Convolution17"
  convolution_param {
    num_output: 12
    bias_term: false
    pad: 1
    kernel_size: 3
    stride: 1
    weight_filler {
      type: "msra"
    }
    bias_filler {
      type: "constant"
    }
  }
}
layer {
  name: "Dropout16"
  type: "Dropout"
  bottom: "Convolution17"
  top: "Dropout16"
  dropout_param {
    dropout_ratio: 0.2
  }
}
layer {
  name: "Concat15"
  type: "Concat"
  bottom: "Concat14"
  bottom: "Dropout16"
  top: "Concat15"
  concat_param {
    axis: 1
  }
}
layer {
  name: "BatchNorm17"
  type: "BatchNorm"
  bottom: "Concat15"
  top: "BatchNorm17"
  param {
    lr_mult: 0
    decay_mult: 0
  }
  param {
    lr_mult: 0
    decay_mult: 0
  }
  param {
    lr_mult: 0
    decay_mult: 0
  }
}
layer {
  name: "Scale17"
  type: "Scale"
  bottom: "BatchNorm17"
  top: "BatchNorm17"
  scale_param {
    filler {
      value: 1
    }
    bias_term: true
    bias_filler {
      value: 0
    }
  }
}
layer {
  name: "ReLU17"
  type: "ReLU"
  bottom: "BatchNorm17"
  top: "BatchNorm17"
}
layer {
  name: "Convolution18"
  type: "Convolution"
  bottom: "BatchNorm17"
  top: "Convolution18"
  convolution_param {
    num_output: 12
    bias_term: false
    pad: 1
    kernel_size: 3
    stride: 1
    weight_filler {
      type: "msra"
    }
    bias_filler {
      type: "constant"
    }
  }
}
layer {
  name: "Dropout17"
  type: "Dropout"
  bottom: "Convolution18"
  top: "Dropout17"
  dropout_param {
    dropout_ratio: 0.2
  }
}
layer {
  name: "Concat16"
  type: "Concat"
  bottom: "Concat15"
  bottom: "Dropout17"
  top: "Concat16"
  concat_param {
    axis: 1
  }
}
layer {
  name: "BatchNorm18"
  type: "BatchNorm"
  bottom: "Concat16"
  top: "BatchNorm18"
  param {
    lr_mult: 0
    decay_mult: 0
  }
  param {
    lr_mult: 0
    decay_mult: 0
  }
  param {
    lr_mult: 0
    decay_mult: 0
  }
}
layer {
  name: "Scale18"
  type: "Scale"
  bottom: "BatchNorm18"
  top: "BatchNorm18"
  scale_param {
    filler {
      value: 1
    }
    bias_term: true
    bias_filler {
      value: 0
    }
  }
}
layer {
  name: "ReLU18"
  type: "ReLU"
  bottom: "BatchNorm18"
  top: "BatchNorm18"
}
layer {
  name: "Convolution19"
  type: "Convolution"
  bottom: "BatchNorm18"
  top: "Convolution19"
  convolution_param {
    num_output: 208
    bias_term: false
    pad: 0
    kernel_size: 1
    stride: 1
    weight_filler {
      type: "msra"
    }
    bias_filler {
      type: "constant"
    }
  }
}
layer {
  name: "Dropout18"
  type: "Dropout"
  bottom: "Convolution19"
  top: "Dropout18"
  dropout_param {
    dropout_ratio: 0.2
  }
}
layer {
  name: "Pooling2"
  type: "Pooling"
  bottom: "Dropout18"
  top: "Pooling2"
  pooling_param {
    pool: AVE
    kernel_size: 2
    stride: 2
  }
}
layer {
  name: "BatchNorm19"
  type: "BatchNorm"
  bottom: "Pooling2"
  top: "BatchNorm19"
  param {
    lr_mult: 0
    decay_mult: 0
  }
  param {
    lr_mult: 0
    decay_mult: 0
  }
  param {
    lr_mult: 0
    decay_mult: 0
  }
}
layer {
  name: "Scale19"
  type: "Scale"
  bottom: "BatchNorm19"
  top: "BatchNorm19"
  scale_param {
    filler {
      value: 1
    }
    bias_term: true
    bias_filler {
      value: 0
    }
  }
}
layer {
  name: "ReLU19"
  type: "ReLU"
  bottom: "BatchNorm19"
  top: "BatchNorm19"
}
layer {
  name: "Convolution20"
  type: "Convolution"
  bottom: "BatchNorm19"
  top: "Convolution20"
  convolution_param {
    num_output: 12
    bias_term: false
    pad: 1
    kernel_size: 3
    stride: 1
    weight_filler {
      type: "msra"
    }
    bias_filler {
      type: "constant"
    }
  }
}
layer {
  name: "Dropout19"
  type: "Dropout"
  bottom: "Convolution20"
  top: "Dropout19"
  dropout_param {
    dropout_ratio: 0.2
  }
}
layer {
  name: "Concat17"
  type: "Concat"
  bottom: "Pooling2"
  bottom: "Dropout19"
  top: "Concat17"
  concat_param {
    axis: 1
  }
}
layer {
  name: "BatchNorm20"
  type: "BatchNorm"
  bottom: "Concat17"
  top: "BatchNorm20"
  param {
    lr_mult: 0
    decay_mult: 0
  }
  param {
    lr_mult: 0
    decay_mult: 0
  }
  param {
    lr_mult: 0
    decay_mult: 0
  }
}
layer {
  name: "Scale20"
  type: "Scale"
  bottom: "BatchNorm20"
  top: "BatchNorm20"
  scale_param {
    filler {
      value: 1
    }
    bias_term: true
    bias_filler {
      value: 0
    }
  }
}
layer {
  name: "ReLU20"
  type: "ReLU"
  bottom: "BatchNorm20"
  top: "BatchNorm20"
}
layer {
  name: "Convolution21"
  type: "Convolution"
  bottom: "BatchNorm20"
  top: "Convolution21"
  convolution_param {
    num_output: 12
    bias_term: false
    pad: 1
    kernel_size: 3
    stride: 1
    weight_filler {
      type: "msra"
    }
    bias_filler {
      type: "constant"
    }
  }
}
layer {
  name: "Dropout20"
  type: "Dropout"
  bottom: "Convolution21"
  top: "Dropout20"
  dropout_param {
    dropout_ratio: 0.2
  }
}
layer {
  name: "Concat18"
  type: "Concat"
  bottom: "Concat17"
  bottom: "Dropout20"
  top: "Concat18"
  concat_param {
    axis: 1
  }
}
layer {
  name: "BatchNorm21"
  type: "BatchNorm"
  bottom: "Concat18"
  top: "BatchNorm21"
  param {
    lr_mult: 0
    decay_mult: 0
  }
  param {
    lr_mult: 0
    decay_mult: 0
  }
  param {
    lr_mult: 0
    decay_mult: 0
  }
}
layer {
  name: "Scale21"
  type: "Scale"
  bottom: "BatchNorm21"
  top: "BatchNorm21"
  scale_param {
    filler {
      value: 1
    }
    bias_term: true
    bias_filler {
      value: 0
    }
  }
}
layer {
  name: "ReLU21"
  type: "ReLU"
  bottom: "BatchNorm21"
  top: "BatchNorm21"
}
layer {
  name: "Convolution22"
  type: "Convolution"
  bottom: "BatchNorm21"
  top: "Convolution22"
  convolution_param {
    num_output: 12
    bias_term: false
    pad: 1
    kernel_size: 3
    stride: 1
    weight_filler {
      type: "msra"
    }
    bias_filler {
      type: "constant"
    }
  }
}
layer {
  name: "Dropout21"
  type: "Dropout"
  bottom: "Convolution22"
  top: "Dropout21"
  dropout_param {
    dropout_ratio: 0.2
  }
}
layer {
  name: "Concat19"
  type: "Concat"
  bottom: "Concat18"
  bottom: "Dropout21"
  top: "Concat19"
  concat_param {
    axis: 1
  }
}
layer {
  name: "BatchNorm22"
  type: "BatchNorm"
  bottom: "Concat19"
  top: "BatchNorm22"
  param {
    lr_mult: 0
    decay_mult: 0
  }
  param {
    lr_mult: 0
    decay_mult: 0
  }
  param {
    lr_mult: 0
    decay_mult: 0
  }
}
layer {
  name: "Scale22"
  type: "Scale"
  bottom: "BatchNorm22"
  top: "BatchNorm22"
  scale_param {
    filler {
      value: 1
    }
    bias_term: true
    bias_filler {
      value: 0
    }
  }
}
layer {
  name: "ReLU22"
  type: "ReLU"
  bottom: "BatchNorm22"
  top: "BatchNorm22"
}
layer {
  name: "Convolution23"
  type: "Convolution"
  bottom: "BatchNorm22"
  top: "Convolution23"
  convolution_param {
    num_output: 12
    bias_term: false
    pad: 1
    kernel_size: 3
    stride: 1
    weight_filler {
      type: "msra"
    }
    bias_filler {
      type: "constant"
    }
  }
}
layer {
  name: "Dropout22"
  type: "Dropout"
  bottom: "Convolution23"
  top: "Dropout22"
  dropout_param {
    dropout_ratio: 0.2
  }
}
layer {
  name: "Concat20"
  type: "Concat"
  bottom: "Concat19"
  bottom: "Dropout22"
  top: "Concat20"
  concat_param {
    axis: 1
  }
}
layer {
  name: "BatchNorm23"
  type: "BatchNorm"
  bottom: "Concat20"
  top: "BatchNorm23"
  param {
    lr_mult: 0
    decay_mult: 0
  }
  param {
    lr_mult: 0
    decay_mult: 0
  }
  param {
    lr_mult: 0
    decay_mult: 0
  }
}
layer {
  name: "Scale23"
  type: "Scale"
  bottom: "BatchNorm23"
  top: "BatchNorm23"
  scale_param {
    filler {
      value: 1
    }
    bias_term: true
    bias_filler {
      value: 0
    }
  }
}
layer {
  name: "ReLU23"
  type: "ReLU"
  bottom: "BatchNorm23"
  top: "BatchNorm23"
}
layer {
  name: "Convolution24"
  type: "Convolution"
  bottom: "BatchNorm23"
  top: "Convolution24"
  convolution_param {
    num_output: 12
    bias_term: false
    pad: 1
    kernel_size: 3
    stride: 1
    weight_filler {
      type: "msra"
    }
    bias_filler {
      type: "constant"
    }
  }
}
layer {
  name: "Dropout23"
  type: "Dropout"
  bottom: "Convolution24"
  top: "Dropout23"
  dropout_param {
    dropout_ratio: 0.2
  }
}
layer {
  name: "Concat21"
  type: "Concat"
  bottom: "Concat20"
  bottom: "Dropout23"
  top: "Concat21"
  concat_param {
    axis: 1
  }
}
layer {
  name: "BatchNorm24"
  type: "BatchNorm"
  bottom: "Concat21"
  top: "BatchNorm24"
  param {
    lr_mult: 0
    decay_mult: 0
  }
  param {
    lr_mult: 0
    decay_mult: 0
  }
  param {
    lr_mult: 0
    decay_mult: 0
  }
}
layer {
  name: "Scale24"
  type: "Scale"
  bottom: "BatchNorm24"
  top: "BatchNorm24"
  scale_param {
    filler {
      value: 1
    }
    bias_term: true
    bias_filler {
      value: 0
    }
  }
}
layer {
  name: "ReLU24"
  type: "ReLU"
  bottom: "BatchNorm24"
  top: "BatchNorm24"
}
layer {
  name: "Convolution25"
  type: "Convolution"
  bottom: "BatchNorm24"
  top: "Convolution25"
  convolution_param {
    num_output: 12
    bias_term: false
    pad: 1
    kernel_size: 3
    stride: 1
    weight_filler {
      type: "msra"
    }
    bias_filler {
      type: "constant"
    }
  }
}
layer {
  name: "Dropout24"
  type: "Dropout"
  bottom: "Convolution25"
  top: "Dropout24"
  dropout_param {
    dropout_ratio: 0.2
  }
}
layer {
  name: "Concat22"
  type: "Concat"
  bottom: "Concat21"
  bottom: "Dropout24"
  top: "Concat22"
  concat_param {
    axis: 1
  }
}
layer {
  name: "BatchNorm25"
  type: "BatchNorm"
  bottom: "Concat22"
  top: "BatchNorm25"
  param {
    lr_mult: 0
    decay_mult: 0
  }
  param {
    lr_mult: 0
    decay_mult: 0
  }
  param {
    lr_mult: 0
    decay_mult: 0
  }
}
layer {
  name: "Scale25"
  type: "Scale"
  bottom: "BatchNorm25"
  top: "BatchNorm25"
  scale_param {
    filler {
      value: 1
    }
    bias_term: true
    bias_filler {
      value: 0
    }
  }
}
layer {
  name: "ReLU25"
  type: "ReLU"
  bottom: "BatchNorm25"
  top: "BatchNorm25"
}
layer {
  name: "Convolution26"
  type: "Convolution"
  bottom: "BatchNorm25"
  top: "Convolution26"
  convolution_param {
    num_output: 12
    bias_term: false
    pad: 1
    kernel_size: 3
    stride: 1
    weight_filler {
      type: "msra"
    }
    bias_filler {
      type: "constant"
    }
  }
}
layer {
  name: "Dropout25"
  type: "Dropout"
  bottom: "Convolution26"
  top: "Dropout25"
  dropout_param {
    dropout_ratio: 0.2
  }
}
layer {
  name: "Concat23"
  type: "Concat"
  bottom: "Concat22"
  bottom: "Dropout25"
  top: "Concat23"
  concat_param {
    axis: 1
  }
}
layer {
  name: "BatchNorm26"
  type: "BatchNorm"
  bottom: "Concat23"
  top: "BatchNorm26"
  param {
    lr_mult: 0
    decay_mult: 0
  }
  param {
    lr_mult: 0
    decay_mult: 0
  }
  param {
    lr_mult: 0
    decay_mult: 0
  }
}
layer {
  name: "Scale26"
  type: "Scale"
  bottom: "BatchNorm26"
  top: "BatchNorm26"
  scale_param {
    filler {
      value: 1
    }
    bias_term: true
    bias_filler {
      value: 0
    }
  }
}
layer {
  name: "ReLU26"
  type: "ReLU"
  bottom: "BatchNorm26"
  top: "BatchNorm26"
}
layer {
  name: "Convolution27"
  type: "Convolution"
  bottom: "BatchNorm26"
  top: "Convolution27"
  convolution_param {
    num_output: 12
    bias_term: false
    pad: 1
    kernel_size: 3
    stride: 1
    weight_filler {
      type: "msra"
    }
    bias_filler {
      type: "constant"
    }
  }
}
layer {
  name: "Dropout26"
  type: "Dropout"
  bottom: "Convolution27"
  top: "Dropout26"
  dropout_param {
    dropout_ratio: 0.2
  }
}
layer {
  name: "Concat24"
  type: "Concat"
  bottom: "Concat23"
  bottom: "Dropout26"
  top: "Concat24"
  concat_param {
    axis: 1
  }
}
layer {
  name: "BatchNorm27"
  type: "BatchNorm"
  bottom: "Concat24"
  top: "BatchNorm27"
  param {
    lr_mult: 0
    decay_mult: 0
  }
  param {
    lr_mult: 0
    decay_mult: 0
  }
  param {
    lr_mult: 0
    decay_mult: 0
  }
}
layer {
  name: "Scale27"
  type: "Scale"
  bottom: "BatchNorm27"
  top: "BatchNorm27"
  scale_param {
    filler {
      value: 1
    }
    bias_term: true
    bias_filler {
      value: 0
    }
  }
}
layer {
  name: "ReLU27"
  type: "ReLU"
  bottom: "BatchNorm27"
  top: "BatchNorm27"
}
layer {
  name: "Convolution28"
  type: "Convolution"
  bottom: "BatchNorm27"
  top: "Convolution28"
  convolution_param {
    num_output: 304
    bias_term: false
    pad: 0
   
I0220 14:02:13.778790 22185 layer_factory.hpp:77] Creating layer input-data
I0220 14:02:13.797441 22185 net.cpp:106] Creating Layer input-data
I0220 14:02:13.797458 22185 net.cpp:411] input-data -> data
I0220 14:02:13.797477 22185 net.cpp:411] input-data -> im_info
I0220 14:02:13.797484 22185 net.cpp:411] input-data -> gt_boxes
I0220 14:02:13.809371 22185 net.cpp:150] Setting up input-data
I0220 14:02:13.809396 22185 net.cpp:157] Top shape: 1 3 300 500 (450000)
I0220 14:02:13.809403 22185 net.cpp:157] Top shape: 1 3 (3)
I0220 14:02:13.809409 22185 net.cpp:157] Top shape: 1 4 (4)
I0220 14:02:13.809413 22185 net.cpp:165] Memory required for data: 1800028
I0220 14:02:13.809419 22185 layer_factory.hpp:77] Creating layer data_input-data_0_split
I0220 14:02:13.809434 22185 net.cpp:106] Creating Layer data_input-data_0_split
I0220 14:02:13.809442 22185 net.cpp:454] data_input-data_0_split <- data
I0220 14:02:13.809450 22185 net.cpp:411] data_input-data_0_split -> data_input-data_0_split_0
I0220 14:02:13.809460 22185 net.cpp:411] data_input-data_0_split -> data_input-data_0_split_1
I0220 14:02:13.809517 22185 net.cpp:150] Setting up data_input-data_0_split
I0220 14:02:13.809528 22185 net.cpp:157] Top shape: 1 3 300 500 (450000)
I0220 14:02:13.809535 22185 net.cpp:157] Top shape: 1 3 300 500 (450000)
I0220 14:02:13.809541 22185 net.cpp:165] Memory required for data: 5400028
I0220 14:02:13.809545 22185 layer_factory.hpp:77] Creating layer Convolution1
I0220 14:02:13.809562 22185 net.cpp:106] Creating Layer Convolution1
I0220 14:02:13.809569 22185 net.cpp:454] Convolution1 <- data_input-data_0_split_0
I0220 14:02:13.809577 22185 net.cpp:411] Convolution1 -> Convolution1
I0220 14:02:13.810448 22185 net.cpp:150] Setting up Convolution1
I0220 14:02:13.810464 22185 net.cpp:157] Top shape: 1 16 300 500 (2400000)
I0220 14:02:13.810472 22185 net.cpp:165] Memory required for data: 15000028
I0220 14:02:13.810484 22185 layer_factory.hpp:77] Creating layer Convolution1_Convolution1_0_split
I0220 14:02:13.810493 22185 net.cpp:106] Creating Layer Convolution1_Convolution1_0_split
I0220 14:02:13.810498 22185 net.cpp:454] Convolution1_Convolution1_0_split <- Convolution1
I0220 14:02:13.810504 22185 net.cpp:411] Convolution1_Convolution1_0_split -> Convolution1_Convolution1_0_split_0
I0220 14:02:13.810513 22185 net.cpp:411] Convolution1_Convolution1_0_split -> Convolution1_Convolution1_0_split_1
I0220 14:02:13.810561 22185 net.cpp:150] Setting up Convolution1_Convolution1_0_split
I0220 14:02:13.810575 22185 net.cpp:157] Top shape: 1 16 300 500 (2400000)
I0220 14:02:13.810581 22185 net.cpp:157] Top shape: 1 16 300 500 (2400000)
I0220 14:02:13.810586 22185 net.cpp:165] Memory required for data: 34200028
I0220 14:02:13.810591 22185 layer_factory.hpp:77] Creating layer BatchNorm1
I0220 14:02:13.810605 22185 net.cpp:106] Creating Layer BatchNorm1
I0220 14:02:13.810611 22185 net.cpp:454] BatchNorm1 <- Convolution1_Convolution1_0_split_0
I0220 14:02:13.810621 22185 net.cpp:411] BatchNorm1 -> BatchNorm1
I0220 14:02:13.811585 22185 net.cpp:150] Setting up BatchNorm1
I0220 14:02:13.811601 22185 net.cpp:157] Top shape: 1 16 300 500 (2400000)
I0220 14:02:13.811607 22185 net.cpp:165] Memory required for data: 43800028
I0220 14:02:13.811620 22185 layer_factory.hpp:77] Creating layer Scale1
I0220 14:02:13.811635 22185 net.cpp:106] Creating Layer Scale1
I0220 14:02:13.811640 22185 net.cpp:454] Scale1 <- BatchNorm1
I0220 14:02:13.811647 22185 net.cpp:397] Scale1 -> BatchNorm1 (in-place)
I0220 14:02:13.811707 22185 layer_factory.hpp:77] Creating layer Scale1
I0220 14:02:13.813202 22185 net.cpp:150] Setting up Scale1
I0220 14:02:13.813217 22185 net.cpp:157] Top shape: 1 16 300 500 (2400000)
I0220 14:02:13.813223 22185 net.cpp:165] Memory required for data: 53400028
I0220 14:02:13.813235 22185 layer_factory.hpp:77] Creating layer ReLU1
I0220 14:02:13.813246 22185 net.cpp:106] Creating Layer ReLU1
I0220 14:02:13.813251 22185 net.cpp:454] ReLU1 <- BatchNorm1
I0220 14:02:13.813257 22185 net.cpp:397] ReLU1 -> BatchNorm1 (in-place)
I0220 14:02:13.813266 22185 net.cpp:150] Setting up ReLU1
I0220 14:02:13.813273 22185 net.cpp:157] Top shape: 1 16 300 500 (2400000)
I0220 14:02:13.813279 22185 net.cpp:165] Memory required for data: 63000028
I0220 14:02:13.813283 22185 layer_factory.hpp:77] Creating layer Convolution2
I0220 14:02:13.813295 22185 net.cpp:106] Creating Layer Convolution2
I0220 14:02:13.813302 22185 net.cpp:454] Convolution2 <- BatchNorm1
I0220 14:02:13.813310 22185 net.cpp:411] Convolution2 -> Convolution2
I0220 14:02:13.814194 22185 net.cpp:150] Setting up Convolution2
I0220 14:02:13.814209 22185 net.cpp:157] Top shape: 1 12 300 500 (1800000)
I0220 14:02:13.814215 22185 net.cpp:165] Memory required for data: 70200028
I0220 14:02:13.814223 22185 layer_factory.hpp:77] Creating layer Dropout1
I0220 14:02:13.814236 22185 net.cpp:106] Creating Layer Dropout1
I0220 14:02:13.814244 22185 net.cpp:454] Dropout1 <- Convolution2
I0220 14:02:13.814255 22185 net.cpp:411] Dropout1 -> Dropout1
I0220 14:02:13.814311 22185 net.cpp:150] Setting up Dropout1
I0220 14:02:13.814322 22185 net.cpp:157] Top shape: 1 12 300 500 (1800000)
I0220 14:02:13.814328 22185 net.cpp:165] Memory required for data: 77400028
I0220 14:02:13.814332 22185 layer_factory.hpp:77] Creating layer Concat1
I0220 14:02:13.814342 22185 net.cpp:106] Creating Layer Concat1
I0220 14:02:13.814347 22185 net.cpp:454] Concat1 <- Convolution1_Convolution1_0_split_1
I0220 14:02:13.814352 22185 net.cpp:454] Concat1 <- Dropout1
I0220 14:02:13.814359 22185 net.cpp:411] Concat1 -> Concat1
I0220 14:02:13.814394 22185 net.cpp:150] Setting up Concat1
I0220 14:02:13.814405 22185 net.cpp:157] Top shape: 1 28 300 500 (4200000)
I0220 14:02:13.814410 22185 net.cpp:165] Memory required for data: 94200028
I0220 14:02:13.814415 22185 layer_factory.hpp:77] Creating layer Concat1_Concat1_0_split
I0220 14:02:13.814422 22185 net.cpp:106] Creating Layer Concat1_Concat1_0_split
I0220 14:02:13.814427 22185 net.cpp:454] Concat1_Concat1_0_split <- Concat1
I0220 14:02:13.814434 22185 net.cpp:411] Concat1_Concat1_0_split -> Concat1_Concat1_0_split_0
I0220 14:02:13.814443 22185 net.cpp:411] Concat1_Concat1_0_split -> Concat1_Concat1_0_split_1
I0220 14:02:13.814492 22185 net.cpp:150] Setting up Concat1_Concat1_0_split
I0220 14:02:13.814502 22185 net.cpp:157] Top shape: 1 28 300 500 (4200000)
I0220 14:02:13.814509 22185 net.cpp:157] Top shape: 1 28 300 500 (4200000)
I0220 14:02:13.814514 22185 net.cpp:165] Memory required for data: 127800028
I0220 14:02:13.814519 22185 layer_factory.hpp:77] Creating layer BatchNorm2
I0220 14:02:13.814527 22185 net.cpp:106] Creating Layer BatchNorm2
I0220 14:02:13.814532 22185 net.cpp:454] BatchNorm2 <- Concat1_Concat1_0_split_0
I0220 14:02:13.814543 22185 net.cpp:411] BatchNorm2 -> BatchNorm2
I0220 14:02:13.815520 22185 net.cpp:150] Setting up BatchNorm2
I0220 14:02:13.815536 22185 net.cpp:157] Top shape: 1 28 300 500 (4200000)
I0220 14:02:13.815541 22185 net.cpp:165] Memory required for data: 144600028
I0220 14:02:13.815553 22185 layer_factory.hpp:77] Creating layer Scale2
I0220 14:02:13.815565 22185 net.cpp:106] Creating Layer Scale2
I0220 14:02:13.815572 22185 net.cpp:454] Scale2 <- BatchNorm2
I0220 14:02:13.815579 22185 net.cpp:397] Scale2 -> BatchNorm2 (in-place)
I0220 14:02:13.815635 22185 layer_factory.hpp:77] Creating layer Scale2
I0220 14:02:13.817147 22185 net.cpp:150] Setting up Scale2
I0220 14:02:13.817162 22185 net.cpp:157] Top shape: 1 28 300 500 (4200000)
I0220 14:02:13.817168 22185 net.cpp:165] Memory required for data: 161400028
I0220 14:02:13.817176 22185 layer_factory.hpp:77] Creating layer ReLU2
I0220 14:02:13.817184 22185 net.cpp:106] Creating Layer ReLU2
I0220 14:02:13.817190 22185 net.cpp:454] ReLU2 <- BatchNorm2
I0220 14:02:13.817198 22185 net.cpp:397] ReLU2 -> BatchNorm2 (in-place)
I0220 14:02:13.817208 22185 net.cpp:150] Setting up ReLU2
I0220 14:02:13.817215 22185 net.cpp:157] Top shape: 1 28 300 500 (4200000)
I0220 14:02:13.817220 22185 net.cpp:165] Memory required for data: 178200028
I0220 14:02:13.817225 22185 layer_factory.hpp:77] Creating layer Convolution3
I0220 14:02:13.817237 22185 net.cpp:106] Creating Layer Convolution3
I0220 14:02:13.817243 22185 net.cpp:454] Convolution3 <- BatchNorm2
I0220 14:02:13.817250 22185 net.cpp:411] Convolution3 -> Convolution3
I0220 14:02:13.817595 22185 net.cpp:150] Setting up Convolution3
I0220 14:02:13.817607 22185 net.cpp:157] Top shape: 1 12 300 500 (1800000)
I0220 14:02:13.817613 22185 net.cpp:165] Memory required for data: 185400028
I0220 14:02:13.817620 22185 layer_factory.hpp:77] Creating layer Dropout2
I0220 14:02:13.817629 22185 net.cpp:106] Creating Layer Dropout2
I0220 14:02:13.817636 22185 net.cpp:454] Dropout2 <- Convolution3
I0220 14:02:13.817642 22185 net.cpp:411] Dropout2 -> Dropout2
I0220 14:02:13.817695 22185 net.cpp:150] Setting up Dropout2
I0220 14:02:13.817706 22185 net.cpp:157] Top shape: 1 12 300 500 (1800000)
I0220 14:02:13.817713 22185 net.cpp:165] Memory required for data: 192600028
I0220 14:02:13.817718 22185 layer_factory.hpp:77] Creating layer Concat2
I0220 14:02:13.817728 22185 net.cpp:106] Creating Layer Concat2
I0220 14:02:13.817734 22185 net.cpp:454] Concat2 <- Concat1_Concat1_0_split_1
I0220 14:02:13.817740 22185 net.cpp:454] Concat2 <- Dropout2
I0220 14:02:13.817747 22185 net.cpp:411] Concat2 -> Concat2
I0220 14:02:13.817781 22185 net.cpp:150] Setting up Concat2
I0220 14:02:13.817792 22185 net.cpp:157] Top shape: 1 40 300 500 (6000000)
I0220 14:02:13.817797 22185 net.cpp:165] Memory required for data: 216600028
I0220 14:02:13.817802 22185 layer_factory.hpp:77] Creating layer Concat2_Concat2_0_split
I0220 14:02:13.817809 22185 net.cpp:106] Creating Layer Concat2_Concat2_0_split
I0220 14:02:13.817816 22185 net.cpp:454] Concat2_Concat2_0_split <- Concat2
I0220 14:02:13.817823 22185 net.cpp:411] Concat2_Concat2_0_split -> Concat2_Concat2_0_split_0
I0220 14:02:13.817831 22185 net.cpp:411] Concat2_Concat2_0_split -> Concat2_Concat2_0_split_1
I0220 14:02:13.817879 22185 net.cpp:150] Setting up Concat2_Concat2_0_split
I0220 14:02:13.817890 22185 net.cpp:157] Top shape: 1 40 300 500 (6000000)
I0220 14:02:13.817898 22185 net.cpp:157] Top shape: 1 40 300 500 (6000000)
I0220 14:02:13.817901 22185 net.cpp:165] Memory required for data: 264600028
I0220 14:02:13.817905 22185 layer_factory.hpp:77] Creating layer BatchNorm3
I0220 14:02:13.817914 22185 net.cpp:106] Creating Layer BatchNorm3
I0220 14:02:13.817924 22185 net.cpp:454] BatchNorm3 <- Concat2_Concat2_0_split_0
I0220 14:02:13.817931 22185 net.cpp:411] BatchNorm3 -> BatchNorm3
I0220 14:02:13.818861 22185 net.cpp:150] Setting up BatchNorm3
I0220 14:02:13.818876 22185 net.cpp:157] Top shape: 1 40 300 500 (6000000)
I0220 14:02:13.818881 22185 net.cpp:165] Memory required for data: 288600028
I0220 14:02:13.818892 22185 layer_factory.hpp:77] Creating layer Scale3
I0220 14:02:13.818902 22185 net.cpp:106] Creating Layer Scale3
I0220 14:02:13.818908 22185 net.cpp:454] Scale3 <- BatchNorm3
I0220 14:02:13.818917 22185 net.cpp:397] Scale3 -> BatchNorm3 (in-place)
I0220 14:02:13.818974 22185 layer_factory.hpp:77] Creating layer Scale3
I0220 14:02:13.820480 22185 net.cpp:150] Setting up Scale3
I0220 14:02:13.820497 22185 net.cpp:157] Top shape: 1 40 300 500 (6000000)
I0220 14:02:13.820502 22185 net.cpp:165] Memory required for data: 312600028
I0220 14:02:13.820514 22185 layer_factory.hpp:77] Creating layer ReLU3
I0220 14:02:13.820525 22185 net.cpp:106] Creating Layer ReLU3
I0220 14:02:13.820531 22185 net.cpp:454] ReLU3 <- BatchNorm3
I0220 14:02:13.820538 22185 net.cpp:397] ReLU3 -> BatchNorm3 (in-place)
I0220 14:02:13.820546 22185 net.cpp:150] Setting up ReLU3
I0220 14:02:13.820554 22185 net.cpp:157] Top shape: 1 40 300 500 (6000000)
I0220 14:02:13.820559 22185 net.cpp:165] Memory required for data: 336600028
I0220 14:02:13.820564 22185 layer_factory.hpp:77] Creating layer Convolution4
I0220 14:02:13.820576 22185 net.cpp:106] Creating Layer Convolution4
I0220 14:02:13.820582 22185 net.cpp:454] Convolution4 <- BatchNorm3
I0220 14:02:13.820590 22185 net.cpp:411] Convolution4 -> Convolution4
I0220 14:02:13.821547 22185 net.cpp:150] Setting up Convolution4
I0220 14:02:13.821560 22185 net.cpp:157] Top shape: 1 12 300 500 (1800000)
I0220 14:02:13.821566 22185 net.cpp:165] Memory required for data: 343800028
I0220 14:02:13.821573 22185 layer_factory.hpp:77] Creating layer Dropout3
I0220 14:02:13.821584 22185 net.cpp:106] Creating Layer Dropout3
I0220 14:02:13.821590 22185 net.cpp:454] Dropout3 <- Convolution4
I0220 14:02:13.821597 22185 net.cpp:411] Dropout3 -> Dropout3
I0220 14:02:13.821651 22185 net.cpp:150] Setting up Dropout3
I0220 14:02:13.821663 22185 net.cpp:157] Top shape: 1 12 300 500 (1800000)
I0220 14:02:13.821668 22185 net.cpp:165] Memory required for data: 351000028
I0220 14:02:13.821673 22185 layer_factory.hpp:77] Creating layer Concat3
I0220 14:02:13.821681 22185 net.cpp:106] Creating Layer Concat3
I0220 14:02:13.821686 22185 net.cpp:454] Concat3 <- Concat2_Concat2_0_split_1
I0220 14:02:13.821692 22185 net.cpp:454] Concat3 <- Dropout3
I0220 14:02:13.821702 22185 net.cpp:411] Concat3 -> Concat3
I0220 14:02:13.821735 22185 net.cpp:150] Setting up Concat3
I0220 14:02:13.821746 22185 net.cpp:157] Top shape: 1 52 300 500 (7800000)
I0220 14:02:13.821751 22185 net.cpp:165] Memory required for data: 382200028
I0220 14:02:13.821756 22185 layer_factory.hpp:77] Creating layer Concat3_Concat3_0_split
I0220 14:02:13.821763 22185 net.cpp:106] Creating Layer Concat3_Concat3_0_split
I0220 14:02:13.821772 22185 net.cpp:454] Concat3_Concat3_0_split <- Concat3
I0220 14:02:13.821780 22185 net.cpp:411] Concat3_Concat3_0_split -> Concat3_Concat3_0_split_0
I0220 14:02:13.821789 22185 net.cpp:411] Concat3_Concat3_0_split -> Concat3_Concat3_0_split_1
I0220 14:02:13.821840 22185 net.cpp:150] Setting up Concat3_Concat3_0_split
I0220 14:02:13.821849 22185 net.cpp:157] Top shape: 1 52 300 500 (7800000)
I0220 14:02:13.821856 22185 net.cpp:157] Top shape: 1 52 300 500 (7800000)
I0220 14:02:13.821861 22185 net.cpp:165] Memory required for data: 444600028
I0220 14:02:13.821866 22185 layer_factory.hpp:77] Creating layer BatchNorm4
I0220 14:02:13.821877 22185 net.cpp:106] Creating Layer BatchNorm4
I0220 14:02:13.821882 22185 net.cpp:454] BatchNorm4 <- Concat3_Concat3_0_split_0
I0220 14:02:13.821888 22185 net.cpp:411] BatchNorm4 -> BatchNorm4
I0220 14:02:13.822832 22185 net.cpp:150] Setting up BatchNorm4
I0220 14:02:13.822849 22185 net.cpp:157] Top shape: 1 52 300 500 (7800000)
I0220 14:02:13.822855 22185 net.cpp:165] Memory required for data: 475800028
I0220 14:02:13.822865 22185 layer_factory.hpp:77] Creating layer Scale4
I0220 14:02:13.822875 22185 net.cpp:106] Creating Layer Scale4
I0220 14:02:13.822880 22185 net.cpp:454] Scale4 <- BatchNorm4
I0220 14:02:13.822888 22185 net.cpp:397] Scale4 -> BatchNorm4 (in-place)
I0220 14:02:13.822947 22185 layer_factory.hpp:77] Creating layer Scale4
I0220 14:02:13.824476 22185 net.cpp:150] Setting up Scale4
I0220 14:02:13.824492 22185 net.cpp:157] Top shape: 1 52 300 500 (7800000)
I0220 14:02:13.824498 22185 net.cpp:165] Memory required for data: 507000028
I0220 14:02:13.824507 22185 layer_factory.hpp:77] Creating layer ReLU4
I0220 14:02:13.824515 22185 net.cpp:106] Creating Layer ReLU4
I0220 14:02:13.824522 22185 net.cpp:454] ReLU4 <- BatchNorm4
I0220 14:02:13.824530 22185 net.cpp:397] ReLU4 -> BatchNorm4 (in-place)
I0220 14:02:13.824538 22185 net.cpp:150] Setting up ReLU4
I0220 14:02:13.824546 22185 net.cpp:157] Top shape: 1 52 300 500 (7800000)
I0220 14:02:13.824551 22185 net.cpp:165] Memory required for data: 538200028
I0220 14:02:13.824556 22185 layer_factory.hpp:77] Creating layer Convolution5
I0220 14:02:13.824565 22185 net.cpp:106] Creating Layer Convolution5
I0220 14:02:13.824571 22185 net.cpp:454] Convolution5 <- BatchNorm4
I0220 14:02:13.824580 22185 net.cpp:411] Convolution5 -> Convolution5
I0220 14:02:13.825007 22185 net.cpp:150] Setting up Convolution5
I0220 14:02:13.825022 22185 net.cpp:157] Top shape: 1 12 300 500 (1800000)
I0220 14:02:13.825028 22185 net.cpp:165] Memory required for data: 545400028
I0220 14:02:13.825034 22185 layer_factory.hpp:77] Creating layer Dropout4
I0220 14:02:13.825043 22185 net.cpp:106] Creating Layer Dropout4
I0220 14:02:13.825049 22185 net.cpp:454] Dropout4 <- Convolution5
I0220 14:02:13.825055 22185 net.cpp:411] Dropout4 -> Dropout4
I0220 14:02:13.825109 22185 net.cpp:150] Setting up Dropout4
I0220 14:02:13.825119 22185 net.cpp:157] Top shape: 1 12 300 500 (1800000)
I0220 14:02:13.825124 22185 net.cpp:165] Memory required for data: 552600028
I0220 14:02:13.825129 22185 layer_factory.hpp:77] Creating layer Concat4
I0220 14:02:13.825139 22185 net.cpp:106] Creating Layer Concat4
I0220 14:02:13.825145 22185 net.cpp:454] Concat4 <- Concat3_Concat3_0_split_1
I0220 14:02:13.825151 22185 net.cpp:454] Concat4 <- Dropout4
I0220 14:02:13.825158 22185 net.cpp:411] Concat4 -> Concat4
I0220 14:02:13.825192 22185 net.cpp:150] Setting up Concat4
I0220 14:02:13.825204 22185 net.cpp:157] Top shape: 1 64 300 500 (9600000)
I0220 14:02:13.825211 22185 net.cpp:165] Memory required for data: 591000028
I0220 14:02:13.825215 22185 layer_factory.hpp:77] Creating layer Concat4_Concat4_0_split
I0220 14:02:13.825222 22185 net.cpp:106] Creating Layer Concat4_Concat4_0_split
I0220 14:02:13.825228 22185 net.cpp:454] Concat4_Concat4_0_split <- Concat4
I0220 14:02:13.825234 22185 net.cpp:411] Concat4_Concat4_0_split -> Concat4_Concat4_0_split_0
I0220 14:02:13.825242 22185 net.cpp:411] Concat4_Concat4_0_split -> Concat4_Concat4_0_split_1
I0220 14:02:13.825291 22185 net.cpp:150] Setting up Concat4_Concat4_0_split
I0220 14:02:13.825302 22185 net.cpp:157] Top shape: 1 64 300 500 (9600000)
I0220 14:02:13.825309 22185 net.cpp:157] Top shape: 1 64 300 500 (9600000)
I0220 14:02:13.825314 22185 net.cpp:165] Memory required for data: 667800028
I0220 14:02:13.825319 22185 layer_factory.hpp:77] Creating layer BatchNorm5
I0220 14:02:13.825331 22185 net.cpp:106] Creating Layer BatchNorm5
I0220 14:02:13.825337 22185 net.cpp:454] BatchNorm5 <- Concat4_Concat4_0_split_0
I0220 14:02:13.825347 22185 net.cpp:411] BatchNorm5 -> BatchNorm5
I0220 14:02:13.826318 22185 net.cpp:150] Setting up BatchNorm5
I0220 14:02:13.826335 22185 net.cpp:157] Top shape: 1 64 300 500 (9600000)
I0220 14:02:13.826341 22185 net.cpp:165] Memory required for data: 706200028
I0220 14:02:13.826351 22185 layer_factory.hpp:77] Creating layer Scale5
I0220 14:02:13.826360 22185 net.cpp:106] Creating Layer Scale5
I0220 14:02:13.826366 22185 net.cpp:454] Scale5 <- BatchNorm5
I0220 14:02:13.826375 22185 net.cpp:397] Scale5 -> BatchNorm5 (in-place)
I0220 14:02:13.826436 22185 layer_factory.hpp:77] Creating layer Scale5
I0220 14:02:13.827965 22185 net.cpp:150] Setting up Scale5
I0220 14:02:13.827980 22185 net.cpp:157] Top shape: 1 64 300 500 (9600000)
I0220 14:02:13.827986 22185 net.cpp:165] Memory required for data: 744600028
I0220 14:02:13.827994 22185 layer_factory.hpp:77] Creating layer ReLU5
I0220 14:02:13.828003 22185 net.cpp:106] Creating Layer ReLU5
I0220 14:02:13.828009 22185 net.cpp:454] ReLU5 <- BatchNorm5
I0220 14:02:13.828018 22185 net.cpp:397] ReLU5 -> BatchNorm5 (in-place)
I0220 14:02:13.828027 22185 net.cpp:150] Setting up ReLU5
I0220 14:02:13.828034 22185 net.cpp:157] Top shape: 1 64 300 500 (9600000)
I0220 14:02:13.828039 22185 net.cpp:165] Memory required for data: 783000028
I0220 14:02:13.828044 22185 layer_factory.hpp:77] Creating layer Convolution6
I0220 14:02:13.828057 22185 net.cpp:106] Creating Layer Convolution6
I0220 14:02:13.828063 22185 net.cpp:454] Convolution6 <- BatchNorm5
I0220 14:02:13.828069 22185 net.cpp:411] Convolution6 -> Convolution6
I0220 14:02:13.828542 22185 net.cpp:150] Setting up Convolution6
I0220 14:02:13.828555 22185 net.cpp:157] Top shape: 1 12 300 500 (1800000)
I0220 14:02:13.828562 22185 net.cpp:165] Memory required for data: 790200028
I0220 14:02:13.828567 22185 layer_factory.hpp:77] Creating layer Dropout5
I0220 14:02:13.828575 22185 net.cpp:106] Creating Layer Dropout5
I0220 14:02:13.828582 22185 net.cpp:454] Dropout5 <- Convolution6
I0220 14:02:13.828591 22185 net.cpp:411] Dropout5 -> Dropout5
I0220 14:02:13.828645 22185 net.cpp:150] Setting up Dropout5
I0220 14:02:13.828656 22185 net.cpp:157] Top shape: 1 12 300 500 (1800000)
I0220 14:02:13.828662 22185 net.cpp:165] Memory required for data: 797400028
I0220 14:02:13.828667 22185 layer_factory.hpp:77] Creating layer Concat5
I0220 14:02:13.828677 22185 net.cpp:106] Creating Layer Concat5
I0220 14:02:13.828683 22185 net.cpp:454] Concat5 <- Concat4_Concat4_0_split_1
I0220 14:02:13.828691 22185 net.cpp:454] Concat5 <- Dropout5
I0220 14:02:13.828697 22185 net.cpp:411] Concat5 -> Concat5
I0220 14:02:13.828732 22185 net.cpp:150] Setting up Concat5
I0220 14:02:13.828743 22185 net.cpp:157] Top shape: 1 76 300 500 (11400000)
I0220 14:02:13.828748 22185 net.cpp:165] Memory required for data: 843000028
I0220 14:02:13.828753 22185 layer_factory.hpp:77] Creating layer Concat5_Concat5_0_split
I0220 14:02:13.828763 22185 net.cpp:106] Creating Layer Concat5_Concat5_0_split
I0220 14:02:13.828768 22185 net.cpp:454] Concat5_Concat5_0_split <- Concat5
I0220 14:02:13.828778 22185 net.cpp:411] Concat5_Concat5_0_split -> Concat5_Concat5_0_split_0
I0220 14:02:13.828785 22185 net.cpp:411] Concat5_Concat5_0_split -> Concat5_Concat5_0_split_1
I0220 14:02:13.828835 22185 net.cpp:150] Setting up Concat5_Concat5_0_split
I0220 14:02:13.828846 22185 net.cpp:157] Top shape: 1 76 300 500 (11400000)
I0220 14:02:13.828852 22185 net.cpp:157] Top shape: 1 76 300 500 (11400000)
I0220 14:02:13.828858 22185 net.cpp:165] Memory required for data: 934200028
I0220 14:02:13.828862 22185 layer_factory.hpp:77] Creating layer BatchNorm6
I0220 14:02:13.828872 22185 net.cpp:106] Creating Layer BatchNorm6
I0220 14:02:13.828878 22185 net.cpp:454] BatchNorm6 <- Concat5_Concat5_0_split_0
I0220 14:02:13.828886 22185 net.cpp:411] BatchNorm6 -> BatchNorm6
I0220 14:02:13.829830 22185 net.cpp:150] Setting up BatchNorm6
I0220 14:02:13.829845 22185 net.cpp:157] Top shape: 1 76 300 500 (11400000)
I0220 14:02:13.829851 22185 net.cpp:165] Memory required for data: 979800028
I0220 14:02:13.829867 22185 layer_factory.hpp:77] Creating layer Scale6
I0220 14:02:13.829879 22185 net.cpp:106] Creating Layer Scale6
I0220 14:02:13.829885 22185 net.cpp:454] Scale6 <- BatchNorm6
I0220 14:02:13.829895 22185 net.cpp:397] Scale6 -> BatchNorm6 (in-place)
I0220 14:02:13.829953 22185 layer_factory.hpp:77] Creating layer Scale6
I0220 14:02:13.831454 22185 net.cpp:150] Setting up Scale6
I0220 14:02:13.831472 22185 net.cpp:157] Top shape: 1 76 300 500 (11400000)
I0220 14:02:13.831480 22185 net.cpp:165] Memory required for data: 1025400028
I0220 14:02:13.831487 22185 layer_factory.hpp:77] Creating layer ReLU6
I0220 14:02:13.831496 22185 net.cpp:106] Creating Layer ReLU6
I0220 14:02:13.831501 22185 net.cpp:454] ReLU6 <- BatchNorm6
I0220 14:02:13.831507 22185 net.cpp:397] ReLU6 -> BatchNorm6 (in-place)
I0220 14:02:13.831516 22185 net.cpp:150] Setting up ReLU6
I0220 14:02:13.831521 22185 net.cpp:157] Top shape: 1 76 300 500 (11400000)
I0220 14:02:13.831526 22185 net.cpp:165] Memory required for data: 1071000028
I0220 14:02:13.831529 22185 layer_factory.hpp:77] Creating layer Convolution7
I0220 14:02:13.831540 22185 net.cpp:106] Creating Layer Convolution7
I0220 14:02:13.831545 22185 net.cpp:454] Convolution7 <- BatchNorm6
I0220 14:02:13.831554 22185 net.cpp:411] Convolution7 -> Convolution7
I0220 14:02:13.832058 22185 net.cpp:150] Setting up Convolution7
I0220 14:02:13.832072 22185 net.cpp:157] Top shape: 1 12 300 500 (1800000)
I0220 14:02:13.832075 22185 net.cpp:165] Memory required for data: 1078200028
I0220 14:02:13.832082 22185 layer_factory.hpp:77] Creating layer Dropout6
I0220 14:02:13.832089 22185 net.cpp:106] Creating Layer Dropout6
I0220 14:02:13.832093 22185 net.cpp:454] Dropout6 <- Convolution7
I0220 14:02:13.832100 22185 net.cpp:411] Dropout6 -> Dropout6
I0220 14:02:13.832152 22185 net.cpp:150] Setting up Dropout6
I0220 14:02:13.832161 22185 net.cpp:157] Top shape: 1 12 300 500 (1800000)
I0220 14:02:13.832166 22185 net.cpp:165] Memory required for data: 1085400028
I0220 14:02:13.832170 22185 layer_factory.hpp:77] Creating layer Concat6
I0220 14:02:13.832180 22185 net.cpp:106] Creating Layer Concat6
I0220 14:02:13.832185 22185 net.cpp:454] Concat6 <- Concat5_Concat5_0_split_1
I0220 14:02:13.832190 22185 net.cpp:454] Concat6 <- Dropout6
I0220 14:02:13.832195 22185 net.cpp:411] Concat6 -> Concat6
I0220 14:02:13.832228 22185 net.cpp:150] Setting up Concat6
I0220 14:02:13.832238 22185 net.cpp:157] Top shape: 1 88 300 500 (13200000)
I0220 14:02:13.832243 22185 net.cpp:165] Memory required for data: 1138200028
I0220 14:02:13.832247 22185 layer_factory.hpp:77] Creating layer Concat6_Concat6_0_split
I0220 14:02:13.832253 22185 net.cpp:106] Creating Layer Concat6_Concat6_0_split
I0220 14:02:13.832258 22185 net.cpp:454] Concat6_Concat6_0_split <- Concat6
I0220 14:02:13.832264 22185 net.cpp:411] Concat6_Concat6_0_split -> Concat6_Concat6_0_split_0
I0220 14:02:13.832271 22185 net.cpp:411] Concat6_Concat6_0_split -> Concat6_Concat6_0_split_1
I0220 14:02:13.832320 22185 net.cpp:150] Setting up Concat6_Concat6_0_split
I0220 14:02:13.832329 22185 net.cpp:157] Top shape: 1 88 300 500 (13200000)
I0220 14:02:13.832335 22185 net.cpp:157] Top shape: 1 88 300 500 (13200000)
I0220 14:02:13.832340 22185 net.cpp:165] Memory required for data: 1243800028
I0220 14:02:13.832343 22185 layer_factory.hpp:77] Creating layer BatchNorm7
I0220 14:02:13.832352 22185 net.cpp:106] Creating Layer BatchNorm7
I0220 14:02:13.832357 22185 net.cpp:454] BatchNorm7 <- Concat6_Concat6_0_split_0
I0220 14:02:13.832363 22185 net.cpp:411] BatchNorm7 -> BatchNorm7
I0220 14:02:13.833338 22185 net.cpp:150] Setting up BatchNorm7
I0220 14:02:13.833351 22185 net.cpp:157] Top shape: 1 88 300 500 (13200000)
I0220 14:02:13.833355 22185 net.cpp:165] Memory required for data: 1296600028
I0220 14:02:13.833365 22185 layer_factory.hpp:77] Creating layer Scale7
I0220 14:02:13.833374 22185 net.cpp:106] Creating Layer Scale7
I0220 14:02:13.833379 22185 net.cpp:454] Scale7 <- BatchNorm7
I0220 14:02:13.833386 22185 net.cpp:397] Scale7 -> BatchNorm7 (in-place)
I0220 14:02:13.833447 22185 layer_factory.hpp:77] Creating layer Scale7
I0220 14:02:13.834916 22185 net.cpp:150] Setting up Scale7
I0220 14:02:13.834931 22185 net.cpp:157] Top shape: 1 88 300 500 (13200000)
I0220 14:02:13.834936 22185 net.cpp:165] Memory required for data: 1349400028
I0220 14:02:13.834944 22185 layer_factory.hpp:77] Creating layer ReLU7
I0220 14:02:13.834951 22185 net.cpp:106] Creating Layer ReLU7
I0220 14:02:13.834956 22185 net.cpp:454] ReLU7 <- BatchNorm7
I0220 14:02:13.834962 22185 net.cpp:397] ReLU7 -> BatchNorm7 (in-place)
I0220 14:02:13.834970 22185 net.cpp:150] Setting up ReLU7
I0220 14:02:13.834976 22185 net.cpp:157] Top shape: 1 88 300 500 (13200000)
I0220 14:02:13.834980 22185 net.cpp:165] Memory required for data: 1402200028
I0220 14:02:13.834985 22185 layer_factory.hpp:77] Creating layer Convolution8
I0220 14:02:13.834996 22185 net.cpp:106] Creating Layer Convolution8
I0220 14:02:13.835000 22185 net.cpp:454] Convolution8 <- BatchNorm7
I0220 14:02:13.835007 22185 net.cpp:411] Convolution8 -> Convolution8
I0220 14:02:13.835577 22185 net.cpp:150] Setting up Convolution8
I0220 14:02:13.835588 22185 net.cpp:157] Top shape: 1 12 300 500 (1800000)
I0220 14:02:13.835592 22185 net.cpp:165] Memory required for data: 1409400028
I0220 14:02:13.835598 22185 layer_factory.hpp:77] Creating layer Dropout7
I0220 14:02:13.835607 22185 net.cpp:106] Creating Layer Dropout7
I0220 14:02:13.835611 22185 net.cpp:454] Dropout7 <- Convolution8
I0220 14:02:13.835619 22185 net.cpp:411] Dropout7 -> Dropout7
I0220 14:02:13.835675 22185 net.cpp:150] Setting up Dropout7
I0220 14:02:13.835685 22185 net.cpp:157] Top shape: 1 12 300 500 (1800000)
I0220 14:02:13.835688 22185 net.cpp:165] Memory required for data: 1416600028
I0220 14:02:13.835693 22185 layer_factory.hpp:77] Creating layer Concat7
I0220 14:02:13.835700 22185 net.cpp:106] Creating Layer Concat7
I0220 14:02:13.835705 22185 net.cpp:454] Concat7 <- Concat6_Concat6_0_split_1
I0220 14:02:13.835711 22185 net.cpp:454] Concat7 <- Dropout7
I0220 14:02:13.835716 22185 net.cpp:411] Concat7 -> Concat7
I0220 14:02:13.835752 22185 net.cpp:150] Setting up Concat7
I0220 14:02:13.835762 22185 net.cpp:157] Top shape: 1 100 300 500 (15000000)
I0220 14:02:13.835768 22185 net.cpp:165] Memory required for data: 1476600028
I0220 14:02:13.835773 22185 layer_factory.hpp:77] Creating layer Concat7_Concat7_0_split
I0220 14:02:13.835782 22185 net.cpp:106] Creating Layer Concat7_Concat7_0_split
I0220 14:02:13.835786 22185 net.cpp:454] Concat7_Concat7_0_split <- Concat7
I0220 14:02:13.835793 22185 net.cpp:411] Concat7_Concat7_0_split -> Concat7_Concat7_0_split_0
I0220 14:02:13.835803 22185 net.cpp:411] Concat7_Concat7_0_split -> Concat7_Concat7_0_split_1
I0220 14:02:13.835855 22185 net.cpp:150] Setting up Concat7_Concat7_0_split
I0220 14:02:13.835866 22185 net.cpp:157] Top shape: 1 100 300 500 (15000000)
I0220 14:02:13.835873 22185 net.cpp:157] Top shape: 1 100 300 500 (15000000)
I0220 14:02:13.835878 22185 net.cpp:165] Memory required for data: 1596600028
I0220 14:02:13.835883 22185 layer_factory.hpp:77] Creating layer BatchNorm8
I0220 14:02:13.835891 22185 net.cpp:106] Creating Layer BatchNorm8
I0220 14:02:13.835897 22185 net.cpp:454] BatchNorm8 <- Concat7_Concat7_0_split_0
I0220 14:02:13.835906 22185 net.cpp:411] BatchNorm8 -> BatchNorm8
I0220 14:02:13.837167 22185 net.cpp:150] Setting up BatchNorm8
I0220 14:02:13.837208 22185 net.cpp:157] Top shape: 1 100 300 500 (15000000)
I0220 14:02:13.837215 22185 net.cpp:165] Memory required for data: 1656600028
I0220 14:02:13.837234 22185 layer_factory.hpp:77] Creating layer Scale8
I0220 14:02:13.837252 22185 net.cpp:106] Creating Layer Scale8
I0220 14:02:13.837261 22185 net.cpp:454] Scale8 <- BatchNorm8
I0220 14:02:13.837272 22185 net.cpp:397] Scale8 -> BatchNorm8 (in-place)
I0220 14:02:13.837352 22185 layer_factory.hpp:77] Creating layer Scale8
I0220 14:02:13.839473 22185 net.cpp:150] Setting up Scale8
I0220 14:02:13.839493 22185 net.cpp:157] Top shape: 1 100 300 500 (15000000)
I0220 14:02:13.839498 22185 net.cpp:165] Memory required for data: 1716600028
I0220 14:02:13.839509 22185 layer_factory.hpp:77] Creating layer ReLU8
I0220 14:02:13.839519 22185 net.cpp:106] Creating Layer ReLU8
I0220 14:02:13.839524 22185 net.cpp:454] ReLU8 <- BatchNorm8
I0220 14:02:13.839534 22185 net.cpp:397] ReLU8 -> BatchNorm8 (in-place)
I0220 14:02:13.839543 22185 net.cpp:150] Setting up ReLU8
I0220 14:02:13.839550 22185 net.cpp:157] Top shape: 1 100 300 500 (15000000)
I0220 14:02:13.839555 22185 net.cpp:165] Memory required for data: 1776600028
I0220 14:02:13.839560 22185 layer_factory.hpp:77] Creating layer Convolution9
I0220 14:02:13.839579 22185 net.cpp:106] Creating Layer Convolution9
I0220 14:02:13.839586 22185 net.cpp:454] Convolution9 <- BatchNorm8
I0220 14:02:13.839596 22185 net.cpp:411] Convolution9 -> Convolution9
I0220 14:02:13.840226 22185 net.cpp:150] Setting up Convolution9
I0220 14:02:13.840240 22185 net.cpp:157] Top shape: 1 12 300 500 (1800000)
I0220 14:02:13.840245 22185 net.cpp:165] Memory required for data: 1783800028
I0220 14:02:13.840251 22185 layer_factory.hpp:77] Creating layer Dropout8
I0220 14:02:13.840260 22185 net.cpp:106] Creating Layer Dropout8
I0220 14:02:13.840266 22185 net.cpp:454] Dropout8 <- Convolution9
I0220 14:02:13.840276 22185 net.cpp:411] Dropout8 -> Dropout8
I0220 14:02:13.840335 22185 net.cpp:150] Setting up Dropout8
I0220 14:02:13.840348 22185 net.cpp:157] Top shape: 1 12 300 500 (1800000)
I0220 14:02:13.840353 22185 net.cpp:165] Memory required for data: 1791000028
I0220 14:02:13.840358 22185 layer_factory.hpp:77] Creating layer Concat8
I0220 14:02:13.840365 22185 net.cpp:106] Creating Layer Concat8
I0220 14:02:13.840373 22185 net.cpp:454] Concat8 <- Concat7_Concat7_0_split_1
I0220 14:02:13.840379 22185 net.cpp:454] Concat8 <- Dropout8
I0220 14:02:13.840389 22185 net.cpp:411] Concat8 -> Concat8
I0220 14:02:13.840427 22185 net.cpp:150] Setting up Concat8
I0220 14:02:13.840438 22185 net.cpp:157] Top shape: 1 112 300 500 (16800000)
I0220 14:02:13.840445 22185 net.cpp:165] Memory required for data: 1858200028
I0220 14:02:13.840450 22185 layer_factory.hpp:77] Creating layer BatchNorm9
I0220 14:02:13.840461 22185 net.cpp:106] Creating Layer BatchNorm9
I0220 14:02:13.840467 22185 net.cpp:454] BatchNorm9 <- Concat8
I0220 14:02:13.840476 22185 net.cpp:411] BatchNorm9 -> BatchNorm9
I0220 14:02:13.841481 22185 net.cpp:150] Setting up BatchNorm9
I0220 14:02:13.841497 22185 net.cpp:157] Top shape: 1 112 300 500 (16800000)
I0220 14:02:13.841502 22185 net.cpp:165] Memory required for data: 1925400028
I0220 14:02:13.841512 22185 layer_factory.hpp:77] Creating layer Scale9
I0220 14:02:13.841526 22185 net.cpp:106] Creating Layer Scale9
I0220 14:02:13.841531 22185 net.cpp:454] Scale9 <- BatchNorm9
I0220 14:02:13.841541 22185 net.cpp:397] Scale9 -> BatchNorm9 (in-place)
I0220 14:02:13.841604 22185 layer_factory.hpp:77] Creating layer Scale9
I0220 14:02:13.843137 22185 net.cpp:150] Setting up Scale9
I0220 14:02:13.843153 22185 net.cpp:157] Top shape: 1 112 300 500 (16800000)
I0220 14:02:13.843158 22185 net.cpp:165] Memory required for data: 1992600028
I0220 14:02:13.843168 22185 layer_factory.hpp:77] Creating layer ReLU9
I0220 14:02:13.843178 22185 net.cpp:106] Creating Layer ReLU9
I0220 14:02:13.843183 22185 net.cpp:454] ReLU9 <- BatchNorm9
I0220 14:02:13.843191 22185 net.cpp:397] ReLU9 -> BatchNorm9 (in-place)
I0220 14:02:13.843200 22185 net.cpp:150] Setting up ReLU9
I0220 14:02:13.843209 22185 net.cpp:157] Top shape: 1 112 300 500 (16800000)
I0220 14:02:13.843214 22185 net.cpp:165] Memory required for data: 2059800028
I0220 14:02:13.843219 22185 layer_factory.hpp:77] Creating layer Convolution10
I0220 14:02:13.843235 22185 net.cpp:106] Creating Layer Convolution10
I0220 14:02:13.843242 22185 net.cpp:454] Convolution10 <- BatchNorm9
I0220 14:02:13.843250 22185 net.cpp:411] Convolution10 -> Convolution10
I0220 14:02:13.843909 22185 net.cpp:150] Setting up Convolution10
I0220 14:02:13.843922 22185 net.cpp:157] Top shape: 1 112 300 500 (16800000)
I0220 14:02:13.843928 22185 net.cpp:165] Memory required for data: 2127000028
I0220 14:02:13.843935 22185 layer_factory.hpp:77] Creating layer Dropout9
I0220 14:02:13.843943 22185 net.cpp:106] Creating Layer Dropout9
I0220 14:02:13.843950 22185 net.cpp:454] Dropout9 <- Convolution10
I0220 14:02:13.843958 22185 net.cpp:411] Dropout9 -> Dropout9
I0220 14:02:13.844014 22185 net.cpp:150] Setting up Dropout9
I0220 14:02:13.844027 22185 net.cpp:157] Top shape: 1 112 300 500 (16800000)
I0220 14:02:13.844030 22185 net.cpp:165] Memory required for data: 2194200028
I0220 14:02:13.844035 22185 layer_factory.hpp:77] Creating layer Pooling1
I0220 14:02:13.844055 22185 net.cpp:106] Creating Layer Pooling1
I0220 14:02:13.844060 22185 net.cpp:454] Pooling1 <- Dropout9
I0220 14:02:13.844068 22185 net.cpp:411] Pooling1 -> Pooling1
I0220 14:02:13.844113 22185 net.cpp:150] Setting up Pooling1
I0220 14:02:13.844122 22185 net.cpp:157] Top shape: 1 112 150 250 (4200000)
I0220 14:02:13.844127 22185 net.cpp:165] Memory required for data: 2211000028
I0220 14:02:13.844132 22185 layer_factory.hpp:77] Creating layer Pooling1_Pooling1_0_split
I0220 14:02:13.844141 22185 net.cpp:106] Creating Layer Pooling1_Pooling1_0_split
I0220 14:02:13.844144 22185 net.cpp:454] Pooling1_Pooling1_0_split <- Pooling1
I0220 14:02:13.844151 22185 net.cpp:411] Pooling1_Pooling1_0_split -> Pooling1_Pooling1_0_split_0
I0220 14:02:13.844157 22185 net.cpp:411] Pooling1_Pooling1_0_split -> Pooling1_Pooling1_0_split_1
I0220 14:02:13.844210 22185 net.cpp:150] Setting up Pooling1_Pooling1_0_split
I0220 14:02:13.844221 22185 net.cpp:157] Top shape: 1 112 150 250 (4200000)
I0220 14:02:13.844226 22185 net.cpp:157] Top shape: 1 112 150 250 (4200000)
I0220 14:02:13.844231 22185 net.cpp:165] Memory required for data: 2244600028
I0220 14:02:13.844235 22185 layer_factory.hpp:77] Creating layer BatchNorm10
I0220 14:02:13.844243 22185 net.cpp:106] Creating Layer BatchNorm10
I0220 14:02:13.844247 22185 net.cpp:454] BatchNorm10 <- Pooling1_Pooling1_0_split_0
I0220 14:02:13.844255 22185 net.cpp:411] BatchNorm10 -> BatchNorm10
I0220 14:02:13.845162 22185 net.cpp:150] Setting up BatchNorm10
I0220 14:02:13.845175 22185 net.cpp:157] Top shape: 1 112 150 250 (4200000)
I0220 14:02:13.845180 22185 net.cpp:165] Memory required for data: 2261400028
I0220 14:02:13.845190 22185 layer_factory.hpp:77] Creating layer Scale10
I0220 14:02:13.845197 22185 net.cpp:106] Creating Layer Scale10
I0220 14:02:13.845202 22185 net.cpp:454] Scale10 <- BatchNorm10
I0220 14:02:13.845211 22185 net.cpp:397] Scale10 -> BatchNorm10 (in-place)
I0220 14:02:13.845273 22185 layer_factory.hpp:77] Creating layer Scale10
I0220 14:02:13.845492 22185 net.cpp:150] Setting up Scale10
I0220 14:02:13.845504 22185 net.cpp:157] Top shape: 1 112 150 250 (4200000)
I0220 14:02:13.845508 22185 net.cpp:165] Memory required for data: 2278200028
I0220 14:02:13.845515 22185 layer_factory.hpp:77] Creating layer ReLU10
I0220 14:02:13.845525 22185 net.cpp:106] Creating Layer ReLU10
I0220 14:02:13.845530 22185 net.cpp:454] ReLU10 <- BatchNorm10
I0220 14:02:13.845536 22185 net.cpp:397] ReLU10 -> BatchNorm10 (in-place)
I0220 14:02:13.845543 22185 net.cpp:150] Setting up ReLU10
I0220 14:02:13.845549 22185 net.cpp:157] Top shape: 1 112 150 250 (4200000)
I0220 14:02:13.845553 22185 net.cpp:165] Memory required for data: 2295000028
I0220 14:02:13.845557 22185 layer_factory.hpp:77] Creating layer Convolution11
I0220 14:02:13.845566 22185 net.cpp:106] Creating Layer Convolution11
I0220 14:02:13.845571 22185 net.cpp:454] Convolution11 <- BatchNorm10
I0220 14:02:13.845580 22185 net.cpp:411] Convolution11 -> Convolution11
I0220 14:02:13.846206 22185 net.cpp:150] Setting up Convolution11
I0220 14:02:13.846217 22185 net.cpp:157] Top shape: 1 12 150 250 (450000)
I0220 14:02:13.846222 22185 net.cpp:165] Memory required for data: 2296800028
I0220 14:02:13.846230 22185 layer_factory.hpp:77] Creating layer Dropout10
I0220 14:02:13.846238 22185 net.cpp:106] Creating Layer Dropout10
I0220 14:02:13.846243 22185 net.cpp:454] Dropout10 <- Convolution11
I0220 14:02:13.846252 22185 net.cpp:411] Dropout10 -> Dropout10
I0220 14:02:13.846308 22185 net.cpp:150] Setting up Dropout10
I0220 14:02:13.846318 22185 net.cpp:157] Top shape: 1 12 150 250 (450000)
I0220 14:02:13.846323 22185 net.cpp:165] Memory required for data: 2298600028
I0220 14:02:13.846326 22185 layer_factory.hpp:77] Creating layer Concat9
I0220 14:02:13.846335 22185 net.cpp:106] Creating Layer Concat9
I0220 14:02:13.846340 22185 net.cpp:454] Concat9 <- Pooling1_Pooling1_0_split_1
I0220 14:02:13.846346 22185 net.cpp:454] Concat9 <- Dropout10
I0220 14:02:13.846352 22185 net.cpp:411] Concat9 -> Concat9
I0220 14:02:13.846387 22185 net.cpp:150] Setting up Concat9
I0220 14:02:13.846396 22185 net.cpp:157] Top shape: 1 124 150 250 (4650000)
I0220 14:02:13.846400 22185 net.cpp:165] Memory required for data: 2317200028
I0220 14:02:13.846405 22185 layer_factory.hpp:77] Creating layer Concat9_Concat9_0_split
I0220 14:02:13.846415 22185 net.cpp:106] Creating Layer Concat9_Concat9_0_split
I0220 14:02:13.846421 22185 net.cpp:454] Concat9_Concat9_0_split <- Concat9
I0220 14:02:13.846427 22185 net.cpp:411] Concat9_Concat9_0_split -> Concat9_Concat9_0_split_0
I0220 14:02:13.846443 22185 net.cpp:411] Concat9_Concat9_0_split -> Concat9_Concat9_0_split_1
I0220 14:02:13.846496 22185 net.cpp:150] Setting up Concat9_Concat9_0_split
I0220 14:02:13.846508 22185 net.cpp:157] Top shape: 1 124 150 250 (4650000)
I0220 14:02:13.846514 22185 net.cpp:157] Top shape: 1 124 150 250 (4650000)
I0220 14:02:13.846518 22185 net.cpp:165] Memory required for data: 2354400028
I0220 14:02:13.846523 22185 layer_factory.hpp:77] Creating layer BatchNorm11
I0220 14:02:13.846529 22185 net.cpp:106] Creating Layer BatchNorm11
I0220 14:02:13.846534 22185 net.cpp:454] BatchNorm11 <- Concat9_Concat9_0_split_0
I0220 14:02:13.846544 22185 net.cpp:411] BatchNorm11 -> BatchNorm11
I0220 14:02:13.846866 22185 net.cpp:150] Setting up BatchNorm11
I0220 14:02:13.846876 22185 net.cpp:157] Top shape: 1 124 150 250 (4650000)
I0220 14:02:13.846881 22185 net.cpp:165] Memory required for data: 2373000028
I0220 14:02:13.846889 22185 layer_factory.hpp:77] Creating layer Scale11
I0220 14:02:13.846900 22185 net.cpp:106] Creating Layer Scale11
I0220 14:02:13.846905 22185 net.cpp:454] Scale11 <- BatchNorm11
I0220 14:02:13.846913 22185 net.cpp:397] Scale11 -> BatchNorm11 (in-place)
I0220 14:02:13.846972 22185 layer_factory.hpp:77] Creating layer Scale11
I0220 14:02:13.847198 22185 net.cpp:150] Setting up Scale11
I0220 14:02:13.847209 22185 net.cpp:157] Top shape: 1 124 150 250 (4650000)
I0220 14:02:13.847214 22185 net.cpp:165] Memory required for data: 2391600028
I0220 14:02:13.847234 22185 layer_factory.hpp:77] Creating layer ReLU11
I0220 14:02:13.847244 22185 net.cpp:106] Creating Layer ReLU11
I0220 14:02:13.847249 22185 net.cpp:454] ReLU11 <- BatchNorm11
I0220 14:02:13.847254 22185 net.cpp:397] ReLU11 -> BatchNorm11 (in-place)
I0220 14:02:13.847261 22185 net.cpp:150] Setting up ReLU11
I0220 14:02:13.847267 22185 net.cpp:157] Top shape: 1 124 150 250 (4650000)
I0220 14:02:13.847271 22185 net.cpp:165] Memory required for data: 2410200028
I0220 14:02:13.847275 22185 layer_factory.hpp:77] Creating layer Convolution12
I0220 14:02:13.847285 22185 net.cpp:106] Creating Layer Convolution12
I0220 14:02:13.847290 22185 net.cpp:454] Convolution12 <- BatchNorm11
I0220 14:02:13.847299 22185 net.cpp:411] Convolution12 -> Convolution12
I0220 14:02:13.847976 22185 net.cpp:150] Setting up Convolution12
I0220 14:02:13.847990 22185 net.cpp:157] Top shape: 1 12 150 250 (450000)
I0220 14:02:13.847993 22185 net.cpp:165] Memory required for data: 2412000028
I0220 14:02:13.848001 22185 layer_factory.hpp:77] Creating layer Dropout11
I0220 14:02:13.848008 22185 net.cpp:106] Creating Layer Dropout11
I0220 14:02:13.848012 22185 net.cpp:454] Dropout11 <- Convolution12
I0220 14:02:13.848018 22185 net.cpp:411] Dropout11 -> Dropout11
I0220 14:02:13.848078 22185 net.cpp:150] Setting up Dropout11
I0220 14:02:13.848088 22185 net.cpp:157] Top shape: 1 12 150 250 (450000)
I0220 14:02:13.848093 22185 net.cpp:165] Memory required for data: 2413800028
I0220 14:02:13.848096 22185 layer_factory.hpp:77] Creating layer Concat10
I0220 14:02:13.848105 22185 net.cpp:106] Creating Layer Concat10
I0220 14:02:13.848110 22185 net.cpp:454] Concat10 <- Concat9_Concat9_0_split_1
I0220 14:02:13.848116 22185 net.cpp:454] Concat10 <- Dropout11
I0220 14:02:13.848122 22185 net.cpp:411] Concat10 -> Concat10
I0220 14:02:13.848157 22185 net.cpp:150] Setting up Concat10
I0220 14:02:13.848170 22185 net.cpp:157] Top shape: 1 136 150 250 (5100000)
I0220 14:02:13.848175 22185 net.cpp:165] Memory required for data: 2434200028
I0220 14:02:13.848179 22185 layer_factory.hpp:77] Creating layer Concat10_Concat10_0_split
I0220 14:02:13.848186 22185 net.cpp:106] Creating Layer Concat10_Concat10_0_split
I0220 14:02:13.848191 22185 net.cpp:454] Concat10_Concat10_0_split <- Concat10
I0220 14:02:13.848196 22185 net.cpp:411] Concat10_Concat10_0_split -> Concat10_Concat10_0_split_0
I0220 14:02:13.848203 22185 net.cpp:411] Concat10_Concat10_0_split -> Concat10_Concat10_0_split_1
I0220 14:02:13.848256 22185 net.cpp:150] Setting up Concat10_Concat10_0_split
I0220 14:02:13.848265 22185 net.cpp:157] Top shape: 1 136 150 250 (5100000)
I0220 14:02:13.848270 22185 net.cpp:157] Top shape: 1 136 150 250 (5100000)
I0220 14:02:13.848274 22185 net.cpp:165] Memory required for data: 2475000028
I0220 14:02:13.848279 22185 layer_factory.hpp:77] Creating layer BatchNorm12
I0220 14:02:13.848289 22185 net.cpp:106] Creating Layer BatchNorm12
I0220 14:02:13.848294 22185 net.cpp:454] BatchNorm12 <- Concat10_Concat10_0_split_0
I0220 14:02:13.848299 22185 net.cpp:411] BatchNorm12 -> BatchNorm12
I0220 14:02:13.849198 22185 net.cpp:150] Setting up BatchNorm12
I0220 14:02:13.849211 22185 net.cpp:157] Top shape: 1 136 150 250 (5100000)
I0220 14:02:13.849215 22185 net.cpp:165] Memory required for data: 2495400028
I0220 14:02:13.849225 22185 layer_factory.hpp:77] Creating layer Scale12
I0220 14:02:13.849233 22185 net.cpp:106] Creating Layer Scale12
I0220 14:02:13.849238 22185 net.cpp:454] Scale12 <- BatchNorm12
I0220 14:02:13.849247 22185 net.cpp:397] Scale12 -> BatchNorm12 (in-place)
I0220 14:02:13.849310 22185 layer_factory.hpp:77] Creating layer Scale12
I0220 14:02:13.849531 22185 net.cpp:150] Setting up Scale12
I0220 14:02:13.849542 22185 net.cpp:157] Top shape: 1 136 150 250 (5100000)
I0220 14:02:13.849547 22185 net.cpp:165] Memory required for data: 2515800028
I0220 14:02:13.849555 22185 layer_factory.hpp:77] Creating layer ReLU12
I0220 14:02:13.849565 22185 net.cpp:106] Creating Layer ReLU12
I0220 14:02:13.849570 22185 net.cpp:454] ReLU12 <- BatchNorm12
I0220 14:02:13.849575 22185 net.cpp:397] ReLU12 -> BatchNorm12 (in-place)
I0220 14:02:13.849582 22185 net.cpp:150] Setting up ReLU12
I0220 14:02:13.849588 22185 net.cpp:157] Top shape: 1 136 150 250 (5100000)
I0220 14:02:13.849592 22185 net.cpp:165] Memory required for data: 2536200028
I0220 14:02:13.849596 22185 layer_factory.hpp:77] Creating layer Convolution13
I0220 14:02:13.849606 22185 net.cpp:106] Creating Layer Convolution13
I0220 14:02:13.849611 22185 net.cpp:454] Convolution13 <- BatchNorm12
I0220 14:02:13.849617 22185 net.cpp:411] Convolution13 -> Convolution13
I0220 14:02:13.850361 22185 net.cpp:150] Setting up Convolution13
I0220 14:02:13.850373 22185 net.cpp:157] Top shape: 1 12 150 250 (450000)
I0220 14:02:13.850378 22185 net.cpp:165] Memory required for data: 2538000028
I0220 14:02:13.850383 22185 layer_factory.hpp:77] Creating layer Dropout12
I0220 14:02:13.850390 22185 net.cpp:106] Creating Layer Dropout12
I0220 14:02:13.850395 22185 net.cpp:454] Dropout12 <- Convolution13
I0220 14:02:13.850404 22185 net.cpp:411] Dropout12 -> Dropout12
I0220 14:02:13.850462 22185 net.cpp:150] Setting up Dropout12
I0220 14:02:13.850473 22185 net.cpp:157] Top shape: 1 12 150 250 (450000)
I0220 14:02:13.850478 22185 net.cpp:165] Memory required for data: 2539800028
I0220 14:02:13.850483 22185 layer_factory.hpp:77] Creating layer Concat11
I0220 14:02:13.850489 22185 net.cpp:106] Creating Layer Concat11
I0220 14:02:13.850494 22185 net.cpp:454] Concat11 <- Concat10_Concat10_0_split_1
I0220 14:02:13.850500 22185 net.cpp:454] Concat11 <- Dropout12
I0220 14:02:13.850508 22185 net.cpp:411] Concat11 -> Concat11
I0220 14:02:13.850544 22185 net.cpp:150] Setting up Concat11
I0220 14:02:13.850553 22185 net.cpp:157] Top shape: 1 148 150 250 (5550000)
I0220 14:02:13.850558 22185 net.cpp:165] Memory required for data: 2562000028
I0220 14:02:13.850563 22185 layer_factory.hpp:77] Creating layer Concat11_Concat11_0_split
I0220 14:02:13.850569 22185 net.cpp:106] Creating Layer Concat11_Concat11_0_split
I0220 14:02:13.850574 22185 net.cpp:454] Concat11_Concat11_0_split <- Concat11
I0220 14:02:13.850582 22185 net.cpp:411] Concat11_Concat11_0_split -> Concat11_Concat11_0_split_0
I0220 14:02:13.850589 22185 net.cpp:411] Concat11_Concat11_0_split -> Concat11_Concat11_0_split_1
I0220 14:02:13.850643 22185 net.cpp:150] Setting up Concat11_Concat11_0_split
I0220 14:02:13.850652 22185 net.cpp:157] Top shape: 1 148 150 250 (5550000)
I0220 14:02:13.850657 22185 net.cpp:157] Top shape: 1 148 150 250 (5550000)
I0220 14:02:13.850662 22185 net.cpp:165] Memory required for data: 2606400028
I0220 14:02:13.850666 22185 layer_factory.hpp:77] Creating layer BatchNorm13
I0220 14:02:13.850675 22185 net.cpp:106] Creating Layer BatchNorm13
I0220 14:02:13.850680 22185 net.cpp:454] BatchNorm13 <- Concat11_Concat11_0_split_0
I0220 14:02:13.850687 22185 net.cpp:411] BatchNorm13 -> BatchNorm13
I0220 14:02:13.851014 22185 net.cpp:150] Setting up BatchNorm13
I0220 14:02:13.851025 22185 net.cpp:157] Top shape: 1 148 150 250 (5550000)
I0220 14:02:13.851029 22185 net.cpp:165] Memory required for data: 2628600028
I0220 14:02:13.851047 22185 layer_factory.hpp:77] Creating layer Scale13
I0220 14:02:13.851055 22185 net.cpp:106] Creating Layer Scale13
I0220 14:02:13.851060 22185 net.cpp:454] Scale13 <- BatchNorm13
I0220 14:02:13.851069 22185 net.cpp:397] Scale13 -> BatchNorm13 (in-place)
I0220 14:02:13.851131 22185 layer_factory.hpp:77] Creating layer Scale13
I0220 14:02:13.851351 22185 net.cpp:150] Setting up Scale13
I0220 14:02:13.851362 22185 net.cpp:157] Top shape: 1 148 150 250 (5550000)
I0220 14:02:13.851366 22185 net.cpp:165] Memory required for data: 2650800028
I0220 14:02:13.851374 22185 layer_factory.hpp:77] Creating layer ReLU13
I0220 14:02:13.851383 22185 net.cpp:106] Creating Layer ReLU13
I0220 14:02:13.851388 22185 net.cpp:454] ReLU13 <- BatchNorm13
I0220 14:02:13.851394 22185 net.cpp:397] ReLU13 -> BatchNorm13 (in-place)
I0220 14:02:13.851402 22185 net.cpp:150] Setting up ReLU13
I0220 14:02:13.851408 22185 net.cpp:157] Top shape: 1 148 150 250 (5550000)
I0220 14:02:13.851411 22185 net.cpp:165] Memory required for data: 2673000028
I0220 14:02:13.851415 22185 layer_factory.hpp:77] Creating layer Convolution14
I0220 14:02:13.851425 22185 net.cpp:106] Creating Layer Convolution14
I0220 14:02:13.851429 22185 net.cpp:454] Convolution14 <- BatchNorm13
I0220 14:02:13.851438 22185 net.cpp:411] Convolution14 -> Convolution14
I0220 14:02:13.852197 22185 net.cpp:150] Setting up Convolution14
I0220 14:02:13.852208 22185 net.cpp:157] Top shape: 1 12 150 250 (450000)
I0220 14:02:13.852212 22185 net.cpp:165] Memory required for data: 2674800028
I0220 14:02:13.852219 22185 layer_factory.hpp:77] Creating layer Dropout13
I0220 14:02:13.852229 22185 net.cpp:106] Creating Layer Dropout13
I0220 14:02:13.852234 22185 net.cpp:454] Dropout13 <- Convolution14
I0220 14:02:13.852241 22185 net.cpp:411] Dropout13 -> Dropout13
I0220 14:02:13.852298 22185 net.cpp:150] Setting up Dropout13
I0220 14:02:13.852308 22185 net.cpp:157] Top shape: 1 12 150 250 (450000)
I0220 14:02:13.852313 22185 net.cpp:165] Memory required for data: 2676600028
I0220 14:02:13.852318 22185 layer_factory.hpp:77] Creating layer Concat12
I0220 14:02:13.852324 22185 net.cpp:106] Creating Layer Concat12
I0220 14:02:13.852329 22185 net.cpp:454] Concat12 <- Concat11_Concat11_0_split_1
I0220 14:02:13.852335 22185 net.cpp:454] Concat12 <- Dropout13
I0220 14:02:13.852342 22185 net.cpp:411] Concat12 -> Concat12
I0220 14:02:13.852378 22185 net.cpp:150] Setting up Concat12
I0220 14:02:13.852387 22185 net.cpp:157] Top shape: 1 160 150 250 (6000000)
I0220 14:02:13.852391 22185 net.cpp:165] Memory required for data: 2700600028
I0220 14:02:13.852396 22185 layer_factory.hpp:77] Creating layer Concat12_Concat12_0_split
I0220 14:02:13.852402 22185 net.cpp:106] Creating Layer Concat12_Concat12_0_split
I0220 14:02:13.852411 22185 net.cpp:454] Concat12_Concat12_0_split <- Concat12
I0220 14:02:13.852416 22185 net.cpp:411] Concat12_Concat12_0_split -> Concat12_Concat12_0_split_0
I0220 14:02:13.852424 22185 net.cpp:411] Concat12_Concat12_0_split -> Concat12_Concat12_0_split_1
I0220 14:02:13.852480 22185 net.cpp:150] Setting up Concat12_Concat12_0_split
I0220 14:02:13.852489 22185 net.cpp:157] Top shape: 1 160 150 250 (6000000)
I0220 14:02:13.852495 22185 net.cpp:157] Top shape: 1 160 150 250 (6000000)
I0220 14:02:13.852499 22185 net.cpp:165] Memory required for data: 2748600028
I0220 14:02:13.852504 22185 layer_factory.hpp:77] Creating layer BatchNorm14
I0220 14:02:13.852514 22185 net.cpp:106] Creating Layer BatchNorm14
I0220 14:02:13.852519 22185 net.cpp:454] BatchNorm14 <- Concat12_Concat12_0_split_0
I0220 14:02:13.852524 22185 net.cpp:411] BatchNorm14 -> BatchNorm14
I0220 14:02:13.853639 22185 net.cpp:150] Setting up BatchNorm14
I0220 14:02:13.853658 22185 net.cpp:157] Top shape: 1 160 150 250 (6000000)
I0220 14:02:13.853663 22185 net.cpp:165] Memory required for data: 2772600028
I0220 14:02:13.853677 22185 layer_factory.hpp:77] Creating layer Scale14
I0220 14:02:13.853685 22185 net.cpp:106] Creating Layer Scale14
I0220 14:02:13.853693 22185 net.cpp:454] Scale14 <- BatchNorm14
I0220 14:02:13.853698 22185 net.cpp:397] Scale14 -> BatchNorm14 (in-place)
I0220 14:02:13.853765 22185 layer_factory.hpp:77] Creating layer Scale14
I0220 14:02:13.854035 22185 net.cpp:150] Setting up Scale14
I0220 14:02:13.854046 22185 net.cpp:157] Top shape: 1 160 150 250 (6000000)
I0220 14:02:13.854051 22185 net.cpp:165] Memory required for data: 2796600028
I0220 14:02:13.854058 22185 layer_factory.hpp:77] Creating layer ReLU14
I0220 14:02:13.854066 22185 net.cpp:106] Creating Layer ReLU14
I0220 14:02:13.854071 22185 net.cpp:454] ReLU14 <- BatchNorm14
I0220 14:02:13.854079 22185 net.cpp:397] ReLU14 -> BatchNorm14 (in-place)
I0220 14:02:13.854086 22185 net.cpp:150] Setting up ReLU14
I0220 14:02:13.854092 22185 net.cpp:157] Top shape: 1 160 150 250 (6000000)
I0220 14:02:13.854096 22185 net.cpp:165] Memory required for data: 2820600028
I0220 14:02:13.854101 22185 layer_factory.hpp:77] Creating layer Convolution15
I0220 14:02:13.854110 22185 net.cpp:106] Creating Layer Convolution15
I0220 14:02:13.854115 22185 net.cpp:454] Convolution15 <- BatchNorm14
I0220 14:02:13.854122 22185 net.cpp:411] Convolution15 -> Convolution15
I0220 14:02:13.854940 22185 net.cpp:150] Setting up Convolution15
I0220 14:02:13.854951 22185 net.cpp:157] Top shape: 1 12 150 250 (450000)
I0220 14:02:13.854956 22185 net.cpp:165] Memory required for data: 2822400028
I0220 14:02:13.854962 22185 layer_factory.hpp:77] Creating layer Dropout14
I0220 14:02:13.854972 22185 net.cpp:106] Creating Layer Dropout14
I0220 14:02:13.854979 22185 net.cpp:454] Dropout14 <- Convolution15
I0220 14:02:13.854985 22185 net.cpp:411] Dropout14 -> Dropout14
I0220 14:02:13.855072 22185 net.cpp:150] Setting up Dropout14
I0220 14:02:13.855082 22185 net.cpp:157] Top shape: 1 12 150 250 (450000)
I0220 14:02:13.855087 22185 net.cpp:165] Memory required for data: 2824200028
I0220 14:02:13.855093 22185 layer_factory.hpp:77] Creating layer Concat13
I0220 14:02:13.855101 22185 net.cpp:106] Creating Layer Concat13
I0220 14:02:13.855106 22185 net.cpp:454] Concat13 <- Concat12_Concat12_0_split_1
I0220 14:02:13.855113 22185 net.cpp:454] Concat13 <- Dropout14
I0220 14:02:13.855118 22185 net.cpp:411] Concat13 -> Concat13
I0220 14:02:13.855156 22185 net.cpp:150] Setting up Concat13
I0220 14:02:13.855165 22185 net.cpp:157] Top shape: 1 172 150 250 (6450000)
I0220 14:02:13.855170 22185 net.cpp:165] Memory required for data: 2850000028
I0220 14:02:13.855175 22185 layer_factory.hpp:77] Creating layer Concat13_Concat13_0_split
I0220 14:02:13.855182 22185 net.cpp:106] Creating Layer Concat13_Concat13_0_split
I0220 14:02:13.855187 22185 net.cpp:454] Concat13_Concat13_0_split <- Concat13
I0220 14:02:13.855193 22185 net.cpp:411] Concat13_Concat13_0_split -> Concat13_Concat13_0_split_0
I0220 14:02:13.855202 22185 net.cpp:411] Concat13_Concat13_0_split -> Concat13_Concat13_0_split_1
I0220 14:02:13.855257 22185 net.cpp:150] Setting up Concat13_Concat13_0_split
I0220 14:02:13.855267 22185 net.cpp:157] Top shape: 1 172 150 250 (6450000)
I0220 14:02:13.855271 22185 net.cpp:157] Top shape: 1 172 150 250 (6450000)
I0220 14:02:13.855276 22185 net.cpp:165] Memory required for data: 2901600028
I0220 14:02:13.855280 22185 layer_factory.hpp:77] Creating layer BatchNorm15
I0220 14:02:13.855289 22185 net.cpp:106] Creating Layer BatchNorm15
I0220 14:02:13.855294 22185 net.cpp:454] BatchNorm15 <- Concat13_Concat13_0_split_0
I0220 14:02:13.855303 22185 net.cpp:411] BatchNorm15 -> BatchNorm15
I0220 14:02:13.855633 22185 net.cpp:150] Setting up BatchNorm15
I0220 14:02:13.855643 22185 net.cpp:157] Top shape: 1 172 150 250 (6450000)
I0220 14:02:13.855648 22185 net.cpp:165] Memory required for data: 2927400028
I0220 14:02:13.855655 22185 layer_factory.hpp:77] Creating layer Scale15
I0220 14:02:13.855665 22185 net.cpp:106] Creating Layer Scale15
I0220 14:02:13.855670 22185 net.cpp:454] Scale15 <- BatchNorm15
I0220 14:02:13.855677 22185 net.cpp:397] Scale15 -> BatchNorm15 (in-place)
I0220 14:02:13.855736 22185 layer_factory.hpp:77] Creating layer Scale15
I0220 14:02:13.856005 22185 net.cpp:150] Setting up Scale15
I0220 14:02:13.856016 22185 net.cpp:157] Top shape: 1 172 150 250 (6450000)
I0220 14:02:13.856020 22185 net.cpp:165] Memory required for data: 2953200028
I0220 14:02:13.856029 22185 layer_factory.hpp:77] Creating layer ReLU15
I0220 14:02:13.856035 22185 net.cpp:106] Creating Layer ReLU15
I0220 14:02:13.856040 22185 net.cpp:454] ReLU15 <- BatchNorm15
I0220 14:02:13.856045 22185 net.cpp:397] ReLU15 -> BatchNorm15 (in-place)
I0220 14:02:13.856052 22185 net.cpp:150] Setting up ReLU15
I0220 14:02:13.856058 22185 net.cpp:157] Top shape: 1 172 150 250 (6450000)
I0220 14:02:13.856062 22185 net.cpp:165] Memory required for data: 2979000028
I0220 14:02:13.856066 22185 layer_factory.hpp:77] Creating layer Convolution16
I0220 14:02:13.856077 22185 net.cpp:106] Creating Layer Convolution16
I0220 14:02:13.856082 22185 net.cpp:454] Convolution16 <- BatchNorm15
I0220 14:02:13.856089 22185 net.cpp:411] Convolution16 -> Convolution16
I0220 14:02:13.856927 22185 net.cpp:150] Setting up Convolution16
I0220 14:02:13.856938 22185 net.cpp:157] Top shape: 1 12 150 250 (450000)
I0220 14:02:13.856942 22185 net.cpp:165] Memory required for data: 2980800028
I0220 14:02:13.856948 22185 layer_factory.hpp:77] Creating layer Dropout15
I0220 14:02:13.856956 22185 net.cpp:106] Creating Layer Dropout15
I0220 14:02:13.856961 22185 net.cpp:454] Dropout15 <- Convolution16
I0220 14:02:13.856969 22185 net.cpp:411] Dropout15 -> Dropout15
I0220 14:02:13.857028 22185 net.cpp:150] Setting up Dropout15
I0220 14:02:13.857038 22185 net.cpp:157] Top shape: 1 12 150 250 (450000)
I0220 14:02:13.857043 22185 net.cpp:165] Memory required for data: 2982600028
I0220 14:02:13.857048 22185 layer_factory.hpp:77] Creating layer Concat14
I0220 14:02:13.857053 22185 net.cpp:106] Creating Layer Concat14
I0220 14:02:13.857059 22185 net.cpp:454] Concat14 <- Concat13_Concat13_0_split_1
I0220 14:02:13.857064 22185 net.cpp:454] Concat14 <- Dropout15
I0220 14:02:13.857072 22185 net.cpp:411] Concat14 -> Concat14
I0220 14:02:13.857110 22185 net.cpp:150] Setting up Concat14
I0220 14:02:13.857118 22185 net.cpp:157] Top shape: 1 184 150 250 (6900000)
I0220 14:02:13.857122 22185 net.cpp:165] Memory required for data: 3010200028
I0220 14:02:13.857126 22185 layer_factory.hpp:77] Creating layer Concat14_Concat14_0_split
I0220 14:02:13.857133 22185 net.cpp:106] Creating Layer Concat14_Concat14_0_split
I0220 14:02:13.857137 22185 net.cpp:454] Concat14_Concat14_0_split <- Concat14
I0220 14:02:13.857146 22185 net.cpp:411] Concat14_Concat14_0_split -> Concat14_Concat14_0_split_0
I0220 14:02:13.857153 22185 net.cpp:411] Concat14_Concat14_0_split -> Concat14_Concat14_0_split_1
I0220 14:02:13.857208 22185 net.cpp:150] Setting up Concat14_Concat14_0_split
I0220 14:02:13.857218 22185 net.cpp:157] Top shape: 1 184 150 250 (6900000)
I0220 14:02:13.857223 22185 net.cpp:157] Top shape: 1 184 150 250 (6900000)
I0220 14:02:13.857228 22185 net.cpp:165] Memory required for data: 3065400028
I0220 14:02:13.857233 22185 layer_factory.hpp:77] Creating layer BatchNorm16
I0220 14:02:13.857241 22185 net.cpp:106] Creating Layer BatchNorm16
I0220 14:02:13.857246 22185 net.cpp:454] BatchNorm16 <- Concat14_Concat14_0_split_0
I0220 14:02:13.857252 22185 net.cpp:411] BatchNorm16 -> BatchNorm16
I0220 14:02:13.858537 22185 net.cpp:150] Setting up BatchNorm16
I0220 14:02:13.858551 22185 net.cpp:157] Top shape: 1 184 150 250 (6900000)
I0220 14:02:13.858554 22185 net.cpp:165] Memory required for data: 3093000028
I0220 14:02:13.858564 22185 layer_factory.hpp:77] Creating layer Scale16
I0220 14:02:13.858574 22185 net.cpp:106] Creating Layer Scale16
I0220 14:02:13.858580 22185 net.cpp:454] Scale16 <- BatchNorm16
I0220 14:02:13.858588 22185 net.cpp:397] Scale16 -> BatchNorm16 (in-place)
I0220 14:02:13.858649 22185 layer_factory.hpp:77] Creating layer Scale16
I0220 14:02:13.858876 22185 net.cpp:150] Setting up Scale16
I0220 14:02:13.858887 22185 net.cpp:157] Top shape: 1 184 150 250 (6900000)
I0220 14:02:13.858891 22185 net.cpp:165] Memory required for data: 3120600028
I0220 14:02:13.858899 22185 layer_factory.hpp:77] Creating layer ReLU16
I0220 14:02:13.858906 22185 net.cpp:106] Creating Layer ReLU16
I0220 14:02:13.858911 22185 net.cpp:454] ReLU16 <- BatchNorm16
I0220 14:02:13.858916 22185 net.cpp:397] ReLU16 -> BatchNorm16 (in-place)
I0220 14:02:13.858923 22185 net.cpp:150] Setting up ReLU16
I0220 14:02:13.858929 22185 net.cpp:157] Top shape: 1 184 150 250 (6900000)
I0220 14:02:13.858933 22185 net.cpp:165] Memory required for data: 3148200028
I0220 14:02:13.858937 22185 layer_factory.hpp:77] Creating layer Convolution17
I0220 14:02:13.858949 22185 net.cpp:106] Creating Layer Convolution17
I0220 14:02:13.858954 22185 net.cpp:454] Convolution17 <- BatchNorm16
I0220 14:02:13.858960 22185 net.cpp:411] Convolution17 -> Convolution17
I0220 14:02:13.859851 22185 net.cpp:150] Setting up Convolution17
I0220 14:02:13.859863 22185 net.cpp:157] Top shape: 1 12 150 250 (450000)
I0220 14:02:13.859868 22185 net.cpp:165] Memory required for data: 3150000028
I0220 14:02:13.859874 22185 layer_factory.hpp:77] Creating layer Dropout16
I0220 14:02:13.859881 22185 net.cpp:106] Creating Layer Dropout16
I0220 14:02:13.859886 22185 net.cpp:454] Dropout16 <- Convolution17
I0220 14:02:13.859892 22185 net.cpp:411] Dropout16 -> Dropout16
I0220 14:02:13.859953 22185 net.cpp:150] Setting up Dropout16
I0220 14:02:13.859966 22185 net.cpp:157] Top shape: 1 12 150 250 (450000)
I0220 14:02:13.859969 22185 net.cpp:165] Memory required for data: 3151800028
I0220 14:02:13.859974 22185 layer_factory.hpp:77] Creating layer Concat15
I0220 14:02:13.859980 22185 net.cpp:106] Creating Layer Concat15
I0220 14:02:13.859985 22185 net.cpp:454] Concat15 <- Concat14_Concat14_0_split_1
I0220 14:02:13.859992 22185 net.cpp:454] Concat15 <- Dropout16
I0220 14:02:13.859997 22185 net.cpp:411] Concat15 -> Concat15
I0220 14:02:13.860035 22185 net.cpp:150] Setting up Concat15
I0220 14:02:13.860044 22185 net.cpp:157] Top shape: 1 196 150 250 (7350000)
I0220 14:02:13.860049 22185 net.cpp:165] Memory required for data: 3181200028
I0220 14:02:13.860054 22185 layer_factory.hpp:77] Creating layer Concat15_Concat15_0_split
I0220 14:02:13.860060 22185 net.cpp:106] Creating Layer Concat15_Concat15_0_split
I0220 14:02:13.860064 22185 net.cpp:454] Concat15_Concat15_0_split <- Concat15
I0220 14:02:13.860070 22185 net.cpp:411] Concat15_Concat15_0_split -> Concat15_Concat15_0_split_0
I0220 14:02:13.860080 22185 net.cpp:411] Concat15_Concat15_0_split -> Concat15_Concat15_0_split_1
I0220 14:02:13.860133 22185 net.cpp:150] Setting up Concat15_Concat15_0_split
I0220 14:02:13.860144 22185 net.cpp:157] Top shape: 1 196 150 250 (7350000)
I0220 14:02:13.860150 22185 net.cpp:157] Top shape: 1 196 150 250 (7350000)
I0220 14:02:13.860154 22185 net.cpp:165] Memory required for data: 3240000028
I0220 14:02:13.860159 22185 layer_factory.hpp:77] Creating layer BatchNorm17
I0220 14:02:13.860165 22185 net.cpp:106] Creating Layer BatchNorm17
I0220 14:02:13.860170 22185 net.cpp:454] BatchNorm17 <- Concat15_Concat15_0_split_0
I0220 14:02:13.860180 22185 net.cpp:411] BatchNorm17 -> BatchNorm17
I0220 14:02:13.860532 22185 net.cpp:150] Setting up BatchNorm17
I0220 14:02:13.860543 22185 net.cpp:157] Top shape: 1 196 150 250 (7350000)
I0220 14:02:13.860546 22185 net.cpp:165] Memory required for data: 3269400028
I0220 14:02:13.860555 22185 layer_factory.hpp:77] Creating layer Scale17
I0220 14:02:13.860565 22185 net.cpp:106] Creating Layer Scale17
I0220 14:02:13.860571 22185 net.cpp:454] Scale17 <- BatchNorm17
I0220 14:02:13.860579 22185 net.cpp:397] Scale17 -> BatchNorm17 (in-place)
I0220 14:02:13.860640 22185 layer_factory.hpp:77] Creating layer Scale17
I0220 14:02:13.860862 22185 net.cpp:150] Setting up Scale17
I0220 14:02:13.860873 22185 net.cpp:157] Top shape: 1 196 150 250 (7350000)
I0220 14:02:13.860877 22185 net.cpp:165] Memory required for data: 3298800028
I0220 14:02:13.860885 22185 layer_factory.hpp:77] Creating layer ReLU17
I0220 14:02:13.860893 22185 net.cpp:106] Creating Layer ReLU17
I0220 14:02:13.860898 22185 net.cpp:454] ReLU17 <- BatchNorm17
I0220 14:02:13.860903 22185 net.cpp:397] ReLU17 -> BatchNorm17 (in-place)
I0220 14:02:13.860909 22185 net.cpp:150] Setting up ReLU17
I0220 14:02:13.860915 22185 net.cpp:157] Top shape: 1 196 150 250 (7350000)
I0220 14:02:13.860919 22185 net.cpp:165] Memory required for data: 3328200028
I0220 14:02:13.860924 22185 layer_factory.hpp:77] Creating layer Convolution18
I0220 14:02:13.860934 22185 net.cpp:106] Creating Layer Convolution18
I0220 14:02:13.860939 22185 net.cpp:454] Convolution18 <- BatchNorm17
I0220 14:02:13.860946 22185 net.cpp:411] Convolution18 -> Convolution18
I0220 14:02:13.861860 22185 net.cpp:150] Setting up Convolution18
I0220 14:02:13.861871 22185 net.cpp:157] Top shape: 1 12 150 250 (450000)
I0220 14:02:13.861876 22185 net.cpp:165] Memory required for data: 3330000028
I0220 14:02:13.861882 22185 layer_factory.hpp:77] Creating layer Dropout17
I0220 14:02:13.861889 22185 net.cpp:106] Creating Layer Dropout17
I0220 14:02:13.861894 22185 net.cpp:454] Dropout17 <- Convolution18
I0220 14:02:13.861902 22185 net.cpp:411] Dropout17 -> Dropout17
I0220 14:02:13.861965 22185 net.cpp:150] Setting up Dropout17
I0220 14:02:13.861974 22185 net.cpp:157] Top shape: 1 12 150 250 (450000)
I0220 14:02:13.861979 22185 net.cpp:165] Memory required for data: 3331800028
I0220 14:02:13.861984 22185 layer_factory.hpp:77] Creating layer Concat16
I0220 14:02:13.861990 22185 net.cpp:106] Creating Layer Concat16
I0220 14:02:13.861995 22185 net.cpp:454] Concat16 <- Concat15_Concat15_0_split_1
I0220 14:02:13.862000 22185 net.cpp:454] Concat16 <- Dropout17
I0220 14:02:13.862006 22185 net.cpp:411] Concat16 -> Concat16
I0220 14:02:13.862046 22185 net.cpp:150] Setting up Concat16
I0220 14:02:13.862054 22185 net.cpp:157] Top shape: 1 208 150 250 (7800000)
I0220 14:02:13.862058 22185 net.cpp:165] Memory required for data: 3363000028
I0220 14:02:13.862063 22185 layer_factory.hpp:77] Creating layer BatchNorm18
I0220 14:02:13.862071 22185 net.cpp:106] Creating Layer BatchNorm18
I0220 14:02:13.862076 22185 net.cpp:454] BatchNorm18 <- Concat16
I0220 14:02:13.862083 22185 net.cpp:411] BatchNorm18 -> BatchNorm18
I0220 14:02:13.863001 22185 net.cpp:150] Setting up BatchNorm18
I0220 14:02:13.863013 22185 net.cpp:157] Top shape: 1 208 150 250 (7800000)
I0220 14:02:13.863018 22185 net.cpp:165] Memory required for data: 3394200028
I0220 14:02:13.863029 22185 layer_factory.hpp:77] Creating layer Scale18
I0220 14:02:13.863054 22185 net.cpp:106] Creating Layer Scale18
I0220 14:02:13.863060 22185 net.cpp:454] Scale18 <- BatchNorm18
I0220 14:02:13.863068 22185 net.cpp:397] Scale18 -> BatchNorm18 (in-place)
I0220 14:02:13.863131 22185 layer_factory.hpp:77] Creating layer Scale18
I0220 14:02:13.863355 22185 net.cpp:150] Setting up Scale18
I0220 14:02:13.863368 22185 net.cpp:157] Top shape: 1 208 150 250 (7800000)
I0220 14:02:13.863371 22185 net.cpp:165] Memory required for data: 3425400028
I0220 14:02:13.863379 22185 layer_factory.hpp:77] Creating layer ReLU18
I0220 14:02:13.863386 22185 net.cpp:106] Creating Layer ReLU18
I0220 14:02:13.863391 22185 net.cpp:454] ReLU18 <- BatchNorm18
I0220 14:02:13.863396 22185 net.cpp:397] ReLU18 -> BatchNorm18 (in-place)
I0220 14:02:13.863404 22185 net.cpp:150] Setting up ReLU18
I0220 14:02:13.863409 22185 net.cpp:157] Top shape: 1 208 150 250 (7800000)
I0220 14:02:13.863414 22185 net.cpp:165] Memory required for data: 3456600028
I0220 14:02:13.863417 22185 layer_factory.hpp:77] Creating layer Convolution19
I0220 14:02:13.863428 22185 net.cpp:106] Creating Layer Convolution19
I0220 14:02:13.863433 22185 net.cpp:454] Convolution19 <- BatchNorm18
I0220 14:02:13.863440 22185 net.cpp:411] Convolution19 -> Convolution19
I0220 14:02:13.864984 22185 net.cpp:150] Setting up Convolution19
I0220 14:02:13.864995 22185 net.cpp:157] Top shape: 1 208 150 250 (7800000)
I0220 14:02:13.865000 22185 net.cpp:165] Memory required for data: 3487800028
I0220 14:02:13.865006 22185 layer_factory.hpp:77] Creating layer Dropout18
I0220 14:02:13.865013 22185 net.cpp:106] Creating Layer Dropout18
I0220 14:02:13.865018 22185 net.cpp:454] Dropout18 <- Convolution19
I0220 14:02:13.865025 22185 net.cpp:411] Dropout18 -> Dropout18
I0220 14:02:13.865085 22185 net.cpp:150] Setting up Dropout18
I0220 14:02:13.865095 22185 net.cpp:157] Top shape: 1 208 150 250 (7800000)
I0220 14:02:13.865100 22185 net.cpp:165] Memory required for data: 3519000028
I0220 14:02:13.865104 22185 layer_factory.hpp:77] Creating layer Pooling2
I0220 14:02:13.865114 22185 net.cpp:106] Creating Layer Pooling2
I0220 14:02:13.865119 22185 net.cpp:454] Pooling2 <- Dropout18
I0220 14:02:13.865125 22185 net.cpp:411] Pooling2 -> Pooling2
I0220 14:02:13.865166 22185 net.cpp:150] Setting up Pooling2
I0220 14:02:13.865175 22185 net.cpp:157] Top shape: 1 208 75 125 (1950000)
I0220 14:02:13.865180 22185 net.cpp:165] Memory required for data: 3526800028
I0220 14:02:13.865185 22185 layer_factory.hpp:77] Creating layer Pooling2_Pooling2_0_split
I0220 14:02:13.865190 22185 net.cpp:106] Creating Layer Pooling2_Pooling2_0_split
I0220 14:02:13.865195 22185 net.cpp:454] Pooling2_Pooling2_0_split <- Pooling2
I0220 14:02:13.865200 22185 net.cpp:411] Pooling2_Pooling2_0_split -> Pooling2_Pooling2_0_split_0
I0220 14:02:13.865208 22185 net.cpp:411] Pooling2_Pooling2_0_split -> Pooling2_Pooling2_0_split_1
I0220 14:02:13.865262 22185 net.cpp:150] Setting up Pooling2_Pooling2_0_split
I0220 14:02:13.865274 22185 net.cpp:157] Top shape: 1 208 75 125 (1950000)
I0220 14:02:13.865279 22185 net.cpp:157] Top shape: 1 208 75 125 (1950000)
I0220 14:02:13.865284 22185 net.cpp:165] Memory required for data: 3542400028
I0220 14:02:13.865288 22185 layer_factory.hpp:77] Creating layer BatchNorm19
I0220 14:02:13.865310 22185 net.cpp:106] Creating Layer BatchNorm19
I0220 14:02:13.865316 22185 net.cpp:454] BatchNorm19 <- Pooling2_Pooling2_0_split_0
I0220 14:02:13.865324 22185 net.cpp:411] BatchNorm19 -> BatchNorm19
I0220 14:02:13.865651 22185 net.cpp:150] Setting up BatchNorm19
I0220 14:02:13.865661 22185 net.cpp:157] Top shape: 1 208 75 125 (1950000)
I0220 14:02:13.865665 22185 net.cpp:165] Memory required for data: 3550200028
I0220 14:02:13.865674 22185 layer_factory.hpp:77] Creating layer Scale19
I0220 14:02:13.865684 22185 net.cpp:106] Creating Layer Scale19
I0220 14:02:13.865689 22185 net.cpp:454] Scale19 <- BatchNorm19
I0220 14:02:13.865695 22185 net.cpp:397] Scale19 -> BatchNorm19 (in-place)
I0220 14:02:13.865759 22185 layer_factory.hpp:77] Creating layer Scale19
I0220 14:02:13.865958 22185 net.cpp:150] Setting up Scale19
I0220 14:02:13.865969 22185 net.cpp:157] Top shape: 1 208 75 125 (1950000)
I0220 14:02:13.865974 22185 net.cpp:165] Memory required for data: 3558000028
I0220 14:02:13.865981 22185 layer_factory.hpp:77] Creating layer ReLU19
I0220 14:02:13.865988 22185 net.cpp:106] Creating Layer ReLU19
I0220 14:02:13.865993 22185 net.cpp:454] ReLU19 <- BatchNorm19
I0220 14:02:13.865999 22185 net.cpp:397] ReLU19 -> BatchNorm19 (in-place)
I0220 14:02:13.866005 22185 net.cpp:150] Setting up ReLU19
I0220 14:02:13.866011 22185 net.cpp:157] Top shape: 1 208 75 125 (1950000)
I0220 14:02:13.866015 22185 net.cpp:165] Memory required for data: 3565800028
I0220 14:02:13.866019 22185 layer_factory.hpp:77] Creating layer Convolution20
I0220 14:02:13.866029 22185 net.cpp:106] Creating Layer Convolution20
I0220 14:02:13.866032 22185 net.cpp:454] Convolution20 <- BatchNorm19
I0220 14:02:13.866042 22185 net.cpp:411] Convolution20 -> Convolution20
I0220 14:02:13.866978 22185 net.cpp:150] Setting up Convolution20
I0220 14:02:13.866989 22185 net.cpp:157] Top shape: 1 12 75 125 (112500)
I0220 14:02:13.866993 22185 net.cpp:165] Memory required for data: 3566250028
I0220 14:02:13.867000 22185 layer_factory.hpp:77] Creating layer Dropout19
I0220 14:02:13.867007 22185 net.cpp:106] Creating Layer Dropout19
I0220 14:02:13.867012 22185 net.cpp:454] Dropout19 <- Convolution20
I0220 14:02:13.867020 22185 net.cpp:411] Dropout19 -> Dropout19
I0220 14:02:13.867086 22185 net.cpp:150] Setting up Dropout19
I0220 14:02:13.867097 22185 net.cpp:157] Top shape: 1 12 75 125 (112500)
I0220 14:02:13.867101 22185 net.cpp:165] Memory required for data: 3566700028
I0220 14:02:13.867106 22185 layer_factory.hpp:77] Creating layer Concat17
I0220 14:02:13.867115 22185 net.cpp:106] Creating Layer Concat17
I0220 14:02:13.867120 22185 net.cpp:454] Concat17 <- Pooling2_Pooling2_0_split_1
I0220 14:02:13.867125 22185 net.cpp:454] Concat17 <- Dropout19
I0220 14:02:13.867131 22185 net.cpp:411] Concat17 -> Concat17
I0220 14:02:13.867169 22185 net.cpp:150] Setting up Concat17
I0220 14:02:13.867179 22185 net.cpp:157] Top shape: 1 220 75 125 (2062500)
I0220 14:02:13.867183 22185 net.cpp:165] Memory required for data: 3574950028
I0220 14:02:13.867188 22185 layer_factory.hpp:77] Creating layer Concat17_Concat17_0_split
I0220 14:02:13.867194 22185 net.cpp:106] Creating Layer Concat17_Concat17_0_split
I0220 14:02:13.867199 22185 net.cpp:454] Concat17_Concat17_0_split <- Concat17
I0220 14:02:13.867207 22185 net.cpp:411] Concat17_Concat17_0_split -> Concat17_Concat17_0_split_0
I0220 14:02:13.867214 22185 net.cpp:411] Concat17_Concat17_0_split -> Concat17_Concat17_0_split_1
I0220 14:02:13.867269 22185 net.cpp:150] Setting up Concat17_Concat17_0_split
I0220 14:02:13.867277 22185 net.cpp:157] Top shape: 1 220 75 125 (2062500)
I0220 14:02:13.867283 22185 net.cpp:157] Top shape: 1 220 75 125 (2062500)
I0220 14:02:13.867287 22185 net.cpp:165] Memory required for data: 3591450028
I0220 14:02:13.867291 22185 layer_factory.hpp:77] Creating layer BatchNorm20
I0220 14:02:13.867300 22185 net.cpp:106] Creating Layer BatchNorm20
I0220 14:02:13.867305 22185 net.cpp:454] BatchNorm20 <- Concat17_Concat17_0_split_0
I0220 14:02:13.867313 22185 net.cpp:411] BatchNorm20 -> BatchNorm20
I0220 14:02:13.867640 22185 net.cpp:150] Setting up BatchNorm20
I0220 14:02:13.867650 22185 net.cpp:157] Top shape: 1 220 75 125 (2062500)
I0220 14:02:13.867655 22185 net.cpp:165] Memory required for data: 3599700028
I0220 14:02:13.867664 22185 layer_factory.hpp:77] Creating layer Scale20
I0220 14:02:13.867671 22185 net.cpp:106] Creating Layer Scale20
I0220 14:02:13.867676 22185 net.cpp:454] Scale20 <- BatchNorm20
I0220 14:02:13.867684 22185 net.cpp:397] Scale20 -> BatchNorm20 (in-place)
I0220 14:02:13.867748 22185 layer_factory.hpp:77] Creating layer Scale20
I0220 14:02:13.867949 22185 net.cpp:150] Setting up Scale20
I0220 14:02:13.867960 22185 net.cpp:157] Top shape: 1 220 75 125 (2062500)
I0220 14:02:13.867964 22185 net.cpp:165] Memory required for data: 3607950028
I0220 14:02:13.867972 22185 layer_factory.hpp:77] Creating layer ReLU20
I0220 14:02:13.867981 22185 net.cpp:106] Creating Layer ReLU20
I0220 14:02:13.867986 22185 net.cpp:454] ReLU20 <- BatchNorm20
I0220 14:02:13.867991 22185 net.cpp:397] ReLU20 -> BatchNorm20 (in-place)
I0220 14:02:13.867998 22185 net.cpp:150] Setting up ReLU20
I0220 14:02:13.868005 22185 net.cpp:157] Top shape: 1 220 75 125 (2062500)
I0220 14:02:13.868008 22185 net.cpp:165] Memory required for data: 3616200028
I0220 14:02:13.868012 22185 layer_factory.hpp:77] Creating layer Convolution21
I0220 14:02:13.868021 22185 net.cpp:106] Creating Layer Convolution21
I0220 14:02:13.868026 22185 net.cpp:454] Convolution21 <- BatchNorm20
I0220 14:02:13.868032 22185 net.cpp:411] Convolution21 -> Convolution21
I0220 14:02:13.869015 22185 net.cpp:150] Setting up Convolution21
I0220 14:02:13.869026 22185 net.cpp:157] Top shape: 1 12 75 125 (112500)
I0220 14:02:13.869030 22185 net.cpp:165] Memory required for data: 3616650028
I0220 14:02:13.869036 22185 layer_factory.hpp:77] Creating layer Dropout20
I0220 14:02:13.869043 22185 net.cpp:106] Creating Layer Dropout20
I0220 14:02:13.869048 22185 net.cpp:454] Dropout20 <- Convolution21
I0220 14:02:13.869056 22185 net.cpp:411] Dropout20 -> Dropout20
I0220 14:02:13.869115 22185 net.cpp:150] Setting up Dropout20
I0220 14:02:13.869125 22185 net.cpp:157] Top shape: 1 12 75 125 (112500)
I0220 14:02:13.869129 22185 net.cpp:165] Memory required for data: 3617100028
I0220 14:02:13.869133 22185 layer_factory.hpp:77] Creating layer Concat18
I0220 14:02:13.869143 22185 net.cpp:106] Creating Layer Concat18
I0220 14:02:13.869148 22185 net.cpp:454] Concat18 <- Concat17_Concat17_0_split_1
I0220 14:02:13.869153 22185 net.cpp:454] Concat18 <- Dropout20
I0220 14:02:13.869160 22185 net.cpp:411] Concat18 -> Concat18
I0220 14:02:13.869197 22185 net.cpp:150] Setting up Concat18
I0220 14:02:13.869206 22185 net.cpp:157] Top shape: 1 232 75 125 (2175000)
I0220 14:02:13.869210 22185 net.cpp:165] Memory required for data: 3625800028
I0220 14:02:13.869215 22185 layer_factory.hpp:77] Creating layer Concat18_Concat18_0_split
I0220 14:02:13.869221 22185 net.cpp:106] Creating Layer Concat18_Concat18_0_split
I0220 14:02:13.869225 22185 net.cpp:454] Concat18_Concat18_0_split <- Concat18
I0220 14:02:13.869233 22185 net.cpp:411] Concat18_Concat18_0_split -> Concat18_Concat18_0_split_0
I0220 14:02:13.869240 22185 net.cpp:411] Concat18_Concat18_0_split -> Concat18_Concat18_0_split_1
I0220 14:02:13.869294 22185 net.cpp:150] Setting up Concat18_Concat18_0_split
I0220 14:02:13.869308 22185 net.cpp:157] Top shape: 1 232 75 125 (2175000)
I0220 14:02:13.869314 22185 net.cpp:157] Top shape: 1 232 75 125 (2175000)
I0220 14:02:13.869318 22185 net.cpp:165] Memory required for data: 3643200028
I0220 14:02:13.869323 22185 layer_factory.hpp:77] Creating layer BatchNorm21
I0220 14:02:13.869333 22185 net.cpp:106] Creating Layer BatchNorm21
I0220 14:02:13.869338 22185 net.cpp:454] BatchNorm21 <- Concat18_Concat18_0_split_0
I0220 14:02:13.869343 22185 net.cpp:411] BatchNorm21 -> BatchNorm21
I0220 14:02:13.869678 22185 net.cpp:150] Setting up BatchNorm21
I0220 14:02:13.869689 22185 net.cpp:157] Top shape: 1 232 75 125 (2175000)
I0220 14:02:13.869693 22185 net.cpp:165] Memory required for data: 3651900028
I0220 14:02:13.869702 22185 layer_factory.hpp:77] Creating layer Scale21
I0220 14:02:13.869709 22185 net.cpp:106] Creating Layer Scale21
I0220 14:02:13.869715 22185 net.cpp:454] Scale21 <- BatchNorm21
I0220 14:02:13.869724 22185 net.cpp:397] Scale21 -> BatchNorm21 (in-place)
I0220 14:02:13.869784 22185 layer_factory.hpp:77] Creating layer Scale21
I0220 14:02:13.869985 22185 net.cpp:150] Setting up Scale21
I0220 14:02:13.869997 22185 net.cpp:157] Top shape: 1 232 75 125 (2175000)
I0220 14:02:13.870000 22185 net.cpp:165] Memory required for data: 3660600028
I0220 14:02:13.870008 22185 layer_factory.hpp:77] Creating layer ReLU21
I0220 14:02:13.870018 22185 net.cpp:106] Creating Layer ReLU21
I0220 14:02:13.870021 22185 net.cpp:454] ReLU21 <- BatchNorm21
I0220 14:02:13.870028 22185 net.cpp:397] ReLU21 -> BatchNorm21 (in-place)
I0220 14:02:13.870034 22185 net.cpp:150] Setting up ReLU21
I0220 14:02:13.870040 22185 net.cpp:157] Top shape: 1 232 75 125 (2175000)
I0220 14:02:13.870044 22185 net.cpp:165] Memory required for data: 3669300028
I0220 14:02:13.870048 22185 layer_factory.hpp:77] Creating layer Convolution22
I0220 14:02:13.870057 22185 net.cpp:106] Creating Layer Convolution22
I0220 14:02:13.870062 22185 net.cpp:454] Convolution22 <- BatchNorm21
I0220 14:02:13.870069 22185 net.cpp:411] Convolution22 -> Convolution22
I0220 14:02:13.871100 22185 net.cpp:150] Setting up Convolution22
I0220 14:02:13.871111 22185 net.cpp:157] Top shape: 1 12 75 125 (112500)
I0220 14:02:13.871115 22185 net.cpp:165] Memory required for data: 3669750028
I0220 14:02:13.871122 22185 layer_factory.hpp:77] Creating layer Dropout21
I0220 14:02:13.871129 22185 net.cpp:106] Creating Layer Dropout21
I0220 14:02:13.871134 22185 net.cpp:454] Dropout21 <- Convolution22
I0220 14:02:13.871142 22185 net.cpp:411] Dropout21 -> Dropout21
I0220 14:02:13.871206 22185 net.cpp:150] Setting up Dropout21
I0220 14:02:13.871217 22185 net.cpp:157] Top shape: 1 12 75 125 (112500)
I0220 14:02:13.871220 22185 net.cpp:165] Memory required for data: 3670200028
I0220 14:02:13.871225 22185 layer_factory.hpp:77] Creating layer Concat19
I0220 14:02:13.871232 22185 net.cpp:106] Creating Layer Concat19
I0220 14:02:13.871237 22185 net.cpp:454] Concat19 <- Concat18_Concat18_0_split_1
I0220 14:02:13.871243 22185 net.cpp:454] Concat19 <- Dropout21
I0220 14:02:13.871249 22185 net.cpp:411] Concat19 -> Concat19
I0220 14:02:13.871286 22185 net.cpp:150] Setting up Concat19
I0220 14:02:13.871296 22185 net.cpp:157] Top shape: 1 244 75 125 (2287500)
I0220 14:02:13.871300 22185 net.cpp:165] Memory required for data: 3679350028
I0220 14:02:13.871304 22185 layer_factory.hpp:77] Creating layer Concat19_Concat19_0_split
I0220 14:02:13.871311 22185 net.cpp:106] Creating Layer Concat19_Concat19_0_split
I0220 14:02:13.871315 22185 net.cpp:454] Concat19_Concat19_0_split <- Concat19
I0220 14:02:13.871323 22185 net.cpp:411] Concat19_Concat19_0_split -> Concat19_Concat19_0_split_0
I0220 14:02:13.871345 22185 net.cpp:411] Concat19_Concat19_0_split -> Concat19_Concat19_0_split_1
I0220 14:02:13.871400 22185 net.cpp:150] Setting up Concat19_Concat19_0_split
I0220 14:02:13.871412 22185 net.cpp:157] Top shape: 1 244 75 125 (2287500)
I0220 14:02:13.871418 22185 net.cpp:157] Top shape: 1 244 75 125 (2287500)
I0220 14:02:13.871423 22185 net.cpp:165] Memory required for data: 3697650028
I0220 14:02:13.871426 22185 layer_factory.hpp:77] Creating layer BatchNorm22
I0220 14:02:13.871433 22185 net.cpp:106] Creating Layer BatchNorm22
I0220 14:02:13.871438 22185 net.cpp:454] BatchNorm22 <- Concat19_Concat19_0_split_0
I0220 14:02:13.871446 22185 net.cpp:411] BatchNorm22 -> BatchNorm22
I0220 14:02:13.871765 22185 net.cpp:150] Setting up BatchNorm22
I0220 14:02:13.871776 22185 net.cpp:157] Top shape: 1 244 75 125 (2287500)
I0220 14:02:13.871780 22185 net.cpp:165] Memory required for data: 3706800028
I0220 14:02:13.871809 22185 layer_factory.hpp:77] Creating layer Scale22
I0220 14:02:13.871819 22185 net.cpp:106] Creating Layer Scale22
I0220 14:02:13.871825 22185 net.cpp:454] Scale22 <- BatchNorm22
I0220 14:02:13.871831 22185 net.cpp:397] Scale22 -> BatchNorm22 (in-place)
I0220 14:02:13.871893 22185 layer_factory.hpp:77] Creating layer Scale22
I0220 14:02:13.872095 22185 net.cpp:150] Setting up Scale22
I0220 14:02:13.872105 22185 net.cpp:157] Top shape: 1 244 75 125 (2287500)
I0220 14:02:13.872110 22185 net.cpp:165] Memory required for data: 3715950028
I0220 14:02:13.872117 22185 layer_factory.hpp:77] Creating layer ReLU22
I0220 14:02:13.872124 22185 net.cpp:106] Creating Layer ReLU22
I0220 14:02:13.872129 22185 net.cpp:454] ReLU22 <- BatchNorm22
I0220 14:02:13.872134 22185 net.cpp:397] ReLU22 -> BatchNorm22 (in-place)
I0220 14:02:13.872141 22185 net.cpp:150] Setting up ReLU22
I0220 14:02:13.872148 22185 net.cpp:157] Top shape: 1 244 75 125 (2287500)
I0220 14:02:13.872151 22185 net.cpp:165] Memory required for data: 3725100028
I0220 14:02:13.872155 22185 layer_factory.hpp:77] Creating layer Convolution23
I0220 14:02:13.872166 22185 net.cpp:106] Creating Layer Convolution23
I0220 14:02:13.872171 22185 net.cpp:454] Convolution23 <- BatchNorm22
I0220 14:02:13.872179 22185 net.cpp:411] Convolution23 -> Convolution23
I0220 14:02:13.873240 22185 net.cpp:150] Setting up Convolution23
I0220 14:02:13.873251 22185 net.cpp:157] Top shape: 1 12 75 125 (112500)
I0220 14:02:13.873255 22185 net.cpp:165] Memory required for data: 3725550028
I0220 14:02:13.873261 22185 layer_factory.hpp:77] Creating layer Dropout22
I0220 14:02:13.873271 22185 net.cpp:106] Creating Layer Dropout22
I0220 14:02:13.873276 22185 net.cpp:454] Dropout22 <- Convolution23
I0220 14:02:13.873282 22185 net.cpp:411] Dropout22 -> Dropout22
I0220 14:02:13.873343 22185 net.cpp:150] Setting up Dropout22
I0220 14:02:13.873353 22185 net.cpp:157] Top shape: 1 12 75 125 (112500)
I0220 14:02:13.873358 22185 net.cpp:165] Memory required for data: 3726000028
I0220 14:02:13.873363 22185 layer_factory.hpp:77] Creating layer Concat20
I0220 14:02:13.873369 22185 net.cpp:106] Creating Layer Concat20
I0220 14:02:13.873373 22185 net.cpp:454] Concat20 <- Concat19_Concat19_0_split_1
I0220 14:02:13.873379 22185 net.cpp:454] Concat20 <- Dropout22
I0220 14:02:13.873387 22185 net.cpp:411] Concat20 -> Concat20
I0220 14:02:13.873425 22185 net.cpp:150] Setting up Concat20
I0220 14:02:13.873433 22185 net.cpp:157] Top shape: 1 256 75 125 (2400000)
I0220 14:02:13.873437 22185 net.cpp:165] Memory required for data: 3735600028
I0220 14:02:13.873442 22185 layer_factory.hpp:77] Creating layer Concat20_Concat20_0_split
I0220 14:02:13.873450 22185 net.cpp:106] Creating Layer Concat20_Concat20_0_split
I0220 14:02:13.873455 22185 net.cpp:454] Concat20_Concat20_0_split <- Concat20
I0220 14:02:13.873461 22185 net.cpp:411] Concat20_Concat20_0_split -> Concat20_Concat20_0_split_0
I0220 14:02:13.873467 22185 net.cpp:411] Concat20_Concat20_0_split -> Concat20_Concat20_0_split_1
I0220 14:02:13.873524 22185 net.cpp:150] Setting up Concat20_Concat20_0_split
I0220 14:02:13.873533 22185 net.cpp:157] Top shape: 1 256 75 125 (2400000)
I0220 14:02:13.873538 22185 net.cpp:157] Top shape: 1 256 75 125 (2400000)
I0220 14:02:13.873543 22185 net.cpp:165] Memory required for data: 3754800028
I0220 14:02:13.873548 22185 layer_factory.hpp:77] Creating layer BatchNorm23
I0220 14:02:13.873555 22185 net.cpp:106] Creating Layer BatchNorm23
I0220 14:02:13.873560 22185 net.cpp:454] BatchNorm23 <- Concat20_Concat20_0_split_0
I0220 14:02:13.873569 22185 net.cpp:411] BatchNorm23 -> BatchNorm23
I0220 14:02:13.873868 22185 net.cpp:150] Setting up BatchNorm23
I0220 14:02:13.873878 22185 net.cpp:157] Top shape: 1 256 75 125 (2400000)
I0220 14:02:13.873883 22185 net.cpp:165] Memory required for data: 3764400028
I0220 14:02:13.873893 22185 layer_factory.hpp:77] Creating layer Scale23
I0220 14:02:13.873903 22185 net.cpp:106] Creating Layer Scale23
I0220 14:02:13.873908 22185 net.cpp:454] Scale23 <- BatchNorm23
I0220 14:02:13.873915 22185 net.cpp:397] Scale23 -> BatchNorm23 (in-place)
I0220 14:02:13.873975 22185 layer_factory.hpp:77] Creating layer Scale23
I0220 14:02:13.874169 22185 net.cpp:150] Setting up Scale23
I0220 14:02:13.874179 22185 net.cpp:157] Top shape: 1 256 75 125 (2400000)
I0220 14:02:13.874184 22185 net.cpp:165] Memory required for data: 3774000028
I0220 14:02:13.874191 22185 layer_factory.hpp:77] Creating layer ReLU23
I0220 14:02:13.874198 22185 net.cpp:106] Creating Layer ReLU23
I0220 14:02:13.874203 22185 net.cpp:454] ReLU23 <- BatchNorm23
I0220 14:02:13.874210 22185 net.cpp:397] ReLU23 -> BatchNorm23 (in-place)
I0220 14:02:13.874217 22185 net.cpp:150] Setting up ReLU23
I0220 14:02:13.874223 22185 net.cpp:157] Top shape: 1 256 75 125 (2400000)
I0220 14:02:13.874228 22185 net.cpp:165] Memory required for data: 3783600028
I0220 14:02:13.874231 22185 layer_factory.hpp:77] Creating layer Convolution24
I0220 14:02:13.874240 22185 net.cpp:106] Creating Layer Convolution24
I0220 14:02:13.874244 22185 net.cpp:454] Convolution24 <- BatchNorm23
I0220 14:02:13.874251 22185 net.cpp:411] Convolution24 -> Convolution24
I0220 14:02:13.875370 22185 net.cpp:150] Setting up Convolution24
I0220 14:02:13.875380 22185 net.cpp:157] Top shape: 1 12 75 125 (112500)
I0220 14:02:13.875385 22185 net.cpp:165] Memory required for data: 3784050028
I0220 14:02:13.875392 22185 layer_factory.hpp:77] Creating layer Dropout23
I0220 14:02:13.875402 22185 net.cpp:106] Creating Layer Dropout23
I0220 14:02:13.875407 22185 net.cpp:454] Dropout23 <- Convolution24
I0220 14:02:13.875413 22185 net.cpp:411] Dropout23 -> Dropout23
I0220 14:02:13.875474 22185 net.cpp:150] Setting up Dropout23
I0220 14:02:13.875483 22185 net.cpp:157] Top shape: 1 12 75 125 (112500)
I0220 14:02:13.875488 22185 net.cpp:165] Memory required for data: 3784500028
I0220 14:02:13.875493 22185 layer_factory.hpp:77] Creating layer Concat21
I0220 14:02:13.875501 22185 net.cpp:106] Creating Layer Concat21
I0220 14:02:13.875506 22185 net.cpp:454] Concat21 <- Concat20_Concat20_0_split_1
I0220 14:02:13.875511 22185 net.cpp:454] Concat21 <- Dropout23
I0220 14:02:13.875517 22185 net.cpp:411] Concat21 -> Concat21
I0220 14:02:13.875555 22185 net.cpp:150] Setting up Concat21
I0220 14:02:13.875564 22185 net.cpp:157] Top shape: 1 268 75 125 (2512500)
I0220 14:02:13.875568 22185 net.cpp:165] Memory required for data: 3794550028
I0220 14:02:13.875572 22185 layer_factory.hpp:77] Creating layer Concat21_Concat21_0_split
I0220 14:02:13.875581 22185 net.cpp:106] Creating Layer Concat21_Concat21_0_split
I0220 14:02:13.875586 22185 net.cpp:454] Concat21_Concat21_0_split <- Concat21
I0220 14:02:13.875591 22185 net.cpp:411] Concat21_Concat21_0_split -> Concat21_Concat21_0_split_0
I0220 14:02:13.875600 22185 net.cpp:411] Concat21_Concat21_0_split -> Concat21_Concat21_0_split_1
I0220 14:02:13.875656 22185 net.cpp:150] Setting up Concat21_Concat21_0_split
I0220 14:02:13.875665 22185 net.cpp:157] Top shape: 1 268 75 125 (2512500)
I0220 14:02:13.875670 22185 net.cpp:157] Top shape: 1 268 75 125 (2512500)
I0220 14:02:13.875674 22185 net.cpp:165] Memory required for data: 3814650028
I0220 14:02:13.875679 22185 layer_factory.hpp:77] Creating layer BatchNorm24
I0220 14:02:13.875687 22185 net.cpp:106] Creating Layer BatchNorm24
I0220 14:02:13.875692 22185 net.cpp:454] BatchNorm24 <- Concat21_Concat21_0_split_0
I0220 14:02:13.875700 22185 net.cpp:411] BatchNorm24 -> BatchNorm24
I0220 14:02:13.876636 22185 net.cpp:150] Setting up BatchNorm24
I0220 14:02:13.876651 22185 net.cpp:157] Top shape: 1 268 75 125 (2512500)
I0220 14:02:13.876654 22185 net.cpp:165] Memory required for data: 3824700028
I0220 14:02:13.876664 22185 layer_factory.hpp:77] Creating layer Scale24
I0220 14:02:13.876674 22185 net.cpp:106] Creating Layer Scale24
I0220 14:02:13.876680 22185 net.cpp:454] Scale24 <- BatchNorm24
I0220 14:02:13.876687 22185 net.cpp:397] Scale24 -> BatchNorm24 (in-place)
I0220 14:02:13.876754 22185 layer_factory.hpp:77] Creating layer Scale24
I0220 14:02:13.876963 22185 net.cpp:150] Setting up Scale24
I0220 14:02:13.876974 22185 net.cpp:157] Top shape: 1 268 75 125 (2512500)
I0220 14:02:13.876978 22185 net.cpp:165] Memory required for data: 3834750028
I0220 14:02:13.876986 22185 layer_factory.hpp:77] Creating layer ReLU24
I0220 14:02:13.876993 22185 net.cpp:106] Creating Layer ReLU24
I0220 14:02:13.876997 22185 net.cpp:454] ReLU24 <- BatchNorm24
I0220 14:02:13.877003 22185 net.cpp:397] ReLU24 -> BatchNorm24 (in-place)
I0220 14:02:13.877010 22185 net.cpp:150] Setting up ReLU24
I0220 14:02:13.877017 22185 net.cpp:157] Top shape: 1 268 75 125 (2512500)
I0220 14:02:13.877020 22185 net.cpp:165] Memory required for data: 3844800028
I0220 14:02:13.877024 22185 layer_factory.hpp:77] Creating layer Convolution25
I0220 14:02:13.877035 22185 net.cpp:106] Creating Layer Convolution25
I0220 14:02:13.877040 22185 net.cpp:454] Convolution25 <- BatchNorm24
I0220 14:02:13.877048 22185 net.cpp:411] Convolution25 -> Convolution25
I0220 14:02:13.878762 22185 net.cpp:150] Setting up Convolution25
I0220 14:02:13.878773 22185 net.cpp:157] Top shape: 1 12 75 125 (112500)
I0220 14:02:13.878778 22185 net.cpp:165] Memory required for data: 3845250028
I0220 14:02:13.878785 22185 layer_factory.hpp:77] Creating layer Dropout24
I0220 14:02:13.878793 22185 net.cpp:106] Creating Layer Dropout24
I0220 14:02:13.878798 22185 net.cpp:454] Dropout24 <- Convolution25
I0220 14:02:13.878804 22185 net.cpp:411] Dropout24 -> Dropout24
I0220 14:02:13.878867 22185 net.cpp:150] Setting up Dropout24
I0220 14:02:13.878877 22185 net.cpp:157] Top shape: 1 12 75 125 (112500)
I0220 14:02:13.878881 22185 net.cpp:165] Memory required for data: 3845700028
I0220 14:02:13.878886 22185 layer_factory.hpp:77] Creating layer Concat22
I0220 14:02:13.878895 22185 net.cpp:106] Creating Layer Concat22
I0220 14:02:13.878901 22185 net.cpp:454] Concat22 <- Concat21_Concat21_0_split_1
I0220 14:02:13.878906 22185 net.cpp:454] Concat22 <- Dropout24
I0220 14:02:13.878912 22185 net.cpp:411] Concat22 -> Concat22
I0220 14:02:13.878949 22185 net.cpp:150] Setting up Concat22
I0220 14:02:13.878960 22185 net.cpp:157] Top shape: 1 280 75 125 (2625000)
I0220 14:02:13.878964 22185 net.cpp:165] Memory required for data: 3856200028
I0220 14:02:13.878969 22185 layer_factory.hpp:77] Creating layer Concat22_Concat22_0_split
I0220 14:02:13.878976 22185 net.cpp:106] Creating Layer Concat22_Concat22_0_split
I0220 14:02:13.878980 22185 net.cpp:454] Concat22_Concat22_0_split <- Concat22
I0220 14:02:13.878986 22185 net.cpp:411] Concat22_Concat22_0_split -> Concat22_Concat22_0_split_0
I0220 14:02:13.878994 22185 net.cpp:411] Concat22_Concat22_0_split -> Concat22_Concat22_0_split_1
I0220 14:02:13.879060 22185 net.cpp:150] Setting up Concat22_Concat22_0_split
I0220 14:02:13.879070 22185 net.cpp:157] Top shape: 1 280 75 125 (2625000)
I0220 14:02:13.879077 22185 net.cpp:157] Top shape: 1 280 75 125 (2625000)
I0220 14:02:13.879081 22185 net.cpp:165] Memory required for data: 3877200028
I0220 14:02:13.879086 22185 layer_factory.hpp:77] Creating layer BatchNorm25
I0220 14:02:13.879093 22185 net.cpp:106] Creating Layer BatchNorm25
I0220 14:02:13.879098 22185 net.cpp:454] BatchNorm25 <- Concat22_Concat22_0_split_0
I0220 14:02:13.879106 22185 net.cpp:411] BatchNorm25 -> BatchNorm25
I0220 14:02:13.879438 22185 net.cpp:150] Setting up BatchNorm25
I0220 14:02:13.879449 22185 net.cpp:157] Top shape: 1 280 75 125 (2625000)
I0220 14:02:13.879453 22185 net.cpp:165] Memory required for data: 3887700028
I0220 14:02:13.879462 22185 layer_factory.hpp:77] Creating layer Scale25
I0220 14:02:13.879480 22185 net.cpp:106] Creating Layer Scale25
I0220 14:02:13.879485 22185 net.cpp:454] Scale25 <- BatchNorm25
I0220 14:02:13.879493 22185 net.cpp:397] Scale25 -> BatchNorm25 (in-place)
I0220 14:02:13.879560 22185 layer_factory.hpp:77] Creating layer Scale25
I0220 14:02:13.879760 22185 net.cpp:150] Setting up Scale25
I0220 14:02:13.879771 22185 net.cpp:157] Top shape: 1 280 75 125 (2625000)
I0220 14:02:13.879776 22185 net.cpp:165] Memory required for data: 3898200028
I0220 14:02:13.879783 22185 layer_factory.hpp:77] Creating layer ReLU25
I0220 14:02:13.879791 22185 net.cpp:106] Creating Layer ReLU25
I0220 14:02:13.879796 22185 net.cpp:454] ReLU25 <- BatchNorm25
I0220 14:02:13.879801 22185 net.cpp:397] ReLU25 -> BatchNorm25 (in-place)
I0220 14:02:13.879807 22185 net.cpp:150] Setting up ReLU25
I0220 14:02:13.879813 22185 net.cpp:157] Top shape: 1 280 75 125 (2625000)
I0220 14:02:13.879817 22185 net.cpp:165] Memory required for data: 3908700028
I0220 14:02:13.879822 22185 layer_factory.hpp:77] Creating layer Convolution26
I0220 14:02:13.879832 22185 net.cpp:106] Creating Layer Convolution26
I0220 14:02:13.879837 22185 net.cpp:454] Convolution26 <- BatchNorm25
I0220 14:02:13.879844 22185 net.cpp:411] Convolution26 -> Convolution26
I0220 14:02:13.881026 22185 net.cpp:150] Setting up Convolution26
I0220 14:02:13.881037 22185 net.cpp:157] Top shape: 1 12 75 125 (112500)
I0220 14:02:13.881042 22185 net.cpp:165] Memory required for data: 3909150028
I0220 14:02:13.881048 22185 layer_factory.hpp:77] Creating layer Dropout25
I0220 14:02:13.881055 22185 net.cpp:106] Creating Layer Dropout25
I0220 14:02:13.881060 22185 net.cpp:454] Dropout25 <- Convolution26
I0220 14:02:13.881067 22185 net.cpp:411] Dropout25 -> Dropout25
I0220 14:02:13.881129 22185 net.cpp:150] Setting up Dropout25
I0220 14:02:13.881139 22185 net.cpp:157] Top shape: 1 12 75 125 (112500)
I0220 14:02:13.881145 22185 net.cpp:165] Memory required for data: 3909600028
I0220 14:02:13.881148 22185 layer_factory.hpp:77] Creating layer Concat23
I0220 14:02:13.881155 22185 net.cpp:106] Creating Layer Concat23
I0220 14:02:13.881160 22185 net.cpp:454] Concat23 <- Concat22_Concat22_0_split_1
I0220 14:02:13.881165 22185 net.cpp:454] Concat23 <- Dropout25
I0220 14:02:13.881171 22185 net.cpp:411] Concat23 -> Concat23
I0220 14:02:13.881209 22185 net.cpp:150] Setting up Concat23
I0220 14:02:13.881219 22185 net.cpp:157] Top shape: 1 292 75 125 (2737500)
I0220 14:02:13.881223 22185 net.cpp:165] Memory required for data: 3920550028
I0220 14:02:13.881227 22185 layer_factory.hpp:77] Creating layer Concat23_Concat23_0_split
I0220 14:02:13.881233 22185 net.cpp:106] Creating Layer Concat23_Concat23_0_split
I0220 14:02:13.881238 22185 net.cpp:454] Concat23_Concat23_0_split <- Concat23
I0220 14:02:13.881244 22185 net.cpp:411] Concat23_Concat23_0_split -> Concat23_Concat23_0_split_0
I0220 14:02:13.881252 22185 net.cpp:411] Concat23_Concat23_0_split -> Concat23_Concat23_0_split_1
I0220 14:02:13.881307 22185 net.cpp:150] Setting up Concat23_Concat23_0_split
I0220 14:02:13.881319 22185 net.cpp:157] Top shape: 1 292 75 125 (2737500)
I0220 14:02:13.881325 22185 net.cpp:157] Top shape: 1 292 75 125 (2737500)
I0220 14:02:13.881328 22185 net.cpp:165] Memory required for data: 3942450028
I0220 14:02:13.881332 22185 layer_factory.hpp:77] Creating layer BatchNorm26
I0220 14:02:13.881338 22185 net.cpp:106] Creating Layer BatchNorm26
I0220 14:02:13.881343 22185 net.cpp:454] BatchNorm26 <- Concat23_Concat23_0_split_0
I0220 14:02:13.881351 22185 net.cpp:411] BatchNorm26 -> BatchNorm26
I0220 14:02:13.881687 22185 net.cpp:150] Setting up BatchNorm26
I0220 14:02:13.881698 22185 net.cpp:157] Top shape: 1 292 75 125 (2737500)
I0220 14:02:13.881702 22185 net.cpp:165] Memory required for data: 3953400028
I0220 14:02:13.881711 22185 layer_factory.hpp:77] Creating layer Scale26
I0220 14:02:13.881721 22185 net.cpp:106] Creating Layer Scale26
I0220 14:02:13.881726 22185 net.cpp:454] Scale26 <- BatchNorm26
I0220 14:02:13.881734 22185 net.cpp:397] Scale26 -> BatchNorm26 (in-place)
I0220 14:02:13.881800 22185 layer_factory.hpp:77] Creating layer Scale26
I0220 14:02:13.882006 22185 net.cpp:150] Setting up Scale26
I0220 14:02:13.882017 22185 net.cpp:157] Top shape: 1 292 75 125 (2737500)
I0220 14:02:13.882021 22185 net.cpp:165] Memory required for data: 3964350028
I0220 14:02:13.882028 22185 layer_factory.hpp:77] Creating layer ReLU26
I0220 14:02:13.882035 22185 net.cpp:106] Creating Layer ReLU26
I0220 14:02:13.882040 22185 net.cpp:454] ReLU26 <- BatchNorm26
I0220 14:02:13.882045 22185 net.cpp:397] ReLU26 -> BatchNorm26 (in-place)
I0220 14:02:13.882052 22185 net.cpp:150] Setting up ReLU26
I0220 14:02:13.882058 22185 net.cpp:157] Top shape: 1 292 75 125 (2737500)
I0220 14:02:13.882062 22185 net.cpp:165] Memory required for data: 3975300028
I0220 14:02:13.882066 22185 layer_factory.hpp:77] Creating layer Convolution27
I0220 14:02:13.882077 22185 net.cpp:106] Creating Layer Convolution27
I0220 14:02:13.882082 22185 net.cpp:454] Convolution27 <- BatchNorm26
I0220 14:02:13.882089 22185 net.cpp:411] Convolution27 -> Convolution27
I0220 14:02:13.883313 22185 net.cpp:150] Setting up Convolution27
I0220 14:02:13.883324 22185 net.cpp:157] Top shape: 1 12 75 125 (112500)
I0220 14:02:13.883328 22185 net.cpp:165] Memory required for data: 3975750028
I0220 14:02:13.883335 22185 layer_factory.hpp:77] Creating layer Dropout26
I0220 14:02:13.883342 22185 net.cpp:106] Creating Layer Dropout26
I0220 14:02:13.883347 22185 net.cpp:454] Dropout26 <- Convolution27
I0220 14:02:13.883353 22185 net.cpp:411] Dropout26 -> Dropout26
I0220 14:02:13.883415 22185 net.cpp:150] Setting up Dropout26
I0220 14:02:13.883427 22185 net.cpp:157] Top shape: 1 12 75 125 (112500)
I0220 14:02:13.883432 22185 net.cpp:165] Memory required for data: 3976200028
I0220 14:02:13.883436 22185 layer_factory.hpp:77] Creating layer Concat24
I0220 14:02:13.883443 22185 net.cpp:106] Creating Layer Concat24
I0220 14:02:13.883450 22185 net.cpp:454] Concat24 <- Concat23_Concat23_0_split_1
I0220 14:02:13.883455 22185 net.cpp:454] Concat24 <- Dropout26
I0220 14:02:13.883460 22185 net.cpp:411] Concat24 -> Concat24
I0220 14:02:13.883507 22185 net.cpp:150] Setting up Concat24
I0220 14:02:13.883515 22185 net.cpp:157] Top shape: 1 304 75 125 (2850000)
I0220 14:02:13.883519 22185 net.cpp:165] Memory required for data: 3987600028
I0220 14:02:13.883524 22185 layer_factory.hpp:77] Creating layer BatchNorm27
I0220 14:02:13.883530 22185 net.cpp:106] Creating Layer BatchNorm27
I0220 14:02:13.883535 22185 net.cpp:454] BatchNorm27 <- Concat24
I0220 14:02:13.883543 22185 net.cpp:411] BatchNorm27 -> BatchNorm27
I0220 14:02:13.883882 22185 net.cpp:150] Setting up BatchNorm27
I0220 14:02:13.883893 22185 net.cpp:157] Top shape: 1 304 75 125 (2850000)
I0220 14:02:13.883898 22185 net.cpp:165] Memory required for data: 3999000028
I0220 14:02:13.883906 22185 layer_factory.hpp:77] Creating layer Scale27
I0220 14:02:13.883916 22185 net.cpp:106] Creating Layer Scale27
I0220 14:02:13.883921 22185 net.cpp:454] Scale27 <- BatchNorm27
I0220 14:02:13.883927 22185 net.cpp:397] Scale27 -> BatchNorm27 (in-place)
I0220 14:02:13.883993 22185 layer_factory.hpp:77] Creating layer Scale27
I0220 14:02:13.884193 22185 net.cpp:150] Setting up Scale27
I0220 14:02:13.884203 22185 net.cpp:157] Top shape: 1 304 75 125 (2850000)
I0220 14:02:13.884208 22185 net.cpp:165] Memory required for data: 4010400028
I0220 14:02:13.884215 22185 layer_factory.hpp:77] Creating layer ReLU27
I0220 14:02:13.884222 22185 net.cpp:106] Creating Layer ReLU27
I0220 14:02:13.884227 22185 net.cpp:454] ReLU27 <- BatchNorm27
I0220 14:02:13.884232 22185 net.cpp:397] ReLU27 -> BatchNorm27 (in-place)
I0220 14:02:13.884239 22185 net.cpp:150] Setting up ReLU27
I0220 14:02:13.884245 22185 net.cpp:157] Top shape: 1 304 75 125 (2850000)
I0220 14:02:13.884249 22185 net.cpp:165] Memory required for data: 4021800028
I0220 14:02:13.884253 22185 layer_factory.hpp:77] Creating layer Convolution28
I0220 14:02:13.884264 22185 net.cpp:106] Creating Layer Convolution28
I0220 14:02:13.884269 22185 net.cpp:454] Convolution28 <- BatchNorm27
I0220 14:02:13.884276 22185 net.cpp:411] Convolution28 -> Convolution28
I0220 14:02:13.887270 22185 net.cpp:150] Setting up Convolution28
I0220 14:02:13.887282 22185 net.cpp:157] Top shape: 1 304 75 125 (2850000)
I0220 14:02:13.887286 22185 net.cpp:165] Memory required for data: 4033200028
I0220 14:02:13.887293 22185 layer_factory.hpp:77] Creating layer Dropout27
I0220 14:02:13.887300 22185 net.cpp:106] Creating Layer Dropout27
I0220 14:02:13.887305 22185 net.cpp:454] Dropout27 <- Convolution28
I0220 14:02:13.887313 22185 net.cpp:411] Dropout27 -> Dropout27
I0220 14:02:13.887377 22185 net.cpp:150] Setting up Dropout27
I0220 14:02:13.887385 22185 net.cpp:157] Top shape: 1 304 75 125 (2850000)
I0220 14:02:13.887390 22185 net.cpp:165] Memory required for data: 4044600028
I0220 14:02:13.887394 22185 layer_factory.hpp:77] Creating layer Pooling3
I0220 14:02:13.887401 22185 net.cpp:106] Creating Layer Pooling3
I0220 14:02:13.887406 22185 net.cpp:454] Pooling3 <- Dropout27
I0220 14:02:13.887414 22185 net.cpp:411] Pooling3 -> Pooling3
I0220 14:02:13.887452 22185 net.cpp:150] Setting up Pooling3
I0220 14:02:13.887461 22185 net.cpp:157] Top shape: 1 304 38 63 (727776)
I0220 14:02:13.887465 22185 net.cpp:165] Memory required for data: 4047511132
I0220 14:02:13.887470 22185 layer_factory.hpp:77] Creating layer BatchNorm28
I0220 14:02:13.887478 22185 net.cpp:106] Creating Layer BatchNorm28
I0220 14:02:13.887483 22185 net.cpp:454] BatchNorm28 <- Pooling3
I0220 14:02:13.887490 22185 net.cpp:411] BatchNorm28 -> BatchNorm28
I0220 14:02:13.887826 22185 net.cpp:150] Setting up BatchNorm28
I0220 14:02:13.887837 22185 net.cpp:157] Top shape: 1 304 38 63 (727776)
I0220 14:02:13.887841 22185 net.cpp:165] Memory required for data: 4050422236
I0220 14:02:13.887850 22185 layer_factory.hpp:77] Creating layer Scale28
I0220 14:02:13.887859 22185 net.cpp:106] Creating Layer Scale28
I0220 14:02:13.887866 22185 net.cpp:454] Scale28 <- BatchNorm28
I0220 14:02:13.887871 22185 net.cpp:397] Scale28 -> BatchNorm28 (in-place)
I0220 14:02:13.887938 22185 layer_factory.hpp:77] Creating layer Scale28
I0220 14:02:13.888146 22185 net.cpp:150] Setting up Scale28
I0220 14:02:13.888157 22185 net.cpp:157] Top shape: 1 304 38 63 (727776)
I0220 14:02:13.888161 22185 net.cpp:165] Memory required for data: 4053333340
I0220 14:02:13.888170 22185 layer_factory.hpp:77] Creating layer ReLU28
I0220 14:02:13.888176 22185 net.cpp:106] Creating Layer ReLU28
I0220 14:02:13.888181 22185 net.cpp:454] ReLU28 <- BatchNorm28
I0220 14:02:13.888186 22185 net.cpp:397] ReLU28 -> BatchNorm28 (in-place)
I0220 14:02:13.888193 22185 net.cpp:150] Setting up ReLU28
I0220 14:02:13.888200 22185 net.cpp:157] Top shape: 1 304 38 63 (727776)
I0220 14:02:13.888203 22185 net.cpp:165] Memory required for data: 4056244444
I0220 14:02:13.888207 22185 layer_factory.hpp:77] Creating layer rpn_conv/3x3
I0220 14:02:13.888221 22185 net.cpp:106] Creating Layer rpn_conv/3x3
I0220 14:02:13.888226 22185 net.cpp:454] rpn_conv/3x3 <- BatchNorm28
I0220 14:02:13.888232 22185 net.cpp:411] rpn_conv/3x3 -> rpn/output
I0220 14:02:13.930968 22185 net.cpp:150] Setting up rpn_conv/3x3
I0220 14:02:13.930986 22185 net.cpp:157] Top shape: 1 512 38 63 (1225728)
I0220 14:02:13.930991 22185 net.cpp:165] Memory required for data: 4061147356
I0220 14:02:13.931000 22185 layer_factory.hpp:77] Creating layer rpn_relu/3x3
I0220 14:02:13.931008 22185 net.cpp:106] Creating Layer rpn_relu/3x3
I0220 14:02:13.931023 22185 net.cpp:454] rpn_relu/3x3 <- rpn/output
I0220 14:02:13.931030 22185 net.cpp:397] rpn_relu/3x3 -> rpn/output (in-place)
I0220 14:02:13.931043 22185 net.cpp:150] Setting up rpn_relu/3x3
I0220 14:02:13.931049 22185 net.cpp:157] Top shape: 1 512 38 63 (1225728)
I0220 14:02:13.931054 22185 net.cpp:165] Memory required for data: 4066050268
I0220 14:02:13.931058 22185 layer_factory.hpp:77] Creating layer rpn/output_rpn_relu/3x3_0_split
I0220 14:02:13.931067 22185 net.cpp:106] Creating Layer rpn/output_rpn_relu/3x3_0_split
I0220 14:02:13.931072 22185 net.cpp:454] rpn/output_rpn_relu/3x3_0_split <- rpn/output
I0220 14:02:13.931078 22185 net.cpp:411] rpn/output_rpn_relu/3x3_0_split -> rpn/output_rpn_relu/3x3_0_split_0
I0220 14:02:13.931085 22185 net.cpp:411] rpn/output_rpn_relu/3x3_0_split -> rpn/output_rpn_relu/3x3_0_split_1
I0220 14:02:13.931149 22185 net.cpp:150] Setting up rpn/output_rpn_relu/3x3_0_split
I0220 14:02:13.931159 22185 net.cpp:157] Top shape: 1 512 38 63 (1225728)
I0220 14:02:13.931164 22185 net.cpp:157] Top shape: 1 512 38 63 (1225728)
I0220 14:02:13.931169 22185 net.cpp:165] Memory required for data: 4075856092
I0220 14:02:13.931174 22185 layer_factory.hpp:77] Creating layer rpn_cls_score
I0220 14:02:13.931185 22185 net.cpp:106] Creating Layer rpn_cls_score
I0220 14:02:13.931190 22185 net.cpp:454] rpn_cls_score <- rpn/output_rpn_relu/3x3_0_split_0
I0220 14:02:13.931200 22185 net.cpp:411] rpn_cls_score -> rpn_cls_score
I0220 14:02:13.932346 22185 net.cpp:150] Setting up rpn_cls_score
I0220 14:02:13.932358 22185 net.cpp:157] Top shape: 1 50 38 63 (119700)
I0220 14:02:13.932361 22185 net.cpp:165] Memory required for data: 4076334892
I0220 14:02:13.932368 22185 layer_factory.hpp:77] Creating layer rpn_cls_score_rpn_cls_score_0_split
I0220 14:02:13.932376 22185 net.cpp:106] Creating Layer rpn_cls_score_rpn_cls_score_0_split
I0220 14:02:13.932381 22185 net.cpp:454] rpn_cls_score_rpn_cls_score_0_split <- rpn_cls_score
I0220 14:02:13.932389 22185 net.cpp:411] rpn_cls_score_rpn_cls_score_0_split -> rpn_cls_score_rpn_cls_score_0_split_0
I0220 14:02:13.932397 22185 net.cpp:411] rpn_cls_score_rpn_cls_score_0_split -> rpn_cls_score_rpn_cls_score_0_split_1
I0220 14:02:13.932459 22185 net.cpp:150] Setting up rpn_cls_score_rpn_cls_score_0_split
I0220 14:02:13.932469 22185 net.cpp:157] Top shape: 1 50 38 63 (119700)
I0220 14:02:13.932474 22185 net.cpp:157] Top shape: 1 50 38 63 (119700)
I0220 14:02:13.932479 22185 net.cpp:165] Memory required for data: 4077292492
I0220 14:02:13.932483 22185 layer_factory.hpp:77] Creating layer rpn_bbox_pred
I0220 14:02:13.932495 22185 net.cpp:106] Creating Layer rpn_bbox_pred
I0220 14:02:13.932500 22185 net.cpp:454] rpn_bbox_pred <- rpn/output_rpn_relu/3x3_0_split_1
I0220 14:02:13.932509 22185 net.cpp:411] rpn_bbox_pred -> rpn_bbox_pred
I0220 14:02:13.934384 22185 net.cpp:150] Setting up rpn_bbox_pred
I0220 14:02:13.934396 22185 net.cpp:157] Top shape: 1 100 38 63 (239400)
I0220 14:02:13.934399 22185 net.cpp:165] Memory required for data: 4078250092
I0220 14:02:13.934407 22185 layer_factory.hpp:77] Creating layer rpn_cls_score_reshape
I0220 14:02:13.934417 22185 net.cpp:106] Creating Layer rpn_cls_score_reshape
I0220 14:02:13.934422 22185 net.cpp:454] rpn_cls_score_reshape <- rpn_cls_score_rpn_cls_score_0_split_0
I0220 14:02:13.934428 22185 net.cpp:411] rpn_cls_score_reshape -> rpn_cls_score_reshape
I0220 14:02:13.934478 22185 net.cpp:150] Setting up rpn_cls_score_reshape
I0220 14:02:13.934487 22185 net.cpp:157] Top shape: 1 2 950 63 (119700)
I0220 14:02:13.934491 22185 net.cpp:165] Memory required for data: 4078728892
I0220 14:02:13.934495 22185 layer_factory.hpp:77] Creating layer rpn-data
I0220 14:02:13.935077 22185 net.cpp:106] Creating Layer rpn-data
I0220 14:02:13.935089 22185 net.cpp:454] rpn-data <- rpn_cls_score_rpn_cls_score_0_split_1
I0220 14:02:13.935096 22185 net.cpp:454] rpn-data <- gt_boxes
I0220 14:02:13.935101 22185 net.cpp:454] rpn-data <- im_info
I0220 14:02:13.935106 22185 net.cpp:454] rpn-data <- data_input-data_0_split_1
I0220 14:02:13.935113 22185 net.cpp:411] rpn-data -> rpn_labels
I0220 14:02:13.935122 22185 net.cpp:411] rpn-data -> rpn_bbox_targets
I0220 14:02:13.935130 22185 net.cpp:411] rpn-data -> rpn_bbox_inside_weights
I0220 14:02:13.935138 22185 net.cpp:411] rpn-data -> rpn_bbox_outside_weights
I0220 14:02:13.936494 22185 net.cpp:150] Setting up rpn-data
I0220 14:02:13.936507 22185 net.cpp:157] Top shape: 1 1 950 63 (59850)
I0220 14:02:13.936513 22185 net.cpp:157] Top shape: 1 100 38 63 (239400)
I0220 14:02:13.936519 22185 net.cpp:157] Top shape: 1 100 38 63 (239400)
I0220 14:02:13.936524 22185 net.cpp:157] Top shape: 1 100 38 63 (239400)
I0220 14:02:13.936527 22185 net.cpp:165] Memory required for data: 4081841092
I0220 14:02:13.936532 22185 layer_factory.hpp:77] Creating layer rpn_loss_cls
I0220 14:02:13.936552 22185 net.cpp:106] Creating Layer rpn_loss_cls
I0220 14:02:13.936556 22185 net.cpp:454] rpn_loss_cls <- rpn_cls_score_reshape
I0220 14:02:13.936563 22185 net.cpp:454] rpn_loss_cls <- rpn_labels
I0220 14:02:13.936571 22185 net.cpp:411] rpn_loss_cls -> rpn_cls_loss
…
