…
snapshot: 80000
snapshot_prefix: "vgg16_pascal_origin_480640"
average_loss: 100
I0211 13:09:00.642724 31276 solver.cpp:81] Creating training net from train_net file: models/pascal_voc/VGG16/rpn_origin/stage1_rpn_train.pt
I0211 13:09:00.643703 31276 net.cpp:49] Initializing net from parameters: 
name: "VGG_ILSVRC_16_layers"
state {
  phase: TRAIN
}
layer {
  name: "input-data"
  type: "Python"
  top: "data"
  top: "im_info"
  top: "gt_boxes"
  python_param {
    module: "roi_data_layer.layer"
    layer: "RoIDataLayer"
    param_str: "\'num_classes\': 21"
  }
}
layer {
  name: "conv1_1"
  type: "Convolution"
  bottom: "data"
  top: "conv1_1"
  param {
    lr_mult: 0
    decay_mult: 0
  }
  param {
    lr_mult: 0
    decay_mult: 0
  }
  convolution_param {
    num_output: 64
    pad: 1
    kernel_size: 3
  }
}
layer {
  name: "relu1_1"
  type: "ReLU"
  bottom: "conv1_1"
  top: "conv1_1"
}
layer {
  name: "conv1_2"
  type: "Convolution"
  bottom: "conv1_1"
  top: "conv1_2"
  param {
    lr_mult: 0
    decay_mult: 0
  }
  param {
    lr_mult: 0
    decay_mult: 0
  }
  convolution_param {
    num_output: 64
    pad: 1
    kernel_size: 3
  }
}
layer {
  name: "relu1_2"
  type: "ReLU"
  bottom: "conv1_2"
  top: "conv1_2"
}
layer {
  name: "pool1"
  type: "Pooling"
  bottom: "conv1_2"
  top: "pool1"
  pooling_param {
    pool: MAX
    kernel_size: 2
    stride: 2
  }
}
layer {
  name: "conv2_1"
  type: "Convolution"
  bottom: "pool1"
  top: "conv2_1"
  param {
    lr_mult: 0
    decay_mult: 0
  }
  param {
    lr_mult: 0
    decay_mult: 0
  }
  convolution_param {
    num_output: 128
    pad: 1
    kernel_size: 3
  }
}
layer {
  name: "relu2_1"
  type: "ReLU"
  bottom: "conv2_1"
  top: "conv2_1"
}
layer {
  name: "conv2_2"
  type: "Convolution"
  bottom: "conv2_1"
  top: "conv2_2"
  param {
    lr_mult: 0
    decay_mult: 0
  }
  param {
    lr_mult: 0
    decay_mult: 0
  }
  convolution_param {
    num_output: 128
    pad: 1
    kernel_size: 3
  }
}
layer {
  name: "relu2_2"
  type: "ReLU"
  bottom: "conv2_2"
  top: "conv2_2"
}
layer {
  name: "pool2"
  type: "Pooling"
  bottom: "conv2_2"
  top: "pool2"
  pooling_param {
    pool: MAX
    kernel_size: 2
    stride: 2
  }
}
layer {
  name: "conv3_1"
  type: "Convolution"
  bottom: "pool2"
  top: "conv3_1"
  param {
    lr_mult: 1
  }
  param {
    lr_mult: 2
  }
  convolution_param {
    num_output: 256
    pad: 1
    kernel_size: 3
  }
}
layer {
  name: "relu3_1"
  type: "ReLU"
  bottom: "conv3_1"
  top: "conv3_1"
}
layer {
  name: "conv3_2"
  type: "Convolution"
  bottom: "conv3_1"
  top: "conv3_2"
  param {
    lr_mult: 1
  }
  param {
    lr_mult: 2
  }
  convolution_param {
    num_output: 256
    pad: 1
    kernel_size: 3
  }
}
layer {
  name: "relu3_2"
  type: "ReLU"
  bottom: "conv3_2"
  top: "conv3_2"
}
layer {
  name: "conv3_3"
  type: "Convolution"
  bottom: "conv3_2"
  top: "conv3_3"
  param {
    lr_mult: 1
  }
  param {
    lr_mult: 2
  }
  convolution_param {
    num_output: 256
    pad: 1
    kernel_size: 3
  }
}
layer {
  name: "relu3_3"
  type: "ReLU"
  bottom: "conv3_3"
  top: "conv3_3"
}
layer {
  name: "pool3"
  type: "Pooling"
  bottom: "conv3_3"
  top: "pool3"
  pooling_param {
    pool: MAX
    kernel_size: 2
    stride: 2
  }
}
layer {
  name: "conv4_1"
  type: "Convolution"
  bottom: "pool3"
  top: "conv4_1"
  param {
    lr_mult: 1
  }
  param {
    lr_mult: 2
  }
  convolution_param {
    num_output: 512
    pad: 1
    kernel_size: 3
  }
}
layer {
  name: "relu4_1"
  type: "ReLU"
  bottom: "conv4_1"
  top: "conv4_1"
}
layer {
  name: "conv4_2"
  type: "Convolution"
  bottom: "conv4_1"
  top: "conv4_2"
  param {
    lr_mult: 1
  }
  param {
    lr_mult: 2
  }
  convolution_param {
    num_output: 512
    pad: 1
    kernel_size: 3
  }
}
layer {
  name: "relu4_2"
  type: "ReLU"
  bottom: "conv4_2"
  top: "conv4_2"
}
layer {
  name: "conv4_3"
  type: "Convolution"
  bottom: "conv4_2"
  top: "conv4_3"
  param {
    lr_mult: 1
  }
  param {
    lr_mult: 2
  }
  convolution_param {
    num_output: 512
    pad: 1
    kernel_size: 3
  }
}
layer {
  name: "relu4_3"
  type: "ReLU"
  bottom: "conv4_3"
  top: "conv4_3"
}
layer {
  name: "pool4"
  type: "Pooling"
  bottom: "conv4_3"
  top: "pool4"
  pooling_param {
    pool: MAX
    kernel_size: 2
    stride: 2
  }
}
layer {
  name: "conv5_1"
  type: "Convolution"
  bottom: "pool4"
  top: "conv5_1"
  param {
    lr_mult: 1
  }
  param {
    lr_mult: 2
  }
  convolution_param {
    num_output: 512
    pad: 1
    kernel_size: 3
  }
}
layer {
  name: "relu5_1"
  type: "ReLU"
  bottom: "conv5_1"
  top: "conv5_1"
}
layer {
  name: "conv5_2"
  type: "Convolution"
  bottom: "conv5_1"
  top: "conv5_2"
  param {
    lr_mult: 1
  }
  param {
    lr_mult: 2
  }
  convolution_param {
    num_output: 512
    pad: 1
    kernel_size: 3
  }
}
layer {
  name: "relu5_2"
  type: "ReLU"
  bottom: "conv5_2"
  top: "conv5_2"
}
layer {
  name: "conv5_3"
  type: "Convolution"
  bottom: "conv5_2"
  top: "conv5_3"
  param {
    lr_mult: 1
  }
  param {
    lr_mult: 2
  }
  convolution_param {
    num_output: 512
    pad: 1
    kernel_size: 3
  }
}
layer {
  name: "relu5_3"
  type: "ReLU"
  bottom: "conv5_3"
  top: "conv5_3"
}
layer {
  name: "rpn_conv/3x3"
  type: "Convolution"
  bottom: "conv5_3"
  top: "rpn/output"
  param {
    lr_mult: 1
  }
  param {
    lr_mult: 2
  }
  convolution_param {
    num_output: 512
    pad: 1
    kernel_size: 3
    stride: 1
    weight_filler {
      type: "gaussian"
      std: 0.01
    }
    bias_filler {
      type: "constant"
      value: 0
    }
  }
}
layer {
  name: "rpn_relu/3x3"
  type: "ReLU"
  bottom: "rpn/output"
  top: "rpn/output"
}
layer {
  name: "rpn_cls_score"
  type: "Convolution"
  bottom: "rpn/output"
  top: "rpn_cls_score"
  param {
    lr_mult: 1
  }
  param {
    lr_mult: 2
  }
  convolution_param {
    num_output: 18
    pad: 0
    kernel_size: 1
    stride: 1
    weight_filler {
      type: "gaussian"
      std: 0.01
    }
    bias_filler {
      type: "constant"
      value: 0
    }
  }
}
layer {
  name: "rpn_bbox_pred"
  type: "Convolution"
  bottom: "rpn/output"
  top: "rpn_bbox_pred"
  param {
    lr_mult: 1
  }
  param {
    lr_mult: 2
  }
  convolution_param {
    num_output: 36
    pad: 0
    kernel_size: 1
    stride: 1
    weight_filler {
      type: "gaussian"
      std: 0.01
    }
    bias_filler {
      type: "constant"
      value: 0
    }
  }
}
layer {
  name: "rpn_cls_score_reshape"
  type: "Reshape"
  bottom: "rpn_cls_score"
  top: "rpn_cls_score_reshape"
  reshape_param {
    shape {
      dim: 0
      dim: 2
      dim: -1
      dim: 0
    }
  }
}
layer {
  name: "rpn-data"
  type: "Python"
  bottom: "rpn_cls_score"
  bottom: "gt_boxes"
  bottom: "im_info"
  bottom: "data"
  top: "rpn_labels"
  top: "rpn_bbox_targets"
  top: "rpn_bbox_inside_weights"
  top: "rpn_bbox_outside_weights"
  python_param {
    module: "rpn.anchor_target_layer"
    layer: "AnchorTargetLayer"
    param_str: "{\"feat_stride\": 16,\"base_size\": 16, \"scales\": [4,8,16]}"
  }
}
layer {
  name: "rpn_loss_cls"
  type: "SoftmaxWithLoss"
  bottom: "rpn_cls_score_reshape"
  bottom: "rpn_labels"
  top: "rpn_cls_loss"
  loss_weight: 1
  propagate_down: true
  propagate_down: false
  loss_param {
    ignore_label: -1
    normalize: true
  }
}
layer {
  name: "rpn_loss_bbox"
  type: "SmoothL1Loss"
  bottom: "rpn_bbox_pred"
  bottom: "rpn_bbox_targets"
  bottom: "rpn_bbox_inside_weights"
  bottom: "rpn_bbox_outside_weights"
  top: "rpn_loss_bbox"
  loss_weight: 1
  smooth_l1_loss_param {
    sigma: 3
  }
}
I0211 13:09:00.643904 31276 layer_factory.hpp:77] Creating layer input-data
I0211 13:09:00.664914 31276 net.cpp:106] Creating Layer input-data
I0211 13:09:00.664937 31276 net.cpp:411] input-data -> data
I0211 13:09:00.664954 31276 net.cpp:411] input-data -> im_info
I0211 13:09:00.664963 31276 net.cpp:411] input-data -> gt_boxes
I0211 13:09:00.680831 31276 net.cpp:150] Setting up input-data
I0211 13:09:00.680861 31276 net.cpp:157] Top shape: 1 3 300 500 (450000)
I0211 13:09:00.680871 31276 net.cpp:157] Top shape: 1 3 (3)
I0211 13:09:00.680876 31276 net.cpp:157] Top shape: 1 4 (4)
I0211 13:09:00.680881 31276 net.cpp:165] Memory required for data: 1800028
I0211 13:09:00.680889 31276 layer_factory.hpp:77] Creating layer data_input-data_0_split
I0211 13:09:00.680912 31276 net.cpp:106] Creating Layer data_input-data_0_split
I0211 13:09:00.680920 31276 net.cpp:454] data_input-data_0_split <- data
I0211 13:09:00.680930 31276 net.cpp:411] data_input-data_0_split -> data_input-data_0_split_0
I0211 13:09:00.680943 31276 net.cpp:411] data_input-data_0_split -> data_input-data_0_split_1
I0211 13:09:00.681006 31276 net.cpp:150] Setting up data_input-data_0_split
I0211 13:09:00.681020 31276 net.cpp:157] Top shape: 1 3 300 500 (450000)
I0211 13:09:00.681027 31276 net.cpp:157] Top shape: 1 3 300 500 (450000)
I0211 13:09:00.681035 31276 net.cpp:165] Memory required for data: 5400028
I0211 13:09:00.681040 31276 layer_factory.hpp:77] Creating layer conv1_1
I0211 13:09:00.681058 31276 net.cpp:106] Creating Layer conv1_1
I0211 13:09:00.681066 31276 net.cpp:454] conv1_1 <- data_input-data_0_split_0
I0211 13:09:00.681074 31276 net.cpp:411] conv1_1 -> conv1_1
I0211 13:09:00.692091 31276 net.cpp:150] Setting up conv1_1
I0211 13:09:00.692113 31276 net.cpp:157] Top shape: 1 64 300 500 (9600000)
I0211 13:09:00.692119 31276 net.cpp:165] Memory required for data: 43800028
I0211 13:09:00.692137 31276 layer_factory.hpp:77] Creating layer relu1_1
I0211 13:09:00.692147 31276 net.cpp:106] Creating Layer relu1_1
I0211 13:09:00.692157 31276 net.cpp:454] relu1_1 <- conv1_1
I0211 13:09:00.692167 31276 net.cpp:397] relu1_1 -> conv1_1 (in-place)
I0211 13:09:00.692178 31276 net.cpp:150] Setting up relu1_1
I0211 13:09:00.692186 31276 net.cpp:157] Top shape: 1 64 300 500 (9600000)
I0211 13:09:00.692193 31276 net.cpp:165] Memory required for data: 82200028
I0211 13:09:00.692198 31276 layer_factory.hpp:77] Creating layer conv1_2
I0211 13:09:00.692209 31276 net.cpp:106] Creating Layer conv1_2
I0211 13:09:00.692219 31276 net.cpp:454] conv1_2 <- conv1_1
I0211 13:09:00.692226 31276 net.cpp:411] conv1_2 -> conv1_2
I0211 13:09:00.694020 31276 net.cpp:150] Setting up conv1_2
I0211 13:09:00.694037 31276 net.cpp:157] Top shape: 1 64 300 500 (9600000)
I0211 13:09:00.694044 31276 net.cpp:165] Memory required for data: 120600028
I0211 13:09:00.694058 31276 layer_factory.hpp:77] Creating layer relu1_2
I0211 13:09:00.694070 31276 net.cpp:106] Creating Layer relu1_2
I0211 13:09:00.694077 31276 net.cpp:454] relu1_2 <- conv1_2
I0211 13:09:00.694084 31276 net.cpp:397] relu1_2 -> conv1_2 (in-place)
I0211 13:09:00.694094 31276 net.cpp:150] Setting up relu1_2
I0211 13:09:00.694103 31276 net.cpp:157] Top shape: 1 64 300 500 (9600000)
I0211 13:09:00.694109 31276 net.cpp:165] Memory required for data: 159000028
I0211 13:09:00.694114 31276 layer_factory.hpp:77] Creating layer pool1
I0211 13:09:00.694124 31276 net.cpp:106] Creating Layer pool1
I0211 13:09:00.694131 31276 net.cpp:454] pool1 <- conv1_2
I0211 13:09:00.694140 31276 net.cpp:411] pool1 -> pool1
I0211 13:09:00.694213 31276 net.cpp:150] Setting up pool1
I0211 13:09:00.694226 31276 net.cpp:157] Top shape: 1 64 150 250 (2400000)
I0211 13:09:00.694232 31276 net.cpp:165] Memory required for data: 168600028
I0211 13:09:00.694238 31276 layer_factory.hpp:77] Creating layer conv2_1
I0211 13:09:00.694249 31276 net.cpp:106] Creating Layer conv2_1
I0211 13:09:00.694257 31276 net.cpp:454] conv2_1 <- pool1
I0211 13:09:00.694267 31276 net.cpp:411] conv2_1 -> conv2_1
I0211 13:09:00.694725 31276 net.cpp:150] Setting up conv2_1
I0211 13:09:00.694741 31276 net.cpp:157] Top shape: 1 128 150 250 (4800000)
I0211 13:09:00.694746 31276 net.cpp:165] Memory required for data: 187800028
I0211 13:09:00.694761 31276 layer_factory.hpp:77] Creating layer relu2_1
I0211 13:09:00.694772 31276 net.cpp:106] Creating Layer relu2_1
I0211 13:09:00.694778 31276 net.cpp:454] relu2_1 <- conv2_1
I0211 13:09:00.694788 31276 net.cpp:397] relu2_1 -> conv2_1 (in-place)
I0211 13:09:00.694797 31276 net.cpp:150] Setting up relu2_1
I0211 13:09:00.694806 31276 net.cpp:157] Top shape: 1 128 150 250 (4800000)
I0211 13:09:00.694811 31276 net.cpp:165] Memory required for data: 207000028
I0211 13:09:00.694816 31276 layer_factory.hpp:77] Creating layer conv2_2
I0211 13:09:00.694826 31276 net.cpp:106] Creating Layer conv2_2
I0211 13:09:00.694833 31276 net.cpp:454] conv2_2 <- conv2_1
I0211 13:09:00.694844 31276 net.cpp:411] conv2_2 -> conv2_2
I0211 13:09:00.695953 31276 net.cpp:150] Setting up conv2_2
I0211 13:09:00.695971 31276 net.cpp:157] Top shape: 1 128 150 250 (4800000)
I0211 13:09:00.695977 31276 net.cpp:165] Memory required for data: 226200028
I0211 13:09:00.695987 31276 layer_factory.hpp:77] Creating layer relu2_2
I0211 13:09:00.695997 31276 net.cpp:106] Creating Layer relu2_2
I0211 13:09:00.696003 31276 net.cpp:454] relu2_2 <- conv2_2
I0211 13:09:00.696014 31276 net.cpp:397] relu2_2 -> conv2_2 (in-place)
I0211 13:09:00.696024 31276 net.cpp:150] Setting up relu2_2
I0211 13:09:00.696033 31276 net.cpp:157] Top shape: 1 128 150 250 (4800000)
I0211 13:09:00.696039 31276 net.cpp:165] Memory required for data: 245400028
I0211 13:09:00.696044 31276 layer_factory.hpp:77] Creating layer pool2
I0211 13:09:00.696053 31276 net.cpp:106] Creating Layer pool2
I0211 13:09:00.696059 31276 net.cpp:454] pool2 <- conv2_2
I0211 13:09:00.696069 31276 net.cpp:411] pool2 -> pool2
I0211 13:09:00.696131 31276 net.cpp:150] Setting up pool2
I0211 13:09:00.696144 31276 net.cpp:157] Top shape: 1 128 75 125 (1200000)
I0211 13:09:00.696151 31276 net.cpp:165] Memory required for data: 250200028
I0211 13:09:00.696156 31276 layer_factory.hpp:77] Creating layer conv3_1
I0211 13:09:00.696173 31276 net.cpp:106] Creating Layer conv3_1
I0211 13:09:00.696182 31276 net.cpp:454] conv3_1 <- pool2
I0211 13:09:00.696189 31276 net.cpp:411] conv3_1 -> conv3_1
I0211 13:09:00.698070 31276 net.cpp:150] Setting up conv3_1
I0211 13:09:00.698086 31276 net.cpp:157] Top shape: 1 256 75 125 (2400000)
I0211 13:09:00.698092 31276 net.cpp:165] Memory required for data: 259800028
I0211 13:09:00.698106 31276 layer_factory.hpp:77] Creating layer relu3_1
I0211 13:09:00.698117 31276 net.cpp:106] Creating Layer relu3_1
I0211 13:09:00.698124 31276 net.cpp:454] relu3_1 <- conv3_1
I0211 13:09:00.698132 31276 net.cpp:397] relu3_1 -> conv3_1 (in-place)
I0211 13:09:00.698143 31276 net.cpp:150] Setting up relu3_1
I0211 13:09:00.698150 31276 net.cpp:157] Top shape: 1 256 75 125 (2400000)
I0211 13:09:00.698156 31276 net.cpp:165] Memory required for data: 269400028
I0211 13:09:00.698163 31276 layer_factory.hpp:77] Creating layer conv3_2
I0211 13:09:00.698174 31276 net.cpp:106] Creating Layer conv3_2
I0211 13:09:00.698181 31276 net.cpp:454] conv3_2 <- conv3_1
I0211 13:09:00.698189 31276 net.cpp:411] conv3_2 -> conv3_2
I0211 13:09:00.700136 31276 net.cpp:150] Setting up conv3_2
I0211 13:09:00.700153 31276 net.cpp:157] Top shape: 1 256 75 125 (2400000)
I0211 13:09:00.700160 31276 net.cpp:165] Memory required for data: 279000028
I0211 13:09:00.700170 31276 layer_factory.hpp:77] Creating layer relu3_2
I0211 13:09:00.700179 31276 net.cpp:106] Creating Layer relu3_2
I0211 13:09:00.700186 31276 net.cpp:454] relu3_2 <- conv3_2
I0211 13:09:00.700193 31276 net.cpp:397] relu3_2 -> conv3_2 (in-place)
I0211 13:09:00.700202 31276 net.cpp:150] Setting up relu3_2
I0211 13:09:00.700211 31276 net.cpp:157] Top shape: 1 256 75 125 (2400000)
I0211 13:09:00.700217 31276 net.cpp:165] Memory required for data: 288600028
I0211 13:09:00.700222 31276 layer_factory.hpp:77] Creating layer conv3_3
I0211 13:09:00.700235 31276 net.cpp:106] Creating Layer conv3_3
I0211 13:09:00.700244 31276 net.cpp:454] conv3_3 <- conv3_2
I0211 13:09:00.700253 31276 net.cpp:411] conv3_3 -> conv3_3
I0211 13:09:00.702142 31276 net.cpp:150] Setting up conv3_3
I0211 13:09:00.702159 31276 net.cpp:157] Top shape: 1 256 75 125 (2400000)
I0211 13:09:00.702167 31276 net.cpp:165] Memory required for data: 298200028
I0211 13:09:00.702177 31276 layer_factory.hpp:77] Creating layer relu3_3
I0211 13:09:00.702188 31276 net.cpp:106] Creating Layer relu3_3
I0211 13:09:00.702195 31276 net.cpp:454] relu3_3 <- conv3_3
I0211 13:09:00.702204 31276 net.cpp:397] relu3_3 -> conv3_3 (in-place)
I0211 13:09:00.702214 31276 net.cpp:150] Setting up relu3_3
I0211 13:09:00.702222 31276 net.cpp:157] Top shape: 1 256 75 125 (2400000)
I0211 13:09:00.702229 31276 net.cpp:165] Memory required for data: 307800028
I0211 13:09:00.702234 31276 layer_factory.hpp:77] Creating layer pool3
I0211 13:09:00.702245 31276 net.cpp:106] Creating Layer pool3
I0211 13:09:00.702252 31276 net.cpp:454] pool3 <- conv3_3
I0211 13:09:00.702260 31276 net.cpp:411] pool3 -> pool3
I0211 13:09:00.702320 31276 net.cpp:150] Setting up pool3
I0211 13:09:00.702333 31276 net.cpp:157] Top shape: 1 256 38 63 (612864)
I0211 13:09:00.702339 31276 net.cpp:165] Memory required for data: 310251484
I0211 13:09:00.702345 31276 layer_factory.hpp:77] Creating layer conv4_1
I0211 13:09:00.702358 31276 net.cpp:106] Creating Layer conv4_1
I0211 13:09:00.702365 31276 net.cpp:454] conv4_1 <- pool3
I0211 13:09:00.702373 31276 net.cpp:411] conv4_1 -> conv4_1
I0211 13:09:00.706297 31276 net.cpp:150] Setting up conv4_1
I0211 13:09:00.706320 31276 net.cpp:157] Top shape: 1 512 38 63 (1225728)
I0211 13:09:00.706324 31276 net.cpp:165] Memory required for data: 315154396
I0211 13:09:00.706333 31276 layer_factory.hpp:77] Creating layer relu4_1
I0211 13:09:00.706344 31276 net.cpp:106] Creating Layer relu4_1
I0211 13:09:00.706351 31276 net.cpp:454] relu4_1 <- conv4_1
I0211 13:09:00.706358 31276 net.cpp:397] relu4_1 -> conv4_1 (in-place)
I0211 13:09:00.706368 31276 net.cpp:150] Setting up relu4_1
I0211 13:09:00.706377 31276 net.cpp:157] Top shape: 1 512 38 63 (1225728)
I0211 13:09:00.706383 31276 net.cpp:165] Memory required for data: 320057308
I0211 13:09:00.706388 31276 layer_factory.hpp:77] Creating layer conv4_2
I0211 13:09:00.706401 31276 net.cpp:106] Creating Layer conv4_2
I0211 13:09:00.706408 31276 net.cpp:454] conv4_2 <- conv4_1
I0211 13:09:00.706418 31276 net.cpp:411] conv4_2 -> conv4_2
I0211 13:09:00.712537 31276 net.cpp:150] Setting up conv4_2
I0211 13:09:00.712561 31276 net.cpp:157] Top shape: 1 512 38 63 (1225728)
I0211 13:09:00.712568 31276 net.cpp:165] Memory required for data: 324960220
I0211 13:09:00.712584 31276 layer_factory.hpp:77] Creating layer relu4_2
I0211 13:09:00.712597 31276 net.cpp:106] Creating Layer relu4_2
I0211 13:09:00.712605 31276 net.cpp:454] relu4_2 <- conv4_2
I0211 13:09:00.712615 31276 net.cpp:397] relu4_2 -> conv4_2 (in-place)
I0211 13:09:00.712625 31276 net.cpp:150] Setting up relu4_2
I0211 13:09:00.712633 31276 net.cpp:157] Top shape: 1 512 38 63 (1225728)
I0211 13:09:00.712640 31276 net.cpp:165] Memory required for data: 329863132
I0211 13:09:00.712646 31276 layer_factory.hpp:77] Creating layer conv4_3
I0211 13:09:00.712661 31276 net.cpp:106] Creating Layer conv4_3
I0211 13:09:00.712667 31276 net.cpp:454] conv4_3 <- conv4_2
I0211 13:09:00.712676 31276 net.cpp:411] conv4_3 -> conv4_3
I0211 13:09:00.718997 31276 net.cpp:150] Setting up conv4_3
I0211 13:09:00.719030 31276 net.cpp:157] Top shape: 1 512 38 63 (1225728)
I0211 13:09:00.719036 31276 net.cpp:165] Memory required for data: 334766044
I0211 13:09:00.719049 31276 layer_factory.hpp:77] Creating layer relu4_3
I0211 13:09:00.719064 31276 net.cpp:106] Creating Layer relu4_3
I0211 13:09:00.719071 31276 net.cpp:454] relu4_3 <- conv4_3
I0211 13:09:00.719079 31276 net.cpp:397] relu4_3 -> conv4_3 (in-place)
I0211 13:09:00.719094 31276 net.cpp:150] Setting up relu4_3
I0211 13:09:00.719101 31276 net.cpp:157] Top shape: 1 512 38 63 (1225728)
I0211 13:09:00.719107 31276 net.cpp:165] Memory required for data: 339668956
I0211 13:09:00.719117 31276 layer_factory.hpp:77] Creating layer pool4
I0211 13:09:00.719126 31276 net.cpp:106] Creating Layer pool4
I0211 13:09:00.719131 31276 net.cpp:454] pool4 <- conv4_3
I0211 13:09:00.719141 31276 net.cpp:411] pool4 -> pool4
I0211 13:09:00.719208 31276 net.cpp:150] Setting up pool4
I0211 13:09:00.719220 31276 net.cpp:157] Top shape: 1 512 19 32 (311296)
I0211 13:09:00.719228 31276 net.cpp:165] Memory required for data: 340914140
I0211 13:09:00.719233 31276 layer_factory.hpp:77] Creating layer conv5_1
I0211 13:09:00.719244 31276 net.cpp:106] Creating Layer conv5_1
I0211 13:09:00.719251 31276 net.cpp:454] conv5_1 <- pool4
I0211 13:09:00.719261 31276 net.cpp:411] conv5_1 -> conv5_1
I0211 13:09:00.725402 31276 net.cpp:150] Setting up conv5_1
I0211 13:09:00.725430 31276 net.cpp:157] Top shape: 1 512 19 32 (311296)
I0211 13:09:00.725436 31276 net.cpp:165] Memory required for data: 342159324
I0211 13:09:00.725446 31276 layer_factory.hpp:77] Creating layer relu5_1
I0211 13:09:00.725462 31276 net.cpp:106] Creating Layer relu5_1
I0211 13:09:00.725469 31276 net.cpp:454] relu5_1 <- conv5_1
I0211 13:09:00.725479 31276 net.cpp:397] relu5_1 -> conv5_1 (in-place)
I0211 13:09:00.725491 31276 net.cpp:150] Setting up relu5_1
I0211 13:09:00.725498 31276 net.cpp:157] Top shape: 1 512 19 32 (311296)
I0211 13:09:00.725504 31276 net.cpp:165] Memory required for data: 343404508
I0211 13:09:00.725509 31276 layer_factory.hpp:77] Creating layer conv5_2
I0211 13:09:00.725523 31276 net.cpp:106] Creating Layer conv5_2
I0211 13:09:00.725530 31276 net.cpp:454] conv5_2 <- conv5_1
I0211 13:09:00.725538 31276 net.cpp:411] conv5_2 -> conv5_2
I0211 13:09:00.731669 31276 net.cpp:150] Setting up conv5_2
I0211 13:09:00.731701 31276 net.cpp:157] Top shape: 1 512 19 32 (311296)
I0211 13:09:00.731708 31276 net.cpp:165] Memory required for data: 344649692
I0211 13:09:00.731717 31276 layer_factory.hpp:77] Creating layer relu5_2
I0211 13:09:00.731731 31276 net.cpp:106] Creating Layer relu5_2
I0211 13:09:00.731739 31276 net.cpp:454] relu5_2 <- conv5_2
I0211 13:09:00.731750 31276 net.cpp:397] relu5_2 -> conv5_2 (in-place)
I0211 13:09:00.731760 31276 net.cpp:150] Setting up relu5_2
I0211 13:09:00.731770 31276 net.cpp:157] Top shape: 1 512 19 32 (311296)
I0211 13:09:00.731775 31276 net.cpp:165] Memory required for data: 345894876
I0211 13:09:00.731781 31276 layer_factory.hpp:77] Creating layer conv5_3
I0211 13:09:00.731793 31276 net.cpp:106] Creating Layer conv5_3
I0211 13:09:00.731801 31276 net.cpp:454] conv5_3 <- conv5_2
I0211 13:09:00.731807 31276 net.cpp:411] conv5_3 -> conv5_3
I0211 13:09:00.738157 31276 net.cpp:150] Setting up conv5_3
I0211 13:09:00.738199 31276 net.cpp:157] Top shape: 1 512 19 32 (311296)
I0211 13:09:00.738205 31276 net.cpp:165] Memory required for data: 347140060
I0211 13:09:00.738217 31276 layer_factory.hpp:77] Creating layer relu5_3
I0211 13:09:00.738230 31276 net.cpp:106] Creating Layer relu5_3
I0211 13:09:00.738237 31276 net.cpp:454] relu5_3 <- conv5_3
I0211 13:09:00.738251 31276 net.cpp:397] relu5_3 -> conv5_3 (in-place)
I0211 13:09:00.738265 31276 net.cpp:150] Setting up relu5_3
I0211 13:09:00.738273 31276 net.cpp:157] Top shape: 1 512 19 32 (311296)
I0211 13:09:00.738279 31276 net.cpp:165] Memory required for data: 348385244
I0211 13:09:00.738286 31276 layer_factory.hpp:77] Creating layer rpn_conv/3x3
I0211 13:09:00.738309 31276 net.cpp:106] Creating Layer rpn_conv/3x3
I0211 13:09:00.738317 31276 net.cpp:454] rpn_conv/3x3 <- conv5_3
I0211 13:09:00.738328 31276 net.cpp:411] rpn_conv/3x3 -> rpn/output
I0211 13:09:00.818285 31276 net.cpp:150] Setting up rpn_conv/3x3
I0211 13:09:00.818320 31276 net.cpp:157] Top shape: 1 512 19 32 (311296)
I0211 13:09:00.818325 31276 net.cpp:165] Memory required for data: 349630428
I0211 13:09:00.818339 31276 layer_factory.hpp:77] Creating layer rpn_relu/3x3
I0211 13:09:00.818354 31276 net.cpp:106] Creating Layer rpn_relu/3x3
I0211 13:09:00.818361 31276 net.cpp:454] rpn_relu/3x3 <- rpn/output
I0211 13:09:00.818374 31276 net.cpp:397] rpn_relu/3x3 -> rpn/output (in-place)
I0211 13:09:00.818389 31276 net.cpp:150] Setting up rpn_relu/3x3
I0211 13:09:00.818397 31276 net.cpp:157] Top shape: 1 512 19 32 (311296)
I0211 13:09:00.818403 31276 net.cpp:165] Memory required for data: 350875612
I0211 13:09:00.818408 31276 layer_factory.hpp:77] Creating layer rpn/output_rpn_relu/3x3_0_split
I0211 13:09:00.818415 31276 net.cpp:106] Creating Layer rpn/output_rpn_relu/3x3_0_split
I0211 13:09:00.818423 31276 net.cpp:454] rpn/output_rpn_relu/3x3_0_split <- rpn/output
I0211 13:09:00.818429 31276 net.cpp:411] rpn/output_rpn_relu/3x3_0_split -> rpn/output_rpn_relu/3x3_0_split_0
I0211 13:09:00.818441 31276 net.cpp:411] rpn/output_rpn_relu/3x3_0_split -> rpn/output_rpn_relu/3x3_0_split_1
I0211 13:09:00.818503 31276 net.cpp:150] Setting up rpn/output_rpn_relu/3x3_0_split
I0211 13:09:00.818516 31276 net.cpp:157] Top shape: 1 512 19 32 (311296)
I0211 13:09:00.818523 31276 net.cpp:157] Top shape: 1 512 19 32 (311296)
I0211 13:09:00.818529 31276 net.cpp:165] Memory required for data: 353365980
I0211 13:09:00.818536 31276 layer_factory.hpp:77] Creating layer rpn_cls_score
I0211 13:09:00.818554 31276 net.cpp:106] Creating Layer rpn_cls_score
I0211 13:09:00.818578 31276 net.cpp:454] rpn_cls_score <- rpn/output_rpn_relu/3x3_0_split_0
I0211 13:09:00.818588 31276 net.cpp:411] rpn_cls_score -> rpn_cls_score
I0211 13:09:00.819326 31276 net.cpp:150] Setting up rpn_cls_score
I0211 13:09:00.819340 31276 net.cpp:157] Top shape: 1 18 19 32 (10944)
I0211 13:09:00.819347 31276 net.cpp:165] Memory required for data: 353409756
I0211 13:09:00.819358 31276 layer_factory.hpp:77] Creating layer rpn_cls_score_rpn_cls_score_0_split
I0211 13:09:00.819370 31276 net.cpp:106] Creating Layer rpn_cls_score_rpn_cls_score_0_split
I0211 13:09:00.819376 31276 net.cpp:454] rpn_cls_score_rpn_cls_score_0_split <- rpn_cls_score
I0211 13:09:00.819385 31276 net.cpp:411] rpn_cls_score_rpn_cls_score_0_split -> rpn_cls_score_rpn_cls_score_0_split_0
I0211 13:09:00.819394 31276 net.cpp:411] rpn_cls_score_rpn_cls_score_0_split -> rpn_cls_score_rpn_cls_score_0_split_1
I0211 13:09:00.819455 31276 net.cpp:150] Setting up rpn_cls_score_rpn_cls_score_0_split
I0211 13:09:00.819468 31276 net.cpp:157] Top shape: 1 18 19 32 (10944)
I0211 13:09:00.819475 31276 net.cpp:157] Top shape: 1 18 19 32 (10944)
I0211 13:09:00.819481 31276 net.cpp:165] Memory required for data: 353497308
I0211 13:09:00.819486 31276 layer_factory.hpp:77] Creating layer rpn_bbox_pred
I0211 13:09:00.819501 31276 net.cpp:106] Creating Layer rpn_bbox_pred
I0211 13:09:00.819510 31276 net.cpp:454] rpn_bbox_pred <- rpn/output_rpn_relu/3x3_0_split_1
I0211 13:09:00.819519 31276 net.cpp:411] rpn_bbox_pred -> rpn_bbox_pred
I0211 13:09:00.820508 31276 net.cpp:150] Setting up rpn_bbox_pred
I0211 13:09:00.820521 31276 net.cpp:157] Top shape: 1 36 19 32 (21888)
I0211 13:09:00.820528 31276 net.cpp:165] Memory required for data: 353584860
I0211 13:09:00.820538 31276 layer_factory.hpp:77] Creating layer rpn_cls_score_reshape
I0211 13:09:00.820554 31276 net.cpp:106] Creating Layer rpn_cls_score_reshape
I0211 13:09:00.820560 31276 net.cpp:454] rpn_cls_score_reshape <- rpn_cls_score_rpn_cls_score_0_split_0
I0211 13:09:00.820570 31276 net.cpp:411] rpn_cls_score_reshape -> rpn_cls_score_reshape
I0211 13:09:00.820618 31276 net.cpp:150] Setting up rpn_cls_score_reshape
I0211 13:09:00.820631 31276 net.cpp:157] Top shape: 1 2 171 32 (10944)
I0211 13:09:00.820636 31276 net.cpp:165] Memory required for data: 353628636
I0211 13:09:00.820642 31276 layer_factory.hpp:77] Creating layer rpn-data
I0211 13:09:00.821339 31276 net.cpp:106] Creating Layer rpn-data
I0211 13:09:00.821354 31276 net.cpp:454] rpn-data <- rpn_cls_score_rpn_cls_score_0_split_1
I0211 13:09:00.821363 31276 net.cpp:454] rpn-data <- gt_boxes
I0211 13:09:00.821370 31276 net.cpp:454] rpn-data <- im_info
I0211 13:09:00.821377 31276 net.cpp:454] rpn-data <- data_input-data_0_split_1
I0211 13:09:00.821386 31276 net.cpp:411] rpn-data -> rpn_labels
I0211 13:09:00.821398 31276 net.cpp:411] rpn-data -> rpn_bbox_targets
I0211 13:09:00.821408 31276 net.cpp:411] rpn-data -> rpn_bbox_inside_weights
I0211 13:09:00.821424 31276 net.cpp:411] rpn-data -> rpn_bbox_outside_weights
I0211 13:09:00.824084 31276 net.cpp:150] Setting up rpn-data
I0211 13:09:00.824103 31276 net.cpp:157] Top shape: 1 1 171 32 (5472)
I0211 13:09:00.824112 31276 net.cpp:157] Top shape: 1 36 19 32 (21888)
I0211 13:09:00.824120 31276 net.cpp:157] Top shape: 1 36 19 32 (21888)
I0211 13:09:00.824127 31276 net.cpp:157] Top shape: 1 36 19 32 (21888)
I0211 13:09:00.824133 31276 net.cpp:165] Memory required for data: 353913180
I0211 13:09:00.824141 31276 layer_factory.hpp:77] Creating layer rpn_loss_cls
I0211 13:09:00.824152 31276 net.cpp:106] Creating Layer rpn_loss_cls
I0211 13:09:00.824159 31276 net.cpp:454] rpn_loss_cls <- rpn_cls_score_reshape
I0211 13:09:00.824167 31276 net.cpp:454] rpn_loss_cls <- rpn_labels
I0211 13:09:00.824175 31276 net.cpp:411] rpn_loss_cls -> rpn_cls_loss
…
