…
random_seed: 831486
stepvalue: 100000
stepvalue: 150000
type: "Nesterov"
I0215 10:12:15.922008 12693 solver.cpp:81] Creating training net from train_net file: models/pascal_voc/VGG16/dense37net/train_densenet.prototxt
I0215 10:12:15.926537 12693 net.cpp:49] Initializing net from parameters: 
name: "Densenet_37_layers"
state {
  phase: TRAIN
}
layer {
  name: "input-data"
  type: "Python"
  top: "data"
  top: "im_info"
  top: "gt_boxes"
  python_param {
    module: "roi_data_layer.layer"
    layer: "RoIDataLayer"
    param_str: "\'num_classes\': 21"
  }
}
layer {
  name: "Convolution1"
  type: "Convolution"
  bottom: "data"
  top: "Convolution1"
  convolution_param {
    num_output: 16
    bias_term: false
    pad: 1
    kernel_size: 3
    stride: 1
    weight_filler {
      type: "xavier"
    }
    bias_filler {
      type: "constant"
    }
  }
}
layer {
  name: "BatchNorm1"
  type: "BatchNorm"
  bottom: "Convolution1"
  top: "BatchNorm1"
  param {
    lr_mult: 0
    decay_mult: 0
  }
  param {
    lr_mult: 0
    decay_mult: 0
  }
  param {
    lr_mult: 0
    decay_mult: 0
  }
}
layer {
  name: "Scale1"
  type: "Scale"
  bottom: "BatchNorm1"
  top: "BatchNorm1"
  scale_param {
    filler {
      value: 1
    }
    bias_term: true
    bias_filler {
      value: 0
    }
  }
}
layer {
  name: "ReLU1"
  type: "ReLU"
  bottom: "BatchNorm1"
  top: "BatchNorm1"
}
layer {
  name: "Convolution2"
  type: "Convolution"
  bottom: "BatchNorm1"
  top: "Convolution2"
  convolution_param {
    num_output: 12
    bias_term: false
    pad: 1
    kernel_size: 3
    stride: 1
    weight_filler {
      type: "xavier"
    }
    bias_filler {
      type: "constant"
    }
  }
}
layer {
  name: "Dropout1"
  type: "Dropout"
  bottom: "Convolution2"
  top: "Dropout1"
  dropout_param {
    dropout_ratio: 0.2
  }
}
layer {
  name: "Concat1"
  type: "Concat"
  bottom: "Convolution1"
  bottom: "Dropout1"
  top: "Concat1"
  concat_param {
    axis: 1
  }
}
layer {
  name: "BatchNorm2"
  type: "BatchNorm"
  bottom: "Concat1"
  top: "BatchNorm2"
  param {
    lr_mult: 0
    decay_mult: 0
  }
  param {
    lr_mult: 0
    decay_mult: 0
  }
  param {
    lr_mult: 0
    decay_mult: 0
  }
}
layer {
  name: "Scale2"
  type: "Scale"
  bottom: "BatchNorm2"
  top: "BatchNorm2"
  scale_param {
    filler {
      value: 1
    }
    bias_term: true
    bias_filler {
      value: 0
    }
  }
}
layer {
  name: "ReLU2"
  type: "ReLU"
  bottom: "BatchNorm2"
  top: "BatchNorm2"
}
layer {
  name: "Convolution3"
  type: "Convolution"
  bottom: "BatchNorm2"
  top: "Convolution3"
  convolution_param {
    num_output: 12
    bias_term: false
    pad: 1
    kernel_size: 3
    stride: 1
    weight_filler {
      type: "xavier"
    }
    bias_filler {
      type: "constant"
    }
  }
}
layer {
  name: "Dropout2"
  type: "Dropout"
  bottom: "Convolution3"
  top: "Dropout2"
  dropout_param {
    dropout_ratio: 0.2
  }
}
layer {
  name: "Concat2"
  type: "Concat"
  bottom: "Concat1"
  bottom: "Dropout2"
  top: "Concat2"
  concat_param {
    axis: 1
  }
}
layer {
  name: "BatchNorm3"
  type: "BatchNorm"
  bottom: "Concat2"
  top: "BatchNorm3"
  param {
    lr_mult: 0
    decay_mult: 0
  }
  param {
    lr_mult: 0
    decay_mult: 0
  }
  param {
    lr_mult: 0
    decay_mult: 0
  }
}
layer {
  name: "Scale3"
  type: "Scale"
  bottom: "BatchNorm3"
  top: "BatchNorm3"
  scale_param {
    filler {
      value: 1
    }
    bias_term: true
    bias_filler {
      value: 0
    }
  }
}
layer {
  name: "ReLU3"
  type: "ReLU"
  bottom: "BatchNorm3"
  top: "BatchNorm3"
}
layer {
  name: "Convolution4"
  type: "Convolution"
  bottom: "BatchNorm3"
  top: "Convolution4"
  convolution_param {
    num_output: 12
    bias_term: false
    pad: 1
    kernel_size: 3
    stride: 1
    weight_filler {
      type: "xavier"
    }
    bias_filler {
      type: "constant"
    }
  }
}
layer {
  name: "Dropout3"
  type: "Dropout"
  bottom: "Convolution4"
  top: "Dropout3"
  dropout_param {
    dropout_ratio: 0.2
  }
}
layer {
  name: "Concat3"
  type: "Concat"
  bottom: "Concat2"
  bottom: "Dropout3"
  top: "Concat3"
  concat_param {
    axis: 1
  }
}
layer {
  name: "BatchNorm4"
  type: "BatchNorm"
  bottom: "Concat3"
  top: "BatchNorm4"
  param {
    lr_mult: 0
    decay_mult: 0
  }
  param {
    lr_mult: 0
    decay_mult: 0
  }
  param {
    lr_mult: 0
    decay_mult: 0
  }
}
layer {
  name: "Scale4"
  type: "Scale"
  bottom: "BatchNorm4"
  top: "BatchNorm4"
  scale_param {
    filler {
      value: 1
    }
    bias_term: true
    bias_filler {
      value: 0
    }
  }
}
layer {
  name: "ReLU4"
  type: "ReLU"
  bottom: "BatchNorm4"
  top: "BatchNorm4"
}
layer {
  name: "Convolution5"
  type: "Convolution"
  bottom: "BatchNorm4"
  top: "Convolution5"
  convolution_param {
    num_output: 12
    bias_term: false
    pad: 1
    kernel_size: 3
    stride: 1
    weight_filler {
      type: "xavier"
    }
    bias_filler {
      type: "constant"
    }
  }
}
layer {
  name: "Dropout4"
  type: "Dropout"
  bottom: "Convolution5"
  top: "Dropout4"
  dropout_param {
    dropout_ratio: 0.2
  }
}
layer {
  name: "Concat4"
  type: "Concat"
  bottom: "Concat3"
  bottom: "Dropout4"
  top: "Concat4"
  concat_param {
    axis: 1
  }
}
layer {
  name: "BatchNorm5"
  type: "BatchNorm"
  bottom: "Concat4"
  top: "BatchNorm5"
  param {
    lr_mult: 0
    decay_mult: 0
  }
  param {
    lr_mult: 0
    decay_mult: 0
  }
  param {
    lr_mult: 0
    decay_mult: 0
  }
}
layer {
  name: "Scale5"
  type: "Scale"
  bottom: "BatchNorm5"
  top: "BatchNorm5"
  scale_param {
    filler {
      value: 1
    }
    bias_term: true
    bias_filler {
      value: 0
    }
  }
}
layer {
  name: "ReLU5"
  type: "ReLU"
  bottom: "BatchNorm5"
  top: "BatchNorm5"
}
layer {
  name: "Convolution6"
  type: "Convolution"
  bottom: "BatchNorm5"
  top: "Convolution6"
  convolution_param {
    num_output: 12
    bias_term: false
    pad: 1
    kernel_size: 3
    stride: 1
    weight_filler {
      type: "xavier"
    }
    bias_filler {
      type: "constant"
    }
  }
}
layer {
  name: "Dropout5"
  type: "Dropout"
  bottom: "Convolution6"
  top: "Dropout5"
  dropout_param {
    dropout_ratio: 0.2
  }
}
layer {
  name: "Concat5"
  type: "Concat"
  bottom: "Concat4"
  bottom: "Dropout5"
  top: "Concat5"
  concat_param {
    axis: 1
  }
}
layer {
  name: "BatchNorm6"
  type: "BatchNorm"
  bottom: "Concat5"
  top: "BatchNorm6"
  param {
    lr_mult: 0
    decay_mult: 0
  }
  param {
    lr_mult: 0
    decay_mult: 0
  }
  param {
    lr_mult: 0
    decay_mult: 0
  }
}
layer {
  name: "Scale6"
  type: "Scale"
  bottom: "BatchNorm6"
  top: "BatchNorm6"
  scale_param {
    filler {
      value: 1
    }
    bias_term: true
    bias_filler {
      value: 0
    }
  }
}
layer {
  name: "ReLU6"
  type: "ReLU"
  bottom: "BatchNorm6"
  top: "BatchNorm6"
}
layer {
  name: "Convolution7"
  type: "Convolution"
  bottom: "BatchNorm6"
  top: "Convolution7"
  convolution_param {
    num_output: 12
    bias_term: false
    pad: 1
    kernel_size: 3
    stride: 1
    weight_filler {
      type: "xavier"
    }
    bias_filler {
      type: "constant"
    }
  }
}
layer {
  name: "Dropout6"
  type: "Dropout"
  bottom: "Convolution7"
  top: "Dropout6"
  dropout_param {
    dropout_ratio: 0.2
  }
}
layer {
  name: "Concat6"
  type: "Concat"
  bottom: "Concat5"
  bottom: "Dropout6"
  top: "Concat6"
  concat_param {
    axis: 1
  }
}
layer {
  name: "BatchNorm7"
  type: "BatchNorm"
  bottom: "Concat6"
  top: "BatchNorm7"
  param {
    lr_mult: 0
    decay_mult: 0
  }
  param {
    lr_mult: 0
    decay_mult: 0
  }
  param {
    lr_mult: 0
    decay_mult: 0
  }
}
layer {
  name: "Scale7"
  type: "Scale"
  bottom: "BatchNorm7"
  top: "BatchNorm7"
  scale_param {
    filler {
      value: 1
    }
    bias_term: true
    bias_filler {
      value: 0
    }
  }
}
layer {
  name: "ReLU7"
  type: "ReLU"
  bottom: "BatchNorm7"
  top: "BatchNorm7"
}
layer {
  name: "Convolution8"
  type: "Convolution"
  bottom: "BatchNorm7"
  top: "Convolution8"
  convolution_param {
    num_output: 12
    bias_term: false
    pad: 1
    kernel_size: 3
    stride: 1
    weight_filler {
      type: "xavier"
    }
    bias_filler {
      type: "constant"
    }
  }
}
layer {
  name: "Dropout7"
  type: "Dropout"
  bottom: "Convolution8"
  top: "Dropout7"
  dropout_param {
    dropout_ratio: 0.2
  }
}
layer {
  name: "Concat7"
  type: "Concat"
  bottom: "Concat6"
  bottom: "Dropout7"
  top: "Concat7"
  concat_param {
    axis: 1
  }
}
layer {
  name: "BatchNorm8"
  type: "BatchNorm"
  bottom: "Concat7"
  top: "BatchNorm8"
  param {
    lr_mult: 0
    decay_mult: 0
  }
  param {
    lr_mult: 0
    decay_mult: 0
  }
  param {
    lr_mult: 0
    decay_mult: 0
  }
}
layer {
  name: "Scale8"
  type: "Scale"
  bottom: "BatchNorm8"
  top: "BatchNorm8"
  scale_param {
    filler {
      value: 1
    }
    bias_term: true
    bias_filler {
      value: 0
    }
  }
}
layer {
  name: "ReLU8"
  type: "ReLU"
  bottom: "BatchNorm8"
  top: "BatchNorm8"
}
layer {
  name: "Convolution9"
  type: "Convolution"
  bottom: "BatchNorm8"
  top: "Convolution9"
  convolution_param {
    num_output: 12
    bias_term: false
    pad: 1
    kernel_size: 3
    stride: 1
    weight_filler {
      type: "xavier"
    }
    bias_filler {
      type: "constant"
    }
  }
}
layer {
  name: "Dropout8"
  type: "Dropout"
  bottom: "Convolution9"
  top: "Dropout8"
  dropout_param {
    dropout_ratio: 0.2
  }
}
layer {
  name: "Concat8"
  type: "Concat"
  bottom: "Concat7"
  bottom: "Dropout8"
  top: "Concat8"
  concat_param {
    axis: 1
  }
}
layer {
  name: "BatchNorm9"
  type: "BatchNorm"
  bottom: "Concat8"
  top: "BatchNorm9"
  param {
    lr_mult: 0
    decay_mult: 0
  }
  param {
    lr_mult: 0
    decay_mult: 0
  }
  param {
    lr_mult: 0
    decay_mult: 0
  }
}
layer {
  name: "Scale9"
  type: "Scale"
  bottom: "BatchNorm9"
  top: "BatchNorm9"
  scale_param {
    filler {
      value: 1
    }
    bias_term: true
    bias_filler {
      value: 0
    }
  }
}
layer {
  name: "ReLU9"
  type: "ReLU"
  bottom: "BatchNorm9"
  top: "BatchNorm9"
}
layer {
  name: "Convolution10"
  type: "Convolution"
  bottom: "BatchNorm9"
  top: "Convolution10"
  convolution_param {
    num_output: 112
    bias_term: false
    pad: 0
    kernel_size: 1
    stride: 1
    weight_filler {
      type: "xavier"
    }
    bias_filler {
      type: "constant"
    }
  }
}
layer {
  name: "Dropout9"
  type: "Dropout"
  bottom: "Convolution10"
  top: "Dropout9"
  dropout_param {
    dropout_ratio: 0.2
  }
}
layer {
  name: "Pooling1"
  type: "Pooling"
  bottom: "Dropout9"
  top: "Pooling1"
  pooling_param {
    pool: AVE
    kernel_size: 2
    stride: 2
  }
}
layer {
  name: "BatchNorm10"
  type: "BatchNorm"
  bottom: "Pooling1"
  top: "BatchNorm10"
  param {
    lr_mult: 0
    decay_mult: 0
  }
  param {
    lr_mult: 0
    decay_mult: 0
  }
  param {
    lr_mult: 0
    decay_mult: 0
  }
}
layer {
  name: "Scale10"
  type: "Scale"
  bottom: "BatchNorm10"
  top: "BatchNorm10"
  scale_param {
    filler {
      value: 1
    }
    bias_term: true
    bias_filler {
      value: 0
    }
  }
}
layer {
  name: "ReLU10"
  type: "ReLU"
  bottom: "BatchNorm10"
  top: "BatchNorm10"
}
layer {
  name: "Convolution11"
  type: "Convolution"
  bottom: "BatchNorm10"
  top: "Convolution11"
  convolution_param {
    num_output: 12
    bias_term: false
    pad: 1
    kernel_size: 3
    stride: 1
    weight_filler {
      type: "xavier"
    }
    bias_filler {
      type: "constant"
    }
  }
}
layer {
  name: "Dropout10"
  type: "Dropout"
  bottom: "Convolution11"
  top: "Dropout10"
  dropout_param {
    dropout_ratio: 0.2
  }
}
layer {
  name: "Concat9"
  type: "Concat"
  bottom: "Pooling1"
  bottom: "Dropout10"
  top: "Concat9"
  concat_param {
    axis: 1
  }
}
layer {
  name: "BatchNorm11"
  type: "BatchNorm"
  bottom: "Concat9"
  top: "BatchNorm11"
  param {
    lr_mult: 0
    decay_mult: 0
  }
  param {
    lr_mult: 0
    decay_mult: 0
  }
  param {
    lr_mult: 0
    decay_mult: 0
  }
}
layer {
  name: "Scale11"
  type: "Scale"
  bottom: "BatchNorm11"
  top: "BatchNorm11"
  scale_param {
    filler {
      value: 1
    }
    bias_term: true
    bias_filler {
      value: 0
    }
  }
}
layer {
  name: "ReLU11"
  type: "ReLU"
  bottom: "BatchNorm11"
  top: "BatchNorm11"
}
layer {
  name: "Convolution12"
  type: "Convolution"
  bottom: "BatchNorm11"
  top: "Convolution12"
  convolution_param {
    num_output: 12
    bias_term: false
    pad: 1
    kernel_size: 3
    stride: 1
    weight_filler {
      type: "xavier"
    }
    bias_filler {
      type: "constant"
    }
  }
}
layer {
  name: "Dropout11"
  type: "Dropout"
  bottom: "Convolution12"
  top: "Dropout11"
  dropout_param {
    dropout_ratio: 0.2
  }
}
layer {
  name: "Concat10"
  type: "Concat"
  bottom: "Concat9"
  bottom: "Dropout11"
  top: "Concat10"
  concat_param {
    axis: 1
  }
}
layer {
  name: "BatchNorm12"
  type: "BatchNorm"
  bottom: "Concat10"
  top: "BatchNorm12"
  param {
    lr_mult: 0
    decay_mult: 0
  }
  param {
    lr_mult: 0
    decay_mult: 0
  }
  param {
    lr_mult: 0
    decay_mult: 0
  }
}
layer {
  name: "Scale12"
  type: "Scale"
  bottom: "BatchNorm12"
  top: "BatchNorm12"
  scale_param {
    filler {
      value: 1
    }
    bias_term: true
    bias_filler {
      value: 0
    }
  }
}
layer {
  name: "ReLU12"
  type: "ReLU"
  bottom: "BatchNorm12"
  top: "BatchNorm12"
}
layer {
  name: "Convolution13"
  type: "Convolution"
  bottom: "BatchNorm12"
  top: "Convolution13"
  convolution_param {
    num_output: 12
    bias_term: false
    pad: 1
    kernel_size: 3
    stride: 1
    weight_filler {
      type: "xavier"
    }
    bias_filler {
      type: "constant"
    }
  }
}
layer {
  name: "Dropout12"
  type: "Dropout"
  bottom: "Convolution13"
  top: "Dropout12"
  dropout_param {
    dropout_ratio: 0.2
  }
}
layer {
  name: "Concat11"
  type: "Concat"
  bottom: "Concat10"
  bottom: "Dropout12"
  top: "Concat11"
  concat_param {
    axis: 1
  }
}
layer {
  name: "BatchNorm13"
  type: "BatchNorm"
  bottom: "Concat11"
  top: "BatchNorm13"
  param {
    lr_mult: 0
    decay_mult: 0
  }
  param {
    lr_mult: 0
    decay_mult: 0
  }
  param {
    lr_mult: 0
    decay_mult: 0
  }
}
layer {
  name: "Scale13"
  type: "Scale"
  bottom: "BatchNorm13"
  top: "BatchNorm13"
  scale_param {
    filler {
      value: 1
    }
    bias_term: true
    bias_filler {
      value: 0
    }
  }
}
layer {
  name: "ReLU13"
  type: "ReLU"
  bottom: "BatchNorm13"
  top: "BatchNorm13"
}
layer {
  name: "Convolution14"
  type: "Convolution"
  bottom: "BatchNorm13"
  top: "Convolution14"
  convolution_param {
    num_output: 12
    bias_term: false
    pad: 1
    kernel_size: 3
    stride: 1
    weight_filler {
      type: "xavier"
    }
    bias_filler {
      type: "constant"
    }
  }
}
layer {
  name: "Dropout13"
  type: "Dropout"
  bottom: "Convolution14"
  top: "Dropout13"
  dropout_param {
    dropout_ratio: 0.2
  }
}
layer {
  name: "Concat12"
  type: "Concat"
  bottom: "Concat11"
  bottom: "Dropout13"
  top: "Concat12"
  concat_param {
    axis: 1
  }
}
layer {
  name: "BatchNorm14"
  type: "BatchNorm"
  bottom: "Concat12"
  top: "BatchNorm14"
  param {
    lr_mult: 0
    decay_mult: 0
  }
  param {
    lr_mult: 0
    decay_mult: 0
  }
  param {
    lr_mult: 0
    decay_mult: 0
  }
}
layer {
  name: "Scale14"
  type: "Scale"
  bottom: "BatchNorm14"
  top: "BatchNorm14"
  scale_param {
    filler {
      value: 1
    }
    bias_term: true
    bias_filler {
      value: 0
    }
  }
}
layer {
  name: "ReLU14"
  type: "ReLU"
  bottom: "BatchNorm14"
  top: "BatchNorm14"
}
layer {
  name: "Convolution15"
  type: "Convolution"
  bottom: "BatchNorm14"
  top: "Convolution15"
  convolution_param {
    num_output: 12
    bias_term: false
    pad: 1
    kernel_size: 3
    stride: 1
    weight_filler {
      type: "xavier"
    }
    bias_filler {
      type: "constant"
    }
  }
}
layer {
  name: "Dropout14"
  type: "Dropout"
  bottom: "Convolution15"
  top: "Dropout14"
  dropout_param {
    dropout_ratio: 0.2
  }
}
layer {
  name: "Concat13"
  type: "Concat"
  bottom: "Concat12"
  bottom: "Dropout14"
  top: "Concat13"
  concat_param {
    axis: 1
  }
}
layer {
  name: "BatchNorm15"
  type: "BatchNorm"
  bottom: "Concat13"
  top: "BatchNorm15"
  param {
    lr_mult: 0
    decay_mult: 0
  }
  param {
    lr_mult: 0
    decay_mult: 0
  }
  param {
    lr_mult: 0
    decay_mult: 0
  }
}
layer {
  name: "Scale15"
  type: "Scale"
  bottom: "BatchNorm15"
  top: "BatchNorm15"
  scale_param {
    filler {
      value: 1
    }
    bias_term: true
    bias_filler {
      value: 0
    }
  }
}
layer {
  name: "ReLU15"
  type: "ReLU"
  bottom: "BatchNorm15"
  top: "BatchNorm15"
}
layer {
  name: "Convolution16"
  type: "Convolution"
  bottom: "BatchNorm15"
  top: "Convolution16"
  convolution_param {
    num_output: 12
    bias_term: false
    pad: 1
    kernel_size: 3
    stride: 1
    weight_filler {
      type: "xavier"
    }
    bias_filler {
      type: "constant"
    }
  }
}
layer {
  name: "Dropout15"
  type: "Dropout"
  bottom: "Convolution16"
  top: "Dropout15"
  dropout_param {
    dropout_ratio: 0.2
  }
}
layer {
  name: "Concat14"
  type: "Concat"
  bottom: "Concat13"
  bottom: "Dropout15"
  top: "Concat14"
  concat_param {
    axis: 1
  }
}
layer {
  name: "BatchNorm16"
  type: "BatchNorm"
  bottom: "Concat14"
  top: "BatchNorm16"
  param {
    lr_mult: 0
    decay_mult: 0
  }
  param {
    lr_mult: 0
    decay_mult: 0
  }
  param {
    lr_mult: 0
    decay_mult: 0
  }
}
layer {
  name: "Scale16"
  type: "Scale"
  bottom: "BatchNorm16"
  top: "BatchNorm16"
  scale_param {
    filler {
      value: 1
    }
    bias_term: true
    bias_filler {
      value: 0
    }
  }
}
layer {
  name: "ReLU16"
  type: "ReLU"
  bottom: "BatchNorm16"
  top: "BatchNorm16"
}
layer {
  name: "Convolution17"
  type: "Convolution"
  bottom: "BatchNorm16"
  top: "Convolution17"
  convolution_param {
    num_output: 12
    bias_term: false
    pad: 1
    kernel_size: 3
    stride: 1
    weight_filler {
      type: "xavier"
    }
    bias_filler {
      type: "constant"
    }
  }
}
layer {
  name: "Dropout16"
  type: "Dropout"
  bottom: "Convolution17"
  top: "Dropout16"
  dropout_param {
    dropout_ratio: 0.2
  }
}
layer {
  name: "Concat15"
  type: "Concat"
  bottom: "Concat14"
  bottom: "Dropout16"
  top: "Concat15"
  concat_param {
    axis: 1
  }
}
layer {
  name: "BatchNorm17"
  type: "BatchNorm"
  bottom: "Concat15"
  top: "BatchNorm17"
  param {
    lr_mult: 0
    decay_mult: 0
  }
  param {
    lr_mult: 0
    decay_mult: 0
  }
  param {
    lr_mult: 0
    decay_mult: 0
  }
}
layer {
  name: "Scale17"
  type: "Scale"
  bottom: "BatchNorm17"
  top: "BatchNorm17"
  scale_param {
    filler {
      value: 1
    }
    bias_term: true
    bias_filler {
      value: 0
    }
  }
}
layer {
  name: "ReLU17"
  type: "ReLU"
  bottom: "BatchNorm17"
  top: "BatchNorm17"
}
layer {
  name: "Convolution18"
  type: "Convolution"
  bottom: "BatchNorm17"
  top: "Convolution18"
  convolution_param {
    num_output: 12
    bias_term: false
    pad: 1
    kernel_size: 3
    stride: 1
    weight_filler {
      type: "xavier"
    }
    bias_filler {
      type: "constant"
    }
  }
}
layer {
  name: "Dropout17"
  type: "Dropout"
  bottom: "Convolution18"
  top: "Dropout17"
  dropout_param {
    dropout_ratio: 0.2
  }
}
layer {
  name: "Concat16"
  type: "Concat"
  bottom: "Concat15"
  bottom: "Dropout17"
  top: "Concat16"
  concat_param {
    axis: 1
  }
}
layer {
  name: "BatchNorm18"
  type: "BatchNorm"
  bottom: "Concat16"
  top: "BatchNorm18"
  param {
    lr_mult: 0
    decay_mult: 0
  }
  param {
    lr_mult: 0
    decay_mult: 0
  }
  param {
    lr_mult: 0
    decay_mult: 0
  }
}
layer {
  name: "Scale18"
  type: "Scale"
  bottom: "BatchNorm18"
  top: "BatchNorm18"
  scale_param {
    filler {
      value: 1
    }
    bias_term: true
    bias_filler {
      value: 0
    }
  }
}
layer {
  name: "ReLU18"
  type: "ReLU"
  bottom: "BatchNorm18"
  top: "BatchNorm18"
}
layer {
  name: "Convolution19"
  type: "Convolution"
  bottom: "BatchNorm18"
  top: "Convolution19"
  convolution_param {
    num_output: 208
    bias_term: false
    pad: 0
    kernel_size: 1
    stride: 1
    weight_filler {
      type: "xavier"
    }
    bias_filler {
      type: "constant"
    }
  }
}
layer {
  name: "Dropout18"
  type: "Dropout"
  bottom: "Convolution19"
  top: "Dropout18"
  dropout_param {
    dropout_ratio: 0.2
  }
}
layer {
  name: "Pooling2"
  type: "Pooling"
  bottom: "Dropout18"
  top: "Pooling2"
  pooling_param {
    pool: AVE
    kernel_size: 2
    stride: 2
  }
}
layer {
  name: "BatchNorm19"
  type: "BatchNorm"
  bottom: "Pooling2"
  top: "BatchNorm19"
  param {
    lr_mult: 0
    decay_mult: 0
  }
  param {
    lr_mult: 0
    decay_mult: 0
  }
  param {
    lr_mult: 0
    decay_mult: 0
  }
}
layer {
  name: "Scale19"
  type: "Scale"
  bottom: "BatchNorm19"
  top: "BatchNorm19"
  scale_param {
    filler {
      value: 1
    }
    bias_term: true
    bias_filler {
      value: 0
    }
  }
}
layer {
  name: "ReLU19"
  type: "ReLU"
  bottom: "BatchNorm19"
  top: "BatchNorm19"
}
layer {
  name: "Convolution20"
  type: "Convolution"
  bottom: "BatchNorm19"
  top: "Convolution20"
  convolution_param {
    num_output: 12
    bias_term: false
    pad: 1
    kernel_size: 3
    stride: 1
    weight_filler {
      type: "xavier"
    }
    bias_filler {
      type: "constant"
    }
  }
}
layer {
  name: "Dropout19"
  type: "Dropout"
  bottom: "Convolution20"
  top: "Dropout19"
  dropout_param {
    dropout_ratio: 0.2
  }
}
layer {
  name: "Concat17"
  type: "Concat"
  bottom: "Pooling2"
  bottom: "Dropout19"
  top: "Concat17"
  concat_param {
    axis: 1
  }
}
layer {
  name: "BatchNorm20"
  type: "BatchNorm"
  bottom: "Concat17"
  top: "BatchNorm20"
  param {
    lr_mult: 0
    decay_mult: 0
  }
  param {
    lr_mult: 0
    decay_mult: 0
  }
  param {
    lr_mult: 0
    decay_mult: 0
  }
}
layer {
  name: "Scale20"
  type: "Scale"
  bottom: "BatchNorm20"
  top: "BatchNorm20"
  scale_param {
    filler {
      value: 1
    }
    bias_term: true
    bias_filler {
      value: 0
    }
  }
}
layer {
  name: "ReLU20"
  type: "ReLU"
  bottom: "BatchNorm20"
  top: "BatchNorm20"
}
layer {
  name: "Convolution21"
  type: "Convolution"
  bottom: "BatchNorm20"
  top: "Convolution21"
  convolution_param {
    num_output: 12
    bias_term: false
    pad: 1
    kernel_size: 3
    stride: 1
    weight_filler {
      type: "xavier"
    }
    bias_filler {
      type: "constant"
    }
  }
}
layer {
  name: "Dropout20"
  type: "Dropout"
  bottom: "Convolution21"
  top: "Dropout20"
  dropout_param {
    dropout_ratio: 0.2
  }
}
layer {
  name: "Concat18"
  type: "Concat"
  bottom: "Concat17"
  bottom: "Dropout20"
  top: "Concat18"
  concat_param {
    axis: 1
  }
}
layer {
  name: "BatchNorm21"
  type: "BatchNorm"
  bottom: "Concat18"
  top: "BatchNorm21"
  param {
    lr_mult: 0
    decay_mult: 0
  }
  param {
    lr_mult: 0
    decay_mult: 0
  }
  param {
    lr_mult: 0
    decay_mult: 0
  }
}
layer {
  name: "Scale21"
  type: "Scale"
  bottom: "BatchNorm21"
  top: "BatchNorm21"
  scale_param {
    filler {
      value: 1
    }
    bias_term: true
    bias_filler {
      value: 0
    }
  }
}
layer {
  name: "ReLU21"
  type: "ReLU"
  bottom: "BatchNorm21"
  top: "BatchNorm21"
}
layer {
  name: "Convolution22"
  type: "Convolution"
  bottom: "BatchNorm21"
  top: "Convolution22"
  convolution_param {
    num_output: 12
    bias_term: false
    pad: 1
    kernel_size: 3
    stride: 1
    weight_filler {
      type: "xavier"
    }
    bias_filler {
      type: "constant"
    }
  }
}
layer {
  name: "Dropout21"
  type: "Dropout"
  bottom: "Convolution22"
  top: "Dropout21"
  dropout_param {
    dropout_ratio: 0.2
  }
}
layer {
  name: "Concat19"
  type: "Concat"
  bottom: "Concat18"
  bottom: "Dropout21"
  top: "Concat19"
  concat_param {
    axis: 1
  }
}
layer {
  name: "BatchNorm22"
  type: "BatchNorm"
  bottom: "Concat19"
  top: "BatchNorm22"
  param {
    lr_mult: 0
    decay_mult: 0
  }
  param {
    lr_mult: 0
    decay_mult: 0
  }
  param {
    lr_mult: 0
    decay_mult: 0
  }
}
layer {
  name: "Scale22"
  type: "Scale"
  bottom: "BatchNorm22"
  top: "BatchNorm22"
  scale_param {
    filler {
      value: 1
    }
    bias_term: true
    bias_filler {
      value: 0
    }
  }
}
layer {
  name: "ReLU22"
  type: "ReLU"
  bottom: "BatchNorm22"
  top: "BatchNorm22"
}
layer {
  name: "Convolution23"
  type: "Convolution"
  bottom: "BatchNorm22"
  top: "Convolution23"
  convolution_param {
    num_output: 12
    bias_term: false
    pad: 1
    kernel_size: 3
    stride: 1
    weight_filler {
      type: "xavier"
    }
    bias_filler {
      type: "constant"
    }
  }
}
layer {
  name: "Dropout22"
  type: "Dropout"
  bottom: "Convolution23"
  top: "Dropout22"
  dropout_param {
    dropout_ratio: 0.2
  }
}
layer {
  name: "Concat20"
  type: "Concat"
  bottom: "Concat19"
  bottom: "Dropout22"
  top: "Concat20"
  concat_param {
    axis: 1
  }
}
layer {
  name: "BatchNorm23"
  type: "BatchNorm"
  bottom: "Concat20"
  top: "BatchNorm23"
  param {
    lr_mult: 0
    decay_mult: 0
  }
  param {
    lr_mult: 0
    decay_mult: 0
  }
  param {
    lr_mult: 0
    decay_mult: 0
  }
}
layer {
  name: "Scale23"
  type: "Scale"
  bottom: "BatchNorm23"
  top: "BatchNorm23"
  scale_param {
    filler {
      value: 1
    }
    bias_term: true
    bias_filler {
      value: 0
    }
  }
}
layer {
  name: "ReLU23"
  type: "ReLU"
  bottom: "BatchNorm23"
  top: "BatchNorm23"
}
layer {
  name: "Convolution24"
  type: "Convolution"
  bottom: "BatchNorm23"
  top: "Convolution24"
  convolution_param {
    num_output: 12
    bias_term: false
    pad: 1
    kernel_size: 3
    stride: 1
    weight_filler {
      type: "xavier"
    }
    bias_filler {
      type: "constant"
    }
  }
}
layer {
  name: "Dropout23"
  type: "Dropout"
  bottom: "Convolution24"
  top: "Dropout23"
  dropout_param {
    dropout_ratio: 0.2
  }
}
layer {
  name: "Concat21"
  type: "Concat"
  bottom: "Concat20"
  bottom: "Dropout23"
  top: "Concat21"
  concat_param {
    axis: 1
  }
}
layer {
  name: "BatchNorm24"
  type: "BatchNorm"
  bottom: "Concat21"
  top: "BatchNorm24"
  param {
    lr_mult: 0
    decay_mult: 0
  }
  param {
    lr_mult: 0
    decay_mult: 0
  }
  param {
    lr_mult: 0
    decay_mult: 0
  }
}
layer {
  name: "Scale24"
  type: "Scale"
  bottom: "BatchNorm24"
  top: "BatchNorm24"
  scale_param {
    filler {
      value: 1
    }
    bias_term: true
    bias_filler {
      value: 0
    }
  }
}
layer {
  name: "ReLU24"
  type: "ReLU"
  bottom: "BatchNorm24"
  top: "BatchNorm24"
}
layer {
  name: "Convolution25"
  type: "Convolution"
  bottom: "BatchNorm24"
  top: "Convolution25"
  convolution_param {
    num_output: 12
    bias_term: false
    pad: 1
    kernel_size: 3
    stride: 1
    weight_filler {
      type: "xavier"
    }
    bias_filler {
      type: "constant"
    }
  }
}
layer {
  name: "Dropout24"
  type: "Dropout"
  bottom: "Convolution25"
  top: "Dropout24"
  dropout_param {
    dropout_ratio: 0.2
  }
}
layer {
  name: "Concat22"
  type: "Concat"
  bottom: "Concat21"
  bottom: "Dropout24"
  top: "Concat22"
  concat_param {
    axis: 1
  }
}
layer {
  name: "BatchNorm25"
  type: "BatchNorm"
  bottom: "Concat22"
  top: "BatchNorm25"
  param {
    lr_mult: 0
    decay_mult: 0
  }
  param {
    lr_mult: 0
    decay_mult: 0
  }
  param {
    lr_mult: 0
    decay_mult: 0
  }
}
layer {
  name: "Scale25"
  type: "Scale"
  bottom: "BatchNorm25"
  top: "BatchNorm25"
  scale_param {
    filler {
      value: 1
    }
    bias_term: true
    bias_filler {
      value: 0
    }
  }
}
layer {
  name: "ReLU25"
  type: "ReLU"
  bottom: "BatchNorm25"
  top: "BatchNorm25"
}
layer {
  name: "Convolution26"
  type: "Convolution"
  bottom: "BatchNorm25"
  top: "Convolution26"
  convolution_param {
    num_output: 12
    bias_term: false
    pad: 1
    kernel_size: 3
    stride: 1
    weight_filler {
      type: "xavier"
    }
    bias_filler {
      type: "constant"
    }
  }
}
layer {
  name: "Dropout25"
  type: "Dropout"
  bottom: "Convolution26"
  top: "Dropout25"
  dropout_param {
    dropout_ratio: 0.2
  }
}
layer {
  name: "Concat23"
  type: "Concat"
  bottom: "Concat22"
  bottom: "Dropout25"
  top: "Concat23"
  concat_param {
    axis: 1
  }
}
layer {
  name: "BatchNorm26"
  type: "BatchNorm"
  bottom: "Concat23"
  top: "BatchNorm26"
  param {
    lr_mult: 0
    decay_mult: 0
  }
  param {
    lr_mult: 0
    decay_mult: 0
  }
  param {
    lr_mult: 0
    decay_mult: 0
  }
}
layer {
  name: "Scale26"
  type: "Scale"
  bottom: "BatchNorm26"
  top: "BatchNorm26"
  scale_param {
    filler {
      value: 1
    }
    bias_term: true
    bias_filler {
      value: 0
    }
  }
}
layer {
  name: "ReLU26"
  type: "ReLU"
  bottom: "BatchNorm26"
  top: "BatchNorm26"
}
layer {
  name: "Convolution27"
  type: "Convolution"
  bottom: "BatchNorm26"
  top: "Convolution27"
  convolution_param {
    num_output: 12
    bias_term: false
    pad: 1
    kernel_size: 3
    stride: 1
    weight_filler {
      type: "xavier"
    }
    bias_filler {
      type: "constant"
    }
  }
}
layer {
  name: "Dropout26"
  type: "Dropout"
  bottom: "Convolution27"
  top: "Dropout26"
  dropout_param {
    dropout_ratio: 0.2
  }
}
layer {
  name: "Concat24"
  type: "Concat"
  bottom: "Concat23"
  bottom: "Dropout26"
  top: "Concat24"
  concat_param {
    axis: 1
  }
}
layer {
  name: "BatchNorm27"
  type: "BatchNorm"
  bottom: "Concat24"
  top: "BatchNorm27"
  param {
    lr_mult: 0
    decay_mult: 0
  }
  param {
    lr_mult: 0
    decay_mult: 0
  }
  param {
    lr_mult: 0
    decay_mult: 0
  }
}
layer {
  name: "Scale27"
  type: "Scale"
  bottom: "BatchNorm27"
  top: "BatchNorm27"
  scale_param {
    filler {
      value: 1
    }
    bias_term: true
    bias_filler {
      value: 0
    }
  }
}
layer {
  name: "ReLU27"
  type: "ReLU"
  bottom: "BatchNorm27"
  top: "BatchNorm27"
}
layer {
  name: "Convolution28"
  type: "Convolution"
  bottom: "BatchNorm27"
  top: "Convolution28"
  convolution_param {
 
I0215 10:12:15.927799 12693 layer_factory.hpp:77] Creating layer input-data
I0215 10:12:15.946758 12693 net.cpp:106] Creating Layer input-data
I0215 10:12:15.946776 12693 net.cpp:411] input-data -> data
I0215 10:12:15.946794 12693 net.cpp:411] input-data -> im_info
I0215 10:12:15.946805 12693 net.cpp:411] input-data -> gt_boxes
I0215 10:12:15.960115 12693 net.cpp:150] Setting up input-data
I0215 10:12:15.960155 12693 net.cpp:157] Top shape: 1 3 300 500 (450000)
I0215 10:12:15.960162 12693 net.cpp:157] Top shape: 1 3 (3)
I0215 10:12:15.960168 12693 net.cpp:157] Top shape: 1 4 (4)
I0215 10:12:15.960175 12693 net.cpp:165] Memory required for data: 1800028
I0215 10:12:15.960185 12693 layer_factory.hpp:77] Creating layer data_input-data_0_split
I0215 10:12:15.960206 12693 net.cpp:106] Creating Layer data_input-data_0_split
I0215 10:12:15.960213 12693 net.cpp:454] data_input-data_0_split <- data
I0215 10:12:15.960227 12693 net.cpp:411] data_input-data_0_split -> data_input-data_0_split_0
I0215 10:12:15.960242 12693 net.cpp:411] data_input-data_0_split -> data_input-data_0_split_1
I0215 10:12:15.960302 12693 net.cpp:150] Setting up data_input-data_0_split
I0215 10:12:15.960319 12693 net.cpp:157] Top shape: 1 3 300 500 (450000)
I0215 10:12:15.960331 12693 net.cpp:157] Top shape: 1 3 300 500 (450000)
I0215 10:12:15.960340 12693 net.cpp:165] Memory required for data: 5400028
I0215 10:12:15.960350 12693 layer_factory.hpp:77] Creating layer Convolution1
I0215 10:12:15.960371 12693 net.cpp:106] Creating Layer Convolution1
I0215 10:12:15.960379 12693 net.cpp:454] Convolution1 <- data_input-data_0_split_0
I0215 10:12:15.960397 12693 net.cpp:411] Convolution1 -> Convolution1
I0215 10:12:15.961359 12693 net.cpp:150] Setting up Convolution1
I0215 10:12:15.961376 12693 net.cpp:157] Top shape: 1 16 300 500 (2400000)
I0215 10:12:15.961386 12693 net.cpp:165] Memory required for data: 15000028
I0215 10:12:15.961405 12693 layer_factory.hpp:77] Creating layer Convolution1_Convolution1_0_split
I0215 10:12:15.961417 12693 net.cpp:106] Creating Layer Convolution1_Convolution1_0_split
I0215 10:12:15.961426 12693 net.cpp:454] Convolution1_Convolution1_0_split <- Convolution1
I0215 10:12:15.961442 12693 net.cpp:411] Convolution1_Convolution1_0_split -> Convolution1_Convolution1_0_split_0
I0215 10:12:15.961455 12693 net.cpp:411] Convolution1_Convolution1_0_split -> Convolution1_Convolution1_0_split_1
I0215 10:12:15.961514 12693 net.cpp:150] Setting up Convolution1_Convolution1_0_split
I0215 10:12:15.961527 12693 net.cpp:157] Top shape: 1 16 300 500 (2400000)
I0215 10:12:15.961539 12693 net.cpp:157] Top shape: 1 16 300 500 (2400000)
I0215 10:12:15.961547 12693 net.cpp:165] Memory required for data: 34200028
I0215 10:12:15.961556 12693 layer_factory.hpp:77] Creating layer BatchNorm1
I0215 10:12:15.961575 12693 net.cpp:106] Creating Layer BatchNorm1
I0215 10:12:15.961583 12693 net.cpp:454] BatchNorm1 <- Convolution1_Convolution1_0_split_0
I0215 10:12:15.961596 12693 net.cpp:411] BatchNorm1 -> BatchNorm1
I0215 10:12:15.962638 12693 net.cpp:150] Setting up BatchNorm1
I0215 10:12:15.962658 12693 net.cpp:157] Top shape: 1 16 300 500 (2400000)
I0215 10:12:15.962668 12693 net.cpp:165] Memory required for data: 43800028
I0215 10:12:15.962689 12693 layer_factory.hpp:77] Creating layer Scale1
I0215 10:12:15.962704 12693 net.cpp:106] Creating Layer Scale1
I0215 10:12:15.962713 12693 net.cpp:454] Scale1 <- BatchNorm1
I0215 10:12:15.962729 12693 net.cpp:397] Scale1 -> BatchNorm1 (in-place)
I0215 10:12:15.962800 12693 layer_factory.hpp:77] Creating layer Scale1
I0215 10:12:15.964432 12693 net.cpp:150] Setting up Scale1
I0215 10:12:15.964449 12693 net.cpp:157] Top shape: 1 16 300 500 (2400000)
I0215 10:12:15.964459 12693 net.cpp:165] Memory required for data: 53400028
I0215 10:12:15.964478 12693 layer_factory.hpp:77] Creating layer ReLU1
I0215 10:12:15.964493 12693 net.cpp:106] Creating Layer ReLU1
I0215 10:12:15.964501 12693 net.cpp:454] ReLU1 <- BatchNorm1
I0215 10:12:15.964514 12693 net.cpp:397] ReLU1 -> BatchNorm1 (in-place)
I0215 10:12:15.964534 12693 net.cpp:150] Setting up ReLU1
I0215 10:12:15.964543 12693 net.cpp:157] Top shape: 1 16 300 500 (2400000)
I0215 10:12:15.964552 12693 net.cpp:165] Memory required for data: 63000028
I0215 10:12:15.964560 12693 layer_factory.hpp:77] Creating layer Convolution2
I0215 10:12:15.964579 12693 net.cpp:106] Creating Layer Convolution2
I0215 10:12:15.964586 12693 net.cpp:454] Convolution2 <- BatchNorm1
I0215 10:12:15.964601 12693 net.cpp:411] Convolution2 -> Convolution2
I0215 10:12:15.965533 12693 net.cpp:150] Setting up Convolution2
I0215 10:12:15.965549 12693 net.cpp:157] Top shape: 1 12 300 500 (1800000)
I0215 10:12:15.965559 12693 net.cpp:165] Memory required for data: 70200028
I0215 10:12:15.965572 12693 layer_factory.hpp:77] Creating layer Dropout1
I0215 10:12:15.965593 12693 net.cpp:106] Creating Layer Dropout1
I0215 10:12:15.965601 12693 net.cpp:454] Dropout1 <- Convolution2
I0215 10:12:15.965615 12693 net.cpp:411] Dropout1 -> Dropout1
I0215 10:12:15.965672 12693 net.cpp:150] Setting up Dropout1
I0215 10:12:15.965685 12693 net.cpp:157] Top shape: 1 12 300 500 (1800000)
I0215 10:12:15.965694 12693 net.cpp:165] Memory required for data: 77400028
I0215 10:12:15.965703 12693 layer_factory.hpp:77] Creating layer Concat1
I0215 10:12:15.965716 12693 net.cpp:106] Creating Layer Concat1
I0215 10:12:15.965724 12693 net.cpp:454] Concat1 <- Convolution1_Convolution1_0_split_1
I0215 10:12:15.965734 12693 net.cpp:454] Concat1 <- Dropout1
I0215 10:12:15.965749 12693 net.cpp:411] Concat1 -> Concat1
I0215 10:12:15.965790 12693 net.cpp:150] Setting up Concat1
I0215 10:12:15.965802 12693 net.cpp:157] Top shape: 1 28 300 500 (4200000)
I0215 10:12:15.965811 12693 net.cpp:165] Memory required for data: 94200028
I0215 10:12:15.965821 12693 layer_factory.hpp:77] Creating layer Concat1_Concat1_0_split
I0215 10:12:15.965837 12693 net.cpp:106] Creating Layer Concat1_Concat1_0_split
I0215 10:12:15.965843 12693 net.cpp:454] Concat1_Concat1_0_split <- Concat1
I0215 10:12:15.965855 12693 net.cpp:411] Concat1_Concat1_0_split -> Concat1_Concat1_0_split_0
I0215 10:12:15.965867 12693 net.cpp:411] Concat1_Concat1_0_split -> Concat1_Concat1_0_split_1
I0215 10:12:15.965922 12693 net.cpp:150] Setting up Concat1_Concat1_0_split
I0215 10:12:15.965934 12693 net.cpp:157] Top shape: 1 28 300 500 (4200000)
I0215 10:12:15.965945 12693 net.cpp:157] Top shape: 1 28 300 500 (4200000)
I0215 10:12:15.965953 12693 net.cpp:165] Memory required for data: 127800028
I0215 10:12:15.965962 12693 layer_factory.hpp:77] Creating layer BatchNorm2
I0215 10:12:15.965978 12693 net.cpp:106] Creating Layer BatchNorm2
I0215 10:12:15.965986 12693 net.cpp:454] BatchNorm2 <- Concat1_Concat1_0_split_0
I0215 10:12:15.965997 12693 net.cpp:411] BatchNorm2 -> BatchNorm2
I0215 10:12:15.967025 12693 net.cpp:150] Setting up BatchNorm2
I0215 10:12:15.967041 12693 net.cpp:157] Top shape: 1 28 300 500 (4200000)
I0215 10:12:15.967051 12693 net.cpp:165] Memory required for data: 144600028
I0215 10:12:15.967070 12693 layer_factory.hpp:77] Creating layer Scale2
I0215 10:12:15.967083 12693 net.cpp:106] Creating Layer Scale2
I0215 10:12:15.967092 12693 net.cpp:454] Scale2 <- BatchNorm2
I0215 10:12:15.967108 12693 net.cpp:397] Scale2 -> BatchNorm2 (in-place)
I0215 10:12:15.967171 12693 layer_factory.hpp:77] Creating layer Scale2
I0215 10:12:15.968770 12693 net.cpp:150] Setting up Scale2
I0215 10:12:15.968789 12693 net.cpp:157] Top shape: 1 28 300 500 (4200000)
I0215 10:12:15.968798 12693 net.cpp:165] Memory required for data: 161400028
I0215 10:12:15.968814 12693 layer_factory.hpp:77] Creating layer ReLU2
I0215 10:12:15.968827 12693 net.cpp:106] Creating Layer ReLU2
I0215 10:12:15.968834 12693 net.cpp:454] ReLU2 <- BatchNorm2
I0215 10:12:15.968847 12693 net.cpp:397] ReLU2 -> BatchNorm2 (in-place)
I0215 10:12:15.968858 12693 net.cpp:150] Setting up ReLU2
I0215 10:12:15.968868 12693 net.cpp:157] Top shape: 1 28 300 500 (4200000)
I0215 10:12:15.968875 12693 net.cpp:165] Memory required for data: 178200028
I0215 10:12:15.968884 12693 layer_factory.hpp:77] Creating layer Convolution3
I0215 10:12:15.968904 12693 net.cpp:106] Creating Layer Convolution3
I0215 10:12:15.968910 12693 net.cpp:454] Convolution3 <- BatchNorm2
I0215 10:12:15.968924 12693 net.cpp:411] Convolution3 -> Convolution3
I0215 10:12:15.969208 12693 net.cpp:150] Setting up Convolution3
I0215 10:12:15.969223 12693 net.cpp:157] Top shape: 1 12 300 500 (1800000)
I0215 10:12:15.969230 12693 net.cpp:165] Memory required for data: 185400028
I0215 10:12:15.969244 12693 layer_factory.hpp:77] Creating layer Dropout2
I0215 10:12:15.969254 12693 net.cpp:106] Creating Layer Dropout2
I0215 10:12:15.969262 12693 net.cpp:454] Dropout2 <- Convolution3
I0215 10:12:15.969277 12693 net.cpp:411] Dropout2 -> Dropout2
I0215 10:12:15.969337 12693 net.cpp:150] Setting up Dropout2
I0215 10:12:15.969350 12693 net.cpp:157] Top shape: 1 12 300 500 (1800000)
I0215 10:12:15.969358 12693 net.cpp:165] Memory required for data: 192600028
I0215 10:12:15.969367 12693 layer_factory.hpp:77] Creating layer Concat2
I0215 10:12:15.969383 12693 net.cpp:106] Creating Layer Concat2
I0215 10:12:15.969389 12693 net.cpp:454] Concat2 <- Concat1_Concat1_0_split_1
I0215 10:12:15.969400 12693 net.cpp:454] Concat2 <- Dropout2
I0215 10:12:15.969414 12693 net.cpp:411] Concat2 -> Concat2
I0215 10:12:15.969452 12693 net.cpp:150] Setting up Concat2
I0215 10:12:15.969465 12693 net.cpp:157] Top shape: 1 40 300 500 (6000000)
I0215 10:12:15.969473 12693 net.cpp:165] Memory required for data: 216600028
I0215 10:12:15.969482 12693 layer_factory.hpp:77] Creating layer Concat2_Concat2_0_split
I0215 10:12:15.969494 12693 net.cpp:106] Creating Layer Concat2_Concat2_0_split
I0215 10:12:15.969502 12693 net.cpp:454] Concat2_Concat2_0_split <- Concat2
I0215 10:12:15.969517 12693 net.cpp:411] Concat2_Concat2_0_split -> Concat2_Concat2_0_split_0
I0215 10:12:15.969529 12693 net.cpp:411] Concat2_Concat2_0_split -> Concat2_Concat2_0_split_1
I0215 10:12:15.969588 12693 net.cpp:150] Setting up Concat2_Concat2_0_split
I0215 10:12:15.969600 12693 net.cpp:157] Top shape: 1 40 300 500 (6000000)
I0215 10:12:15.969610 12693 net.cpp:157] Top shape: 1 40 300 500 (6000000)
I0215 10:12:15.969619 12693 net.cpp:165] Memory required for data: 264600028
I0215 10:12:15.969626 12693 layer_factory.hpp:77] Creating layer BatchNorm3
I0215 10:12:15.969641 12693 net.cpp:106] Creating Layer BatchNorm3
I0215 10:12:15.969650 12693 net.cpp:454] BatchNorm3 <- Concat2_Concat2_0_split_0
I0215 10:12:15.969661 12693 net.cpp:411] BatchNorm3 -> BatchNorm3
I0215 10:12:15.970681 12693 net.cpp:150] Setting up BatchNorm3
I0215 10:12:15.970696 12693 net.cpp:157] Top shape: 1 40 300 500 (6000000)
I0215 10:12:15.970710 12693 net.cpp:165] Memory required for data: 288600028
I0215 10:12:15.970727 12693 layer_factory.hpp:77] Creating layer Scale3
I0215 10:12:15.970742 12693 net.cpp:106] Creating Layer Scale3
I0215 10:12:15.970751 12693 net.cpp:454] Scale3 <- BatchNorm3
I0215 10:12:15.970765 12693 net.cpp:397] Scale3 -> BatchNorm3 (in-place)
I0215 10:12:15.970829 12693 layer_factory.hpp:77] Creating layer Scale3
I0215 10:12:15.972473 12693 net.cpp:150] Setting up Scale3
I0215 10:12:15.972491 12693 net.cpp:157] Top shape: 1 40 300 500 (6000000)
I0215 10:12:15.972501 12693 net.cpp:165] Memory required for data: 312600028
I0215 10:12:15.972522 12693 layer_factory.hpp:77] Creating layer ReLU3
I0215 10:12:15.972534 12693 net.cpp:106] Creating Layer ReLU3
I0215 10:12:15.972543 12693 net.cpp:454] ReLU3 <- BatchNorm3
I0215 10:12:15.972554 12693 net.cpp:397] ReLU3 -> BatchNorm3 (in-place)
I0215 10:12:15.972568 12693 net.cpp:150] Setting up ReLU3
I0215 10:12:15.972578 12693 net.cpp:157] Top shape: 1 40 300 500 (6000000)
I0215 10:12:15.972585 12693 net.cpp:165] Memory required for data: 336600028
I0215 10:12:15.972594 12693 layer_factory.hpp:77] Creating layer Convolution4
I0215 10:12:15.972612 12693 net.cpp:106] Creating Layer Convolution4
I0215 10:12:15.972620 12693 net.cpp:454] Convolution4 <- BatchNorm3
I0215 10:12:15.972635 12693 net.cpp:411] Convolution4 -> Convolution4
I0215 10:12:15.973577 12693 net.cpp:150] Setting up Convolution4
I0215 10:12:15.973592 12693 net.cpp:157] Top shape: 1 12 300 500 (1800000)
I0215 10:12:15.973601 12693 net.cpp:165] Memory required for data: 343800028
I0215 10:12:15.973614 12693 layer_factory.hpp:77] Creating layer Dropout3
I0215 10:12:15.973629 12693 net.cpp:106] Creating Layer Dropout3
I0215 10:12:15.973637 12693 net.cpp:454] Dropout3 <- Convolution4
I0215 10:12:15.973649 12693 net.cpp:411] Dropout3 -> Dropout3
I0215 10:12:15.973711 12693 net.cpp:150] Setting up Dropout3
I0215 10:12:15.973722 12693 net.cpp:157] Top shape: 1 12 300 500 (1800000)
I0215 10:12:15.973731 12693 net.cpp:165] Memory required for data: 351000028
I0215 10:12:15.973740 12693 layer_factory.hpp:77] Creating layer Concat3
I0215 10:12:15.973757 12693 net.cpp:106] Creating Layer Concat3
I0215 10:12:15.973764 12693 net.cpp:454] Concat3 <- Concat2_Concat2_0_split_1
I0215 10:12:15.973775 12693 net.cpp:454] Concat3 <- Dropout3
I0215 10:12:15.973786 12693 net.cpp:411] Concat3 -> Concat3
I0215 10:12:15.973825 12693 net.cpp:150] Setting up Concat3
I0215 10:12:15.973837 12693 net.cpp:157] Top shape: 1 52 300 500 (7800000)
I0215 10:12:15.973846 12693 net.cpp:165] Memory required for data: 382200028
I0215 10:12:15.973855 12693 layer_factory.hpp:77] Creating layer Concat3_Concat3_0_split
I0215 10:12:15.973871 12693 net.cpp:106] Creating Layer Concat3_Concat3_0_split
I0215 10:12:15.973879 12693 net.cpp:454] Concat3_Concat3_0_split <- Concat3
I0215 10:12:15.973891 12693 net.cpp:411] Concat3_Concat3_0_split -> Concat3_Concat3_0_split_0
I0215 10:12:15.973903 12693 net.cpp:411] Concat3_Concat3_0_split -> Concat3_Concat3_0_split_1
I0215 10:12:15.973963 12693 net.cpp:150] Setting up Concat3_Concat3_0_split
I0215 10:12:15.973975 12693 net.cpp:157] Top shape: 1 52 300 500 (7800000)
I0215 10:12:15.973985 12693 net.cpp:157] Top shape: 1 52 300 500 (7800000)
I0215 10:12:15.973994 12693 net.cpp:165] Memory required for data: 444600028
I0215 10:12:15.974002 12693 layer_factory.hpp:77] Creating layer BatchNorm4
I0215 10:12:15.974019 12693 net.cpp:106] Creating Layer BatchNorm4
I0215 10:12:15.974026 12693 net.cpp:454] BatchNorm4 <- Concat3_Concat3_0_split_0
I0215 10:12:15.974041 12693 net.cpp:411] BatchNorm4 -> BatchNorm4
I0215 10:12:15.975106 12693 net.cpp:150] Setting up BatchNorm4
I0215 10:12:15.975122 12693 net.cpp:157] Top shape: 1 52 300 500 (7800000)
I0215 10:12:15.975132 12693 net.cpp:165] Memory required for data: 475800028
I0215 10:12:15.975149 12693 layer_factory.hpp:77] Creating layer Scale4
I0215 10:12:15.975164 12693 net.cpp:106] Creating Layer Scale4
I0215 10:12:15.975172 12693 net.cpp:454] Scale4 <- BatchNorm4
I0215 10:12:15.975184 12693 net.cpp:397] Scale4 -> BatchNorm4 (in-place)
I0215 10:12:15.975250 12693 layer_factory.hpp:77] Creating layer Scale4
I0215 10:12:15.976891 12693 net.cpp:150] Setting up Scale4
I0215 10:12:15.976907 12693 net.cpp:157] Top shape: 1 52 300 500 (7800000)
I0215 10:12:15.976918 12693 net.cpp:165] Memory required for data: 507000028
I0215 10:12:15.976933 12693 layer_factory.hpp:77] Creating layer ReLU4
I0215 10:12:15.976948 12693 net.cpp:106] Creating Layer ReLU4
I0215 10:12:15.976956 12693 net.cpp:454] ReLU4 <- BatchNorm4
I0215 10:12:15.976969 12693 net.cpp:397] ReLU4 -> BatchNorm4 (in-place)
I0215 10:12:15.976981 12693 net.cpp:150] Setting up ReLU4
I0215 10:12:15.976991 12693 net.cpp:157] Top shape: 1 52 300 500 (7800000)
I0215 10:12:15.976999 12693 net.cpp:165] Memory required for data: 538200028
I0215 10:12:15.977008 12693 layer_factory.hpp:77] Creating layer Convolution5
I0215 10:12:15.977027 12693 net.cpp:106] Creating Layer Convolution5
I0215 10:12:15.977035 12693 net.cpp:454] Convolution5 <- BatchNorm4
I0215 10:12:15.977048 12693 net.cpp:411] Convolution5 -> Convolution5
I0215 10:12:15.977356 12693 net.cpp:150] Setting up Convolution5
I0215 10:12:15.977370 12693 net.cpp:157] Top shape: 1 12 300 500 (1800000)
I0215 10:12:15.977378 12693 net.cpp:165] Memory required for data: 545400028
I0215 10:12:15.977391 12693 layer_factory.hpp:77] Creating layer Dropout4
I0215 10:12:15.977404 12693 net.cpp:106] Creating Layer Dropout4
I0215 10:12:15.977412 12693 net.cpp:454] Dropout4 <- Convolution5
I0215 10:12:15.977427 12693 net.cpp:411] Dropout4 -> Dropout4
I0215 10:12:15.977485 12693 net.cpp:150] Setting up Dropout4
I0215 10:12:15.977499 12693 net.cpp:157] Top shape: 1 12 300 500 (1800000)
I0215 10:12:15.977506 12693 net.cpp:165] Memory required for data: 552600028
I0215 10:12:15.977516 12693 layer_factory.hpp:77] Creating layer Concat4
I0215 10:12:15.977531 12693 net.cpp:106] Creating Layer Concat4
I0215 10:12:15.977540 12693 net.cpp:454] Concat4 <- Concat3_Concat3_0_split_1
I0215 10:12:15.977550 12693 net.cpp:454] Concat4 <- Dropout4
I0215 10:12:15.977565 12693 net.cpp:411] Concat4 -> Concat4
I0215 10:12:15.977604 12693 net.cpp:150] Setting up Concat4
I0215 10:12:15.977617 12693 net.cpp:157] Top shape: 1 64 300 500 (9600000)
I0215 10:12:15.977625 12693 net.cpp:165] Memory required for data: 591000028
I0215 10:12:15.977634 12693 layer_factory.hpp:77] Creating layer Concat4_Concat4_0_split
I0215 10:12:15.977646 12693 net.cpp:106] Creating Layer Concat4_Concat4_0_split
I0215 10:12:15.977654 12693 net.cpp:454] Concat4_Concat4_0_split <- Concat4
I0215 10:12:15.977669 12693 net.cpp:411] Concat4_Concat4_0_split -> Concat4_Concat4_0_split_0
I0215 10:12:15.977681 12693 net.cpp:411] Concat4_Concat4_0_split -> Concat4_Concat4_0_split_1
I0215 10:12:15.977738 12693 net.cpp:150] Setting up Concat4_Concat4_0_split
I0215 10:12:15.977753 12693 net.cpp:157] Top shape: 1 64 300 500 (9600000)
I0215 10:12:15.977763 12693 net.cpp:157] Top shape: 1 64 300 500 (9600000)
I0215 10:12:15.977772 12693 net.cpp:165] Memory required for data: 667800028
I0215 10:12:15.977782 12693 layer_factory.hpp:77] Creating layer BatchNorm5
I0215 10:12:15.977799 12693 net.cpp:106] Creating Layer BatchNorm5
I0215 10:12:15.977807 12693 net.cpp:454] BatchNorm5 <- Concat4_Concat4_0_split_0
I0215 10:12:15.977818 12693 net.cpp:411] BatchNorm5 -> BatchNorm5
I0215 10:12:15.978827 12693 net.cpp:150] Setting up BatchNorm5
I0215 10:12:15.978844 12693 net.cpp:157] Top shape: 1 64 300 500 (9600000)
I0215 10:12:15.978853 12693 net.cpp:165] Memory required for data: 706200028
I0215 10:12:15.978870 12693 layer_factory.hpp:77] Creating layer Scale5
I0215 10:12:15.978885 12693 net.cpp:106] Creating Layer Scale5
I0215 10:12:15.978893 12693 net.cpp:454] Scale5 <- BatchNorm5
I0215 10:12:15.978906 12693 net.cpp:397] Scale5 -> BatchNorm5 (in-place)
I0215 10:12:15.978973 12693 layer_factory.hpp:77] Creating layer Scale5
I0215 10:12:15.980587 12693 net.cpp:150] Setting up Scale5
I0215 10:12:15.980604 12693 net.cpp:157] Top shape: 1 64 300 500 (9600000)
I0215 10:12:15.980613 12693 net.cpp:165] Memory required for data: 744600028
I0215 10:12:15.980629 12693 layer_factory.hpp:77] Creating layer ReLU5
I0215 10:12:15.980640 12693 net.cpp:106] Creating Layer ReLU5
I0215 10:12:15.980648 12693 net.cpp:454] ReLU5 <- BatchNorm5
I0215 10:12:15.980660 12693 net.cpp:397] ReLU5 -> BatchNorm5 (in-place)
I0215 10:12:15.980672 12693 net.cpp:150] Setting up ReLU5
I0215 10:12:15.980684 12693 net.cpp:157] Top shape: 1 64 300 500 (9600000)
I0215 10:12:15.980691 12693 net.cpp:165] Memory required for data: 783000028
I0215 10:12:15.980700 12693 layer_factory.hpp:77] Creating layer Convolution6
I0215 10:12:15.980720 12693 net.cpp:106] Creating Layer Convolution6
I0215 10:12:15.980726 12693 net.cpp:454] Convolution6 <- BatchNorm5
I0215 10:12:15.980743 12693 net.cpp:411] Convolution6 -> Convolution6
I0215 10:12:15.981062 12693 net.cpp:150] Setting up Convolution6
I0215 10:12:15.981076 12693 net.cpp:157] Top shape: 1 12 300 500 (1800000)
I0215 10:12:15.981086 12693 net.cpp:165] Memory required for data: 790200028
I0215 10:12:15.981097 12693 layer_factory.hpp:77] Creating layer Dropout5
I0215 10:12:15.981109 12693 net.cpp:106] Creating Layer Dropout5
I0215 10:12:15.981118 12693 net.cpp:454] Dropout5 <- Convolution6
I0215 10:12:15.981134 12693 net.cpp:411] Dropout5 -> Dropout5
I0215 10:12:15.981195 12693 net.cpp:150] Setting up Dropout5
I0215 10:12:15.981209 12693 net.cpp:157] Top shape: 1 12 300 500 (1800000)
I0215 10:12:15.981217 12693 net.cpp:165] Memory required for data: 797400028
I0215 10:12:15.981227 12693 layer_factory.hpp:77] Creating layer Concat5
I0215 10:12:15.981240 12693 net.cpp:106] Creating Layer Concat5
I0215 10:12:15.981248 12693 net.cpp:454] Concat5 <- Concat4_Concat4_0_split_1
I0215 10:12:15.981258 12693 net.cpp:454] Concat5 <- Dropout5
I0215 10:12:15.981272 12693 net.cpp:411] Concat5 -> Concat5
I0215 10:12:15.981314 12693 net.cpp:150] Setting up Concat5
I0215 10:12:15.981325 12693 net.cpp:157] Top shape: 1 76 300 500 (11400000)
I0215 10:12:15.981330 12693 net.cpp:165] Memory required for data: 843000028
I0215 10:12:15.981335 12693 layer_factory.hpp:77] Creating layer Concat5_Concat5_0_split
I0215 10:12:15.981345 12693 net.cpp:106] Creating Layer Concat5_Concat5_0_split
I0215 10:12:15.981353 12693 net.cpp:454] Concat5_Concat5_0_split <- Concat5
I0215 10:12:15.981361 12693 net.cpp:411] Concat5_Concat5_0_split -> Concat5_Concat5_0_split_0
I0215 10:12:15.981370 12693 net.cpp:411] Concat5_Concat5_0_split -> Concat5_Concat5_0_split_1
I0215 10:12:15.981426 12693 net.cpp:150] Setting up Concat5_Concat5_0_split
I0215 10:12:15.981436 12693 net.cpp:157] Top shape: 1 76 300 500 (11400000)
I0215 10:12:15.981443 12693 net.cpp:157] Top shape: 1 76 300 500 (11400000)
I0215 10:12:15.981448 12693 net.cpp:165] Memory required for data: 934200028
I0215 10:12:15.981453 12693 layer_factory.hpp:77] Creating layer BatchNorm6
I0215 10:12:15.981465 12693 net.cpp:106] Creating Layer BatchNorm6
I0215 10:12:15.981472 12693 net.cpp:454] BatchNorm6 <- Concat5_Concat5_0_split_0
I0215 10:12:15.981478 12693 net.cpp:411] BatchNorm6 -> BatchNorm6
I0215 10:12:15.982481 12693 net.cpp:150] Setting up BatchNorm6
I0215 10:12:15.982496 12693 net.cpp:157] Top shape: 1 76 300 500 (11400000)
I0215 10:12:15.982501 12693 net.cpp:165] Memory required for data: 979800028
I0215 10:12:15.982519 12693 layer_factory.hpp:77] Creating layer Scale6
I0215 10:12:15.982529 12693 net.cpp:106] Creating Layer Scale6
I0215 10:12:15.982535 12693 net.cpp:454] Scale6 <- BatchNorm6
I0215 10:12:15.982542 12693 net.cpp:397] Scale6 -> BatchNorm6 (in-place)
I0215 10:12:15.982602 12693 layer_factory.hpp:77] Creating layer Scale6
I0215 10:12:15.984221 12693 net.cpp:150] Setting up Scale6
I0215 10:12:15.984239 12693 net.cpp:157] Top shape: 1 76 300 500 (11400000)
I0215 10:12:15.984244 12693 net.cpp:165] Memory required for data: 1025400028
I0215 10:12:15.984252 12693 layer_factory.hpp:77] Creating layer ReLU6
I0215 10:12:15.984261 12693 net.cpp:106] Creating Layer ReLU6
I0215 10:12:15.984268 12693 net.cpp:454] ReLU6 <- BatchNorm6
I0215 10:12:15.984277 12693 net.cpp:397] ReLU6 -> BatchNorm6 (in-place)
I0215 10:12:15.984285 12693 net.cpp:150] Setting up ReLU6
I0215 10:12:15.984293 12693 net.cpp:157] Top shape: 1 76 300 500 (11400000)
I0215 10:12:15.984298 12693 net.cpp:165] Memory required for data: 1071000028
I0215 10:12:15.984303 12693 layer_factory.hpp:77] Creating layer Convolution7
I0215 10:12:15.984313 12693 net.cpp:106] Creating Layer Convolution7
I0215 10:12:15.984319 12693 net.cpp:454] Convolution7 <- BatchNorm6
I0215 10:12:15.984328 12693 net.cpp:411] Convolution7 -> Convolution7
I0215 10:12:15.984653 12693 net.cpp:150] Setting up Convolution7
I0215 10:12:15.984665 12693 net.cpp:157] Top shape: 1 12 300 500 (1800000)
I0215 10:12:15.984671 12693 net.cpp:165] Memory required for data: 1078200028
I0215 10:12:15.984678 12693 layer_factory.hpp:77] Creating layer Dropout6
I0215 10:12:15.984686 12693 net.cpp:106] Creating Layer Dropout6
I0215 10:12:15.984693 12693 net.cpp:454] Dropout6 <- Convolution7
I0215 10:12:15.984704 12693 net.cpp:411] Dropout6 -> Dropout6
I0215 10:12:15.984758 12693 net.cpp:150] Setting up Dropout6
I0215 10:12:15.984769 12693 net.cpp:157] Top shape: 1 12 300 500 (1800000)
I0215 10:12:15.984774 12693 net.cpp:165] Memory required for data: 1085400028
I0215 10:12:15.984779 12693 layer_factory.hpp:77] Creating layer Concat6
I0215 10:12:15.984789 12693 net.cpp:106] Creating Layer Concat6
I0215 10:12:15.984796 12693 net.cpp:454] Concat6 <- Concat5_Concat5_0_split_1
I0215 10:12:15.984803 12693 net.cpp:454] Concat6 <- Dropout6
I0215 10:12:15.984810 12693 net.cpp:411] Concat6 -> Concat6
I0215 10:12:15.984848 12693 net.cpp:150] Setting up Concat6
I0215 10:12:15.984858 12693 net.cpp:157] Top shape: 1 88 300 500 (13200000)
I0215 10:12:15.984864 12693 net.cpp:165] Memory required for data: 1138200028
I0215 10:12:15.984869 12693 layer_factory.hpp:77] Creating layer Concat6_Concat6_0_split
I0215 10:12:15.984876 12693 net.cpp:106] Creating Layer Concat6_Concat6_0_split
I0215 10:12:15.984882 12693 net.cpp:454] Concat6_Concat6_0_split <- Concat6
I0215 10:12:15.984891 12693 net.cpp:411] Concat6_Concat6_0_split -> Concat6_Concat6_0_split_0
I0215 10:12:15.984900 12693 net.cpp:411] Concat6_Concat6_0_split -> Concat6_Concat6_0_split_1
I0215 10:12:15.984953 12693 net.cpp:150] Setting up Concat6_Concat6_0_split
I0215 10:12:15.984963 12693 net.cpp:157] Top shape: 1 88 300 500 (13200000)
I0215 10:12:15.984971 12693 net.cpp:157] Top shape: 1 88 300 500 (13200000)
I0215 10:12:15.984975 12693 net.cpp:165] Memory required for data: 1243800028
I0215 10:12:15.984980 12693 layer_factory.hpp:77] Creating layer BatchNorm7
I0215 10:12:15.984993 12693 net.cpp:106] Creating Layer BatchNorm7
I0215 10:12:15.985002 12693 net.cpp:454] BatchNorm7 <- Concat6_Concat6_0_split_0
I0215 10:12:15.985010 12693 net.cpp:411] BatchNorm7 -> BatchNorm7
I0215 10:12:15.986035 12693 net.cpp:150] Setting up BatchNorm7
I0215 10:12:15.986050 12693 net.cpp:157] Top shape: 1 88 300 500 (13200000)
I0215 10:12:15.986055 12693 net.cpp:165] Memory required for data: 1296600028
I0215 10:12:15.986068 12693 layer_factory.hpp:77] Creating layer Scale7
I0215 10:12:15.986078 12693 net.cpp:106] Creating Layer Scale7
I0215 10:12:15.986085 12693 net.cpp:454] Scale7 <- BatchNorm7
I0215 10:12:15.986093 12693 net.cpp:397] Scale7 -> BatchNorm7 (in-place)
I0215 10:12:15.986155 12693 layer_factory.hpp:77] Creating layer Scale7
I0215 10:12:15.988132 12693 net.cpp:150] Setting up Scale7
I0215 10:12:15.988181 12693 net.cpp:157] Top shape: 1 88 300 500 (13200000)
I0215 10:12:15.988189 12693 net.cpp:165] Memory required for data: 1349400028
I0215 10:12:15.988205 12693 layer_factory.hpp:77] Creating layer ReLU7
I0215 10:12:15.988224 12693 net.cpp:106] Creating Layer ReLU7
I0215 10:12:15.988234 12693 net.cpp:454] ReLU7 <- BatchNorm7
I0215 10:12:15.988247 12693 net.cpp:397] ReLU7 -> BatchNorm7 (in-place)
I0215 10:12:15.988265 12693 net.cpp:150] Setting up ReLU7
I0215 10:12:15.988276 12693 net.cpp:157] Top shape: 1 88 300 500 (13200000)
I0215 10:12:15.988283 12693 net.cpp:165] Memory required for data: 1402200028
I0215 10:12:15.988289 12693 layer_factory.hpp:77] Creating layer Convolution8
I0215 10:12:15.988307 12693 net.cpp:106] Creating Layer Convolution8
I0215 10:12:15.988315 12693 net.cpp:454] Convolution8 <- BatchNorm7
I0215 10:12:15.988328 12693 net.cpp:411] Convolution8 -> Convolution8
I0215 10:12:15.988821 12693 net.cpp:150] Setting up Convolution8
I0215 10:12:15.988836 12693 net.cpp:157] Top shape: 1 12 300 500 (1800000)
I0215 10:12:15.988842 12693 net.cpp:165] Memory required for data: 1409400028
I0215 10:12:15.988849 12693 layer_factory.hpp:77] Creating layer Dropout7
I0215 10:12:15.988863 12693 net.cpp:106] Creating Layer Dropout7
I0215 10:12:15.988872 12693 net.cpp:454] Dropout7 <- Convolution8
I0215 10:12:15.988879 12693 net.cpp:411] Dropout7 -> Dropout7
I0215 10:12:15.988942 12693 net.cpp:150] Setting up Dropout7
I0215 10:12:15.988955 12693 net.cpp:157] Top shape: 1 12 300 500 (1800000)
I0215 10:12:15.988962 12693 net.cpp:165] Memory required for data: 1416600028
I0215 10:12:15.988967 12693 layer_factory.hpp:77] Creating layer Concat7
I0215 10:12:15.988978 12693 net.cpp:106] Creating Layer Concat7
I0215 10:12:15.988986 12693 net.cpp:454] Concat7 <- Concat6_Concat6_0_split_1
I0215 10:12:15.988992 12693 net.cpp:454] Concat7 <- Dropout7
I0215 10:12:15.989003 12693 net.cpp:411] Concat7 -> Concat7
I0215 10:12:15.989048 12693 net.cpp:150] Setting up Concat7
I0215 10:12:15.989074 12693 net.cpp:157] Top shape: 1 100 300 500 (15000000)
I0215 10:12:15.989083 12693 net.cpp:165] Memory required for data: 1476600028
I0215 10:12:15.989089 12693 layer_factory.hpp:77] Creating layer Concat7_Concat7_0_split
I0215 10:12:15.989101 12693 net.cpp:106] Creating Layer Concat7_Concat7_0_split
I0215 10:12:15.989110 12693 net.cpp:454] Concat7_Concat7_0_split <- Concat7
I0215 10:12:15.989118 12693 net.cpp:411] Concat7_Concat7_0_split -> Concat7_Concat7_0_split_0
I0215 10:12:15.989130 12693 net.cpp:411] Concat7_Concat7_0_split -> Concat7_Concat7_0_split_1
I0215 10:12:15.989198 12693 net.cpp:150] Setting up Concat7_Concat7_0_split
I0215 10:12:15.989212 12693 net.cpp:157] Top shape: 1 100 300 500 (15000000)
I0215 10:12:15.989220 12693 net.cpp:157] Top shape: 1 100 300 500 (15000000)
I0215 10:12:15.989228 12693 net.cpp:165] Memory required for data: 1596600028
I0215 10:12:15.989234 12693 layer_factory.hpp:77] Creating layer BatchNorm8
I0215 10:12:15.989248 12693 net.cpp:106] Creating Layer BatchNorm8
I0215 10:12:15.989256 12693 net.cpp:454] BatchNorm8 <- Concat7_Concat7_0_split_0
I0215 10:12:15.989265 12693 net.cpp:411] BatchNorm8 -> BatchNorm8
I0215 10:12:15.990507 12693 net.cpp:150] Setting up BatchNorm8
I0215 10:12:15.990526 12693 net.cpp:157] Top shape: 1 100 300 500 (15000000)
I0215 10:12:15.990535 12693 net.cpp:165] Memory required for data: 1656600028
I0215 10:12:15.990548 12693 layer_factory.hpp:77] Creating layer Scale8
I0215 10:12:15.990562 12693 net.cpp:106] Creating Layer Scale8
I0215 10:12:15.990571 12693 net.cpp:454] Scale8 <- BatchNorm8
I0215 10:12:15.990582 12693 net.cpp:397] Scale8 -> BatchNorm8 (in-place)
I0215 10:12:15.990664 12693 layer_factory.hpp:77] Creating layer Scale8
I0215 10:12:15.992542 12693 net.cpp:150] Setting up Scale8
I0215 10:12:15.992560 12693 net.cpp:157] Top shape: 1 100 300 500 (15000000)
I0215 10:12:15.992569 12693 net.cpp:165] Memory required for data: 1716600028
I0215 10:12:15.992580 12693 layer_factory.hpp:77] Creating layer ReLU8
I0215 10:12:15.992593 12693 net.cpp:106] Creating Layer ReLU8
I0215 10:12:15.992604 12693 net.cpp:454] ReLU8 <- BatchNorm8
I0215 10:12:15.992614 12693 net.cpp:397] ReLU8 -> BatchNorm8 (in-place)
I0215 10:12:15.992626 12693 net.cpp:150] Setting up ReLU8
I0215 10:12:15.992635 12693 net.cpp:157] Top shape: 1 100 300 500 (15000000)
I0215 10:12:15.992642 12693 net.cpp:165] Memory required for data: 1776600028
I0215 10:12:15.992650 12693 layer_factory.hpp:77] Creating layer Convolution9
I0215 10:12:15.992666 12693 net.cpp:106] Creating Layer Convolution9
I0215 10:12:15.992673 12693 net.cpp:454] Convolution9 <- BatchNorm8
I0215 10:12:15.992683 12693 net.cpp:411] Convolution9 -> Convolution9
I0215 10:12:15.993147 12693 net.cpp:150] Setting up Convolution9
I0215 10:12:15.993163 12693 net.cpp:157] Top shape: 1 12 300 500 (1800000)
I0215 10:12:15.993170 12693 net.cpp:165] Memory required for data: 1783800028
I0215 10:12:15.993180 12693 layer_factory.hpp:77] Creating layer Dropout8
I0215 10:12:15.993191 12693 net.cpp:106] Creating Layer Dropout8
I0215 10:12:15.993199 12693 net.cpp:454] Dropout8 <- Convolution9
I0215 10:12:15.993207 12693 net.cpp:411] Dropout8 -> Dropout8
I0215 10:12:15.993280 12693 net.cpp:150] Setting up Dropout8
I0215 10:12:15.993297 12693 net.cpp:157] Top shape: 1 12 300 500 (1800000)
I0215 10:12:15.993305 12693 net.cpp:165] Memory required for data: 1791000028
I0215 10:12:15.993311 12693 layer_factory.hpp:77] Creating layer Concat8
I0215 10:12:15.993322 12693 net.cpp:106] Creating Layer Concat8
I0215 10:12:15.993330 12693 net.cpp:454] Concat8 <- Concat7_Concat7_0_split_1
I0215 10:12:15.993338 12693 net.cpp:454] Concat8 <- Dropout8
I0215 10:12:15.993348 12693 net.cpp:411] Concat8 -> Concat8
I0215 10:12:15.993401 12693 net.cpp:150] Setting up Concat8
I0215 10:12:15.993413 12693 net.cpp:157] Top shape: 1 112 300 500 (16800000)
I0215 10:12:15.993422 12693 net.cpp:165] Memory required for data: 1858200028
I0215 10:12:15.993427 12693 layer_factory.hpp:77] Creating layer BatchNorm9
I0215 10:12:15.993438 12693 net.cpp:106] Creating Layer BatchNorm9
I0215 10:12:15.993446 12693 net.cpp:454] BatchNorm9 <- Concat8
I0215 10:12:15.993458 12693 net.cpp:411] BatchNorm9 -> BatchNorm9
I0215 10:12:15.994678 12693 net.cpp:150] Setting up BatchNorm9
I0215 10:12:15.994698 12693 net.cpp:157] Top shape: 1 112 300 500 (16800000)
I0215 10:12:15.994705 12693 net.cpp:165] Memory required for data: 1925400028
I0215 10:12:15.994719 12693 layer_factory.hpp:77] Creating layer Scale9
I0215 10:12:15.994735 12693 net.cpp:106] Creating Layer Scale9
I0215 10:12:15.994742 12693 net.cpp:454] Scale9 <- BatchNorm9
I0215 10:12:15.994752 12693 net.cpp:397] Scale9 -> BatchNorm9 (in-place)
I0215 10:12:15.994834 12693 layer_factory.hpp:77] Creating layer Scale9
I0215 10:12:15.996717 12693 net.cpp:150] Setting up Scale9
I0215 10:12:15.996737 12693 net.cpp:157] Top shape: 1 112 300 500 (16800000)
I0215 10:12:15.996748 12693 net.cpp:165] Memory required for data: 1992600028
I0215 10:12:15.996759 12693 layer_factory.hpp:77] Creating layer ReLU9
I0215 10:12:15.996769 12693 net.cpp:106] Creating Layer ReLU9
I0215 10:12:15.996775 12693 net.cpp:454] ReLU9 <- BatchNorm9
I0215 10:12:15.996784 12693 net.cpp:397] ReLU9 -> BatchNorm9 (in-place)
I0215 10:12:15.996795 12693 net.cpp:150] Setting up ReLU9
I0215 10:12:15.996804 12693 net.cpp:157] Top shape: 1 112 300 500 (16800000)
I0215 10:12:15.996814 12693 net.cpp:165] Memory required for data: 2059800028
I0215 10:12:15.996819 12693 layer_factory.hpp:77] Creating layer Convolution10
I0215 10:12:15.996835 12693 net.cpp:106] Creating Layer Convolution10
I0215 10:12:15.996843 12693 net.cpp:454] Convolution10 <- BatchNorm9
I0215 10:12:15.996855 12693 net.cpp:411] Convolution10 -> Convolution10
I0215 10:12:15.997357 12693 net.cpp:150] Setting up Convolution10
I0215 10:12:15.997372 12693 net.cpp:157] Top shape: 1 112 300 500 (16800000)
I0215 10:12:15.997378 12693 net.cpp:165] Memory required for data: 2127000028
I0215 10:12:15.997387 12693 layer_factory.hpp:77] Creating layer Dropout9
I0215 10:12:15.997396 12693 net.cpp:106] Creating Layer Dropout9
I0215 10:12:15.997402 12693 net.cpp:454] Dropout9 <- Convolution10
I0215 10:12:15.997413 12693 net.cpp:411] Dropout9 -> Dropout9
I0215 10:12:15.997490 12693 net.cpp:150] Setting up Dropout9
I0215 10:12:15.997504 12693 net.cpp:157] Top shape: 1 112 300 500 (16800000)
I0215 10:12:15.997511 12693 net.cpp:165] Memory required for data: 2194200028
I0215 10:12:15.997517 12693 layer_factory.hpp:77] Creating layer Pooling1
I0215 10:12:15.997544 12693 net.cpp:106] Creating Layer Pooling1
I0215 10:12:15.997550 12693 net.cpp:454] Pooling1 <- Dropout9
I0215 10:12:15.997560 12693 net.cpp:411] Pooling1 -> Pooling1
I0215 10:12:15.997611 12693 net.cpp:150] Setting up Pooling1
I0215 10:12:15.997622 12693 net.cpp:157] Top shape: 1 112 150 250 (4200000)
I0215 10:12:15.997627 12693 net.cpp:165] Memory required for data: 2211000028
I0215 10:12:15.997633 12693 layer_factory.hpp:77] Creating layer Pooling1_Pooling1_0_split
I0215 10:12:15.997642 12693 net.cpp:106] Creating Layer Pooling1_Pooling1_0_split
I0215 10:12:15.997648 12693 net.cpp:454] Pooling1_Pooling1_0_split <- Pooling1
I0215 10:12:15.997658 12693 net.cpp:411] Pooling1_Pooling1_0_split -> Pooling1_Pooling1_0_split_0
I0215 10:12:15.997668 12693 net.cpp:411] Pooling1_Pooling1_0_split -> Pooling1_Pooling1_0_split_1
I0215 10:12:15.997735 12693 net.cpp:150] Setting up Pooling1_Pooling1_0_split
I0215 10:12:15.997746 12693 net.cpp:157] Top shape: 1 112 150 250 (4200000)
I0215 10:12:15.997753 12693 net.cpp:157] Top shape: 1 112 150 250 (4200000)
I0215 10:12:15.997759 12693 net.cpp:165] Memory required for data: 2244600028
I0215 10:12:15.997766 12693 layer_factory.hpp:77] Creating layer BatchNorm10
I0215 10:12:15.997787 12693 net.cpp:106] Creating Layer BatchNorm10
I0215 10:12:15.997793 12693 net.cpp:454] BatchNorm10 <- Pooling1_Pooling1_0_split_0
I0215 10:12:15.997802 12693 net.cpp:411] BatchNorm10 -> BatchNorm10
I0215 10:12:15.998955 12693 net.cpp:150] Setting up BatchNorm10
I0215 10:12:15.998970 12693 net.cpp:157] Top shape: 1 112 150 250 (4200000)
I0215 10:12:15.998977 12693 net.cpp:165] Memory required for data: 2261400028
I0215 10:12:15.998989 12693 layer_factory.hpp:77] Creating layer Scale10
I0215 10:12:15.999002 12693 net.cpp:106] Creating Layer Scale10
I0215 10:12:15.999009 12693 net.cpp:454] Scale10 <- BatchNorm10
I0215 10:12:15.999017 12693 net.cpp:397] Scale10 -> BatchNorm10 (in-place)
I0215 10:12:15.999096 12693 layer_factory.hpp:77] Creating layer Scale10
I0215 10:12:15.999418 12693 net.cpp:150] Setting up Scale10
I0215 10:12:15.999431 12693 net.cpp:157] Top shape: 1 112 150 250 (4200000)
I0215 10:12:15.999438 12693 net.cpp:165] Memory required for data: 2278200028
I0215 10:12:15.999447 12693 layer_factory.hpp:77] Creating layer ReLU10
I0215 10:12:15.999456 12693 net.cpp:106] Creating Layer ReLU10
I0215 10:12:15.999464 12693 net.cpp:454] ReLU10 <- BatchNorm10
I0215 10:12:15.999474 12693 net.cpp:397] ReLU10 -> BatchNorm10 (in-place)
I0215 10:12:15.999482 12693 net.cpp:150] Setting up ReLU10
I0215 10:12:15.999490 12693 net.cpp:157] Top shape: 1 112 150 250 (4200000)
I0215 10:12:15.999495 12693 net.cpp:165] Memory required for data: 2295000028
I0215 10:12:15.999500 12693 layer_factory.hpp:77] Creating layer Convolution11
I0215 10:12:15.999512 12693 net.cpp:106] Creating Layer Convolution11
I0215 10:12:15.999518 12693 net.cpp:454] Convolution11 <- BatchNorm10
I0215 10:12:15.999527 12693 net.cpp:411] Convolution11 -> Convolution11
I0215 10:12:16.000046 12693 net.cpp:150] Setting up Convolution11
I0215 10:12:16.000062 12693 net.cpp:157] Top shape: 1 12 150 250 (450000)
I0215 10:12:16.000072 12693 net.cpp:165] Memory required for data: 2296800028
I0215 10:12:16.000082 12693 layer_factory.hpp:77] Creating layer Dropout10
I0215 10:12:16.000093 12693 net.cpp:106] Creating Layer Dropout10
I0215 10:12:16.000102 12693 net.cpp:454] Dropout10 <- Convolution11
I0215 10:12:16.000114 12693 net.cpp:411] Dropout10 -> Dropout10
I0215 10:12:16.000203 12693 net.cpp:150] Setting up Dropout10
I0215 10:12:16.000216 12693 net.cpp:157] Top shape: 1 12 150 250 (450000)
I0215 10:12:16.000221 12693 net.cpp:165] Memory required for data: 2298600028
I0215 10:12:16.000226 12693 layer_factory.hpp:77] Creating layer Concat9
I0215 10:12:16.000232 12693 net.cpp:106] Creating Layer Concat9
I0215 10:12:16.000238 12693 net.cpp:454] Concat9 <- Pooling1_Pooling1_0_split_1
I0215 10:12:16.000246 12693 net.cpp:454] Concat9 <- Dropout10
I0215 10:12:16.000254 12693 net.cpp:411] Concat9 -> Concat9
I0215 10:12:16.000295 12693 net.cpp:150] Setting up Concat9
I0215 10:12:16.000305 12693 net.cpp:157] Top shape: 1 124 150 250 (4650000)
I0215 10:12:16.000310 12693 net.cpp:165] Memory required for data: 2317200028
I0215 10:12:16.000315 12693 layer_factory.hpp:77] Creating layer Concat9_Concat9_0_split
I0215 10:12:16.000322 12693 net.cpp:106] Creating Layer Concat9_Concat9_0_split
I0215 10:12:16.000337 12693 net.cpp:454] Concat9_Concat9_0_split <- Concat9
I0215 10:12:16.000346 12693 net.cpp:411] Concat9_Concat9_0_split -> Concat9_Concat9_0_split_0
I0215 10:12:16.000363 12693 net.cpp:411] Concat9_Concat9_0_split -> Concat9_Concat9_0_split_1
I0215 10:12:16.000423 12693 net.cpp:150] Setting up Concat9_Concat9_0_split
I0215 10:12:16.000437 12693 net.cpp:157] Top shape: 1 124 150 250 (4650000)
I0215 10:12:16.000442 12693 net.cpp:157] Top shape: 1 124 150 250 (4650000)
I0215 10:12:16.000447 12693 net.cpp:165] Memory required for data: 2354400028
I0215 10:12:16.000452 12693 layer_factory.hpp:77] Creating layer BatchNorm11
I0215 10:12:16.000463 12693 net.cpp:106] Creating Layer BatchNorm11
I0215 10:12:16.000469 12693 net.cpp:454] BatchNorm11 <- Concat9_Concat9_0_split_0
I0215 10:12:16.000481 12693 net.cpp:411] BatchNorm11 -> BatchNorm11
I0215 10:12:16.000865 12693 net.cpp:150] Setting up BatchNorm11
I0215 10:12:16.000877 12693 net.cpp:157] Top shape: 1 124 150 250 (4650000)
I0215 10:12:16.000882 12693 net.cpp:165] Memory required for data: 2373000028
I0215 10:12:16.000892 12693 layer_factory.hpp:77] Creating layer Scale11
I0215 10:12:16.000902 12693 net.cpp:106] Creating Layer Scale11
I0215 10:12:16.000907 12693 net.cpp:454] Scale11 <- BatchNorm11
I0215 10:12:16.000916 12693 net.cpp:397] Scale11 -> BatchNorm11 (in-place)
I0215 10:12:16.000990 12693 layer_factory.hpp:77] Creating layer Scale11
I0215 10:12:16.001231 12693 net.cpp:150] Setting up Scale11
I0215 10:12:16.001243 12693 net.cpp:157] Top shape: 1 124 150 250 (4650000)
I0215 10:12:16.001248 12693 net.cpp:165] Memory required for data: 2391600028
I0215 10:12:16.001268 12693 layer_factory.hpp:77] Creating layer ReLU11
I0215 10:12:16.001279 12693 net.cpp:106] Creating Layer ReLU11
I0215 10:12:16.001286 12693 net.cpp:454] ReLU11 <- BatchNorm11
I0215 10:12:16.001292 12693 net.cpp:397] ReLU11 -> BatchNorm11 (in-place)
I0215 10:12:16.001301 12693 net.cpp:150] Setting up ReLU11
I0215 10:12:16.001307 12693 net.cpp:157] Top shape: 1 124 150 250 (4650000)
I0215 10:12:16.001312 12693 net.cpp:165] Memory required for data: 2410200028
I0215 10:12:16.001317 12693 layer_factory.hpp:77] Creating layer Convolution12
I0215 10:12:16.001329 12693 net.cpp:106] Creating Layer Convolution12
I0215 10:12:16.001335 12693 net.cpp:454] Convolution12 <- BatchNorm11
I0215 10:12:16.001343 12693 net.cpp:411] Convolution12 -> Convolution12
I0215 10:12:16.001757 12693 net.cpp:150] Setting up Convolution12
I0215 10:12:16.001770 12693 net.cpp:157] Top shape: 1 12 150 250 (450000)
I0215 10:12:16.001773 12693 net.cpp:165] Memory required for data: 2412000028
I0215 10:12:16.001781 12693 layer_factory.hpp:77] Creating layer Dropout11
I0215 10:12:16.001790 12693 net.cpp:106] Creating Layer Dropout11
I0215 10:12:16.001794 12693 net.cpp:454] Dropout11 <- Convolution12
I0215 10:12:16.001803 12693 net.cpp:411] Dropout11 -> Dropout11
I0215 10:12:16.001866 12693 net.cpp:150] Setting up Dropout11
I0215 10:12:16.001878 12693 net.cpp:157] Top shape: 1 12 150 250 (450000)
I0215 10:12:16.001883 12693 net.cpp:165] Memory required for data: 2413800028
I0215 10:12:16.001888 12693 layer_factory.hpp:77] Creating layer Concat10
I0215 10:12:16.001896 12693 net.cpp:106] Creating Layer Concat10
I0215 10:12:16.001902 12693 net.cpp:454] Concat10 <- Concat9_Concat9_0_split_1
I0215 10:12:16.001909 12693 net.cpp:454] Concat10 <- Dropout11
I0215 10:12:16.001914 12693 net.cpp:411] Concat10 -> Concat10
I0215 10:12:16.001955 12693 net.cpp:150] Setting up Concat10
I0215 10:12:16.001966 12693 net.cpp:157] Top shape: 1 136 150 250 (5100000)
I0215 10:12:16.001971 12693 net.cpp:165] Memory required for data: 2434200028
I0215 10:12:16.001976 12693 layer_factory.hpp:77] Creating layer Concat10_Concat10_0_split
I0215 10:12:16.001983 12693 net.cpp:106] Creating Layer Concat10_Concat10_0_split
I0215 10:12:16.001988 12693 net.cpp:454] Concat10_Concat10_0_split <- Concat10
I0215 10:12:16.001998 12693 net.cpp:411] Concat10_Concat10_0_split -> Concat10_Concat10_0_split_0
I0215 10:12:16.002007 12693 net.cpp:411] Concat10_Concat10_0_split -> Concat10_Concat10_0_split_1
I0215 10:12:16.002063 12693 net.cpp:150] Setting up Concat10_Concat10_0_split
I0215 10:12:16.002074 12693 net.cpp:157] Top shape: 1 136 150 250 (5100000)
I0215 10:12:16.002079 12693 net.cpp:157] Top shape: 1 136 150 250 (5100000)
I0215 10:12:16.002084 12693 net.cpp:165] Memory required for data: 2475000028
I0215 10:12:16.002089 12693 layer_factory.hpp:77] Creating layer BatchNorm12
I0215 10:12:16.002099 12693 net.cpp:106] Creating Layer BatchNorm12
I0215 10:12:16.002104 12693 net.cpp:454] BatchNorm12 <- Concat10_Concat10_0_split_0
I0215 10:12:16.002113 12693 net.cpp:411] BatchNorm12 -> BatchNorm12
I0215 10:12:16.003089 12693 net.cpp:150] Setting up BatchNorm12
I0215 10:12:16.003103 12693 net.cpp:157] Top shape: 1 136 150 250 (5100000)
I0215 10:12:16.003108 12693 net.cpp:165] Memory required for data: 2495400028
I0215 10:12:16.003118 12693 layer_factory.hpp:77] Creating layer Scale12
I0215 10:12:16.003130 12693 net.cpp:106] Creating Layer Scale12
I0215 10:12:16.003136 12693 net.cpp:454] Scale12 <- BatchNorm12
I0215 10:12:16.003144 12693 net.cpp:397] Scale12 -> BatchNorm12 (in-place)
I0215 10:12:16.003209 12693 layer_factory.hpp:77] Creating layer Scale12
I0215 10:12:16.003482 12693 net.cpp:150] Setting up Scale12
I0215 10:12:16.003494 12693 net.cpp:157] Top shape: 1 136 150 250 (5100000)
I0215 10:12:16.003499 12693 net.cpp:165] Memory required for data: 2515800028
I0215 10:12:16.003509 12693 layer_factory.hpp:77] Creating layer ReLU12
I0215 10:12:16.003516 12693 net.cpp:106] Creating Layer ReLU12
I0215 10:12:16.003521 12693 net.cpp:454] ReLU12 <- BatchNorm12
I0215 10:12:16.003528 12693 net.cpp:397] ReLU12 -> BatchNorm12 (in-place)
I0215 10:12:16.003536 12693 net.cpp:150] Setting up ReLU12
I0215 10:12:16.003542 12693 net.cpp:157] Top shape: 1 136 150 250 (5100000)
I0215 10:12:16.003546 12693 net.cpp:165] Memory required for data: 2536200028
I0215 10:12:16.003551 12693 layer_factory.hpp:77] Creating layer Convolution13
I0215 10:12:16.003566 12693 net.cpp:106] Creating Layer Convolution13
I0215 10:12:16.003571 12693 net.cpp:454] Convolution13 <- BatchNorm12
I0215 10:12:16.003578 12693 net.cpp:411] Convolution13 -> Convolution13
I0215 10:12:16.004235 12693 net.cpp:150] Setting up Convolution13
I0215 10:12:16.004257 12693 net.cpp:157] Top shape: 1 12 150 250 (450000)
I0215 10:12:16.004262 12693 net.cpp:165] Memory required for data: 2538000028
I0215 10:12:16.004272 12693 layer_factory.hpp:77] Creating layer Dropout12
I0215 10:12:16.004284 12693 net.cpp:106] Creating Layer Dropout12
I0215 10:12:16.004292 12693 net.cpp:454] Dropout12 <- Convolution13
I0215 10:12:16.004300 12693 net.cpp:411] Dropout12 -> Dropout12
I0215 10:12:16.004371 12693 net.cpp:150] Setting up Dropout12
I0215 10:12:16.004381 12693 net.cpp:157] Top shape: 1 12 150 250 (450000)
I0215 10:12:16.004386 12693 net.cpp:165] Memory required for data: 2539800028
I0215 10:12:16.004391 12693 layer_factory.hpp:77] Creating layer Concat11
I0215 10:12:16.004398 12693 net.cpp:106] Creating Layer Concat11
I0215 10:12:16.004405 12693 net.cpp:454] Concat11 <- Concat10_Concat10_0_split_1
I0215 10:12:16.004410 12693 net.cpp:454] Concat11 <- Dropout12
I0215 10:12:16.004418 12693 net.cpp:411] Concat11 -> Concat11
I0215 10:12:16.004456 12693 net.cpp:150] Setting up Concat11
I0215 10:12:16.004467 12693 net.cpp:157] Top shape: 1 148 150 250 (5550000)
I0215 10:12:16.004470 12693 net.cpp:165] Memory required for data: 2562000028
I0215 10:12:16.004475 12693 layer_factory.hpp:77] Creating layer Concat11_Concat11_0_split
I0215 10:12:16.004484 12693 net.cpp:106] Creating Layer Concat11_Concat11_0_split
I0215 10:12:16.004489 12693 net.cpp:454] Concat11_Concat11_0_split <- Concat11
I0215 10:12:16.004495 12693 net.cpp:411] Concat11_Concat11_0_split -> Concat11_Concat11_0_split_0
I0215 10:12:16.004503 12693 net.cpp:411] Concat11_Concat11_0_split -> Concat11_Concat11_0_split_1
I0215 10:12:16.004559 12693 net.cpp:150] Setting up Concat11_Concat11_0_split
I0215 10:12:16.004568 12693 net.cpp:157] Top shape: 1 148 150 250 (5550000)
I0215 10:12:16.004575 12693 net.cpp:157] Top shape: 1 148 150 250 (5550000)
I0215 10:12:16.004578 12693 net.cpp:165] Memory required for data: 2606400028
I0215 10:12:16.004582 12693 layer_factory.hpp:77] Creating layer BatchNorm13
I0215 10:12:16.004591 12693 net.cpp:106] Creating Layer BatchNorm13
I0215 10:12:16.004596 12693 net.cpp:454] BatchNorm13 <- Concat11_Concat11_0_split_0
I0215 10:12:16.004606 12693 net.cpp:411] BatchNorm13 -> BatchNorm13
I0215 10:12:16.004961 12693 net.cpp:150] Setting up BatchNorm13
I0215 10:12:16.004971 12693 net.cpp:157] Top shape: 1 148 150 250 (5550000)
I0215 10:12:16.004976 12693 net.cpp:165] Memory required for data: 2628600028
I0215 10:12:16.004986 12693 layer_factory.hpp:77] Creating layer Scale13
I0215 10:12:16.004995 12693 net.cpp:106] Creating Layer Scale13
I0215 10:12:16.005000 12693 net.cpp:454] Scale13 <- BatchNorm13
I0215 10:12:16.005007 12693 net.cpp:397] Scale13 -> BatchNorm13 (in-place)
I0215 10:12:16.005071 12693 layer_factory.hpp:77] Creating layer Scale13
I0215 10:12:16.005319 12693 net.cpp:150] Setting up Scale13
I0215 10:12:16.005331 12693 net.cpp:157] Top shape: 1 148 150 250 (5550000)
I0215 10:12:16.005334 12693 net.cpp:165] Memory required for data: 2650800028
I0215 10:12:16.005342 12693 layer_factory.hpp:77] Creating layer ReLU13
I0215 10:12:16.005350 12693 net.cpp:106] Creating Layer ReLU13
I0215 10:12:16.005355 12693 net.cpp:454] ReLU13 <- BatchNorm13
I0215 10:12:16.005363 12693 net.cpp:397] ReLU13 -> BatchNorm13 (in-place)
I0215 10:12:16.005370 12693 net.cpp:150] Setting up ReLU13
I0215 10:12:16.005376 12693 net.cpp:157] Top shape: 1 148 150 250 (5550000)
I0215 10:12:16.005380 12693 net.cpp:165] Memory required for data: 2673000028
I0215 10:12:16.005385 12693 layer_factory.hpp:77] Creating layer Convolution14
I0215 10:12:16.005394 12693 net.cpp:106] Creating Layer Convolution14
I0215 10:12:16.005399 12693 net.cpp:454] Convolution14 <- BatchNorm13
I0215 10:12:16.005406 12693 net.cpp:411] Convolution14 -> Convolution14
I0215 10:12:16.005825 12693 net.cpp:150] Setting up Convolution14
I0215 10:12:16.005837 12693 net.cpp:157] Top shape: 1 12 150 250 (450000)
I0215 10:12:16.005841 12693 net.cpp:165] Memory required for data: 2674800028
I0215 10:12:16.005848 12693 layer_factory.hpp:77] Creating layer Dropout13
I0215 10:12:16.005857 12693 net.cpp:106] Creating Layer Dropout13
I0215 10:12:16.005862 12693 net.cpp:454] Dropout13 <- Convolution14
I0215 10:12:16.005869 12693 net.cpp:411] Dropout13 -> Dropout13
I0215 10:12:16.005928 12693 net.cpp:150] Setting up Dropout13
I0215 10:12:16.005937 12693 net.cpp:157] Top shape: 1 12 150 250 (450000)
I0215 10:12:16.005941 12693 net.cpp:165] Memory required for data: 2676600028
I0215 10:12:16.005946 12693 layer_factory.hpp:77] Creating layer Concat12
I0215 10:12:16.005954 12693 net.cpp:106] Creating Layer Concat12
I0215 10:12:16.005960 12693 net.cpp:454] Concat12 <- Concat11_Concat11_0_split_1
I0215 10:12:16.005965 12693 net.cpp:454] Concat12 <- Dropout13
I0215 10:12:16.005971 12693 net.cpp:411] Concat12 -> Concat12
I0215 10:12:16.006007 12693 net.cpp:150] Setting up Concat12
I0215 10:12:16.006016 12693 net.cpp:157] Top shape: 1 160 150 250 (6000000)
I0215 10:12:16.006021 12693 net.cpp:165] Memory required for data: 2700600028
I0215 10:12:16.006026 12693 layer_factory.hpp:77] Creating layer Concat12_Concat12_0_split
I0215 10:12:16.006033 12693 net.cpp:106] Creating Layer Concat12_Concat12_0_split
I0215 10:12:16.006038 12693 net.cpp:454] Concat12_Concat12_0_split <- Concat12
I0215 10:12:16.006045 12693 net.cpp:411] Concat12_Concat12_0_split -> Concat12_Concat12_0_split_0
I0215 10:12:16.006052 12693 net.cpp:411] Concat12_Concat12_0_split -> Concat12_Concat12_0_split_1
I0215 10:12:16.006108 12693 net.cpp:150] Setting up Concat12_Concat12_0_split
I0215 10:12:16.006116 12693 net.cpp:157] Top shape: 1 160 150 250 (6000000)
I0215 10:12:16.006122 12693 net.cpp:157] Top shape: 1 160 150 250 (6000000)
I0215 10:12:16.006126 12693 net.cpp:165] Memory required for data: 2748600028
I0215 10:12:16.006130 12693 layer_factory.hpp:77] Creating layer BatchNorm14
I0215 10:12:16.006139 12693 net.cpp:106] Creating Layer BatchNorm14
I0215 10:12:16.006145 12693 net.cpp:454] BatchNorm14 <- Concat12_Concat12_0_split_0
I0215 10:12:16.006152 12693 net.cpp:411] BatchNorm14 -> BatchNorm14
I0215 10:12:16.010035 12693 net.cpp:150] Setting up BatchNorm14
I0215 10:12:16.010051 12693 net.cpp:157] Top shape: 1 160 150 250 (6000000)
I0215 10:12:16.010056 12693 net.cpp:165] Memory required for data: 2772600028
I0215 10:12:16.010067 12693 layer_factory.hpp:77] Creating layer Scale14
I0215 10:12:16.010078 12693 net.cpp:106] Creating Layer Scale14
I0215 10:12:16.010083 12693 net.cpp:454] Scale14 <- BatchNorm14
I0215 10:12:16.010090 12693 net.cpp:397] Scale14 -> BatchNorm14 (in-place)
I0215 10:12:16.010165 12693 layer_factory.hpp:77] Creating layer Scale14
I0215 10:12:16.010393 12693 net.cpp:150] Setting up Scale14
I0215 10:12:16.010404 12693 net.cpp:157] Top shape: 1 160 150 250 (6000000)
I0215 10:12:16.010409 12693 net.cpp:165] Memory required for data: 2796600028
I0215 10:12:16.010417 12693 layer_factory.hpp:77] Creating layer ReLU14
I0215 10:12:16.010424 12693 net.cpp:106] Creating Layer ReLU14
I0215 10:12:16.010429 12693 net.cpp:454] ReLU14 <- BatchNorm14
I0215 10:12:16.010435 12693 net.cpp:397] ReLU14 -> BatchNorm14 (in-place)
I0215 10:12:16.010443 12693 net.cpp:150] Setting up ReLU14
I0215 10:12:16.010448 12693 net.cpp:157] Top shape: 1 160 150 250 (6000000)
I0215 10:12:16.010453 12693 net.cpp:165] Memory required for data: 2820600028
I0215 10:12:16.010457 12693 layer_factory.hpp:77] Creating layer Convolution15
I0215 10:12:16.010468 12693 net.cpp:106] Creating Layer Convolution15
I0215 10:12:16.010473 12693 net.cpp:454] Convolution15 <- BatchNorm14
I0215 10:12:16.010480 12693 net.cpp:411] Convolution15 -> Convolution15
I0215 10:12:16.010920 12693 net.cpp:150] Setting up Convolution15
I0215 10:12:16.010931 12693 net.cpp:157] Top shape: 1 12 150 250 (450000)
I0215 10:12:16.010936 12693 net.cpp:165] Memory required for data: 2822400028
I0215 10:12:16.010943 12693 layer_factory.hpp:77] Creating layer Dropout14
I0215 10:12:16.010951 12693 net.cpp:106] Creating Layer Dropout14
I0215 10:12:16.010956 12693 net.cpp:454] Dropout14 <- Convolution15
I0215 10:12:16.010965 12693 net.cpp:411] Dropout14 -> Dropout14
I0215 10:12:16.011026 12693 net.cpp:150] Setting up Dropout14
I0215 10:12:16.011036 12693 net.cpp:157] Top shape: 1 12 150 250 (450000)
I0215 10:12:16.011041 12693 net.cpp:165] Memory required for data: 2824200028
I0215 10:12:16.011045 12693 layer_factory.hpp:77] Creating layer Concat13
I0215 10:12:16.011052 12693 net.cpp:106] Creating Layer Concat13
I0215 10:12:16.011057 12693 net.cpp:454] Concat13 <- Concat12_Concat12_0_split_1
I0215 10:12:16.011063 12693 net.cpp:454] Concat13 <- Dropout14
I0215 10:12:16.011070 12693 net.cpp:411] Concat13 -> Concat13
I0215 10:12:16.011107 12693 net.cpp:150] Setting up Concat13
I0215 10:12:16.011116 12693 net.cpp:157] Top shape: 1 172 150 250 (6450000)
I0215 10:12:16.011121 12693 net.cpp:165] Memory required for data: 2850000028
I0215 10:12:16.011126 12693 layer_factory.hpp:77] Creating layer Concat13_Concat13_0_split
I0215 10:12:16.011132 12693 net.cpp:106] Creating Layer Concat13_Concat13_0_split
I0215 10:12:16.011137 12693 net.cpp:454] Concat13_Concat13_0_split <- Concat13
I0215 10:12:16.011144 12693 net.cpp:411] Concat13_Concat13_0_split -> Concat13_Concat13_0_split_0
I0215 10:12:16.011152 12693 net.cpp:411] Concat13_Concat13_0_split -> Concat13_Concat13_0_split_1
I0215 10:12:16.011209 12693 net.cpp:150] Setting up Concat13_Concat13_0_split
I0215 10:12:16.011217 12693 net.cpp:157] Top shape: 1 172 150 250 (6450000)
I0215 10:12:16.011224 12693 net.cpp:157] Top shape: 1 172 150 250 (6450000)
I0215 10:12:16.011227 12693 net.cpp:165] Memory required for data: 2901600028
I0215 10:12:16.011232 12693 layer_factory.hpp:77] Creating layer BatchNorm15
I0215 10:12:16.011240 12693 net.cpp:106] Creating Layer BatchNorm15
I0215 10:12:16.011243 12693 net.cpp:454] BatchNorm15 <- Concat13_Concat13_0_split_0
I0215 10:12:16.011252 12693 net.cpp:411] BatchNorm15 -> BatchNorm15
I0215 10:12:16.011610 12693 net.cpp:150] Setting up BatchNorm15
I0215 10:12:16.011621 12693 net.cpp:157] Top shape: 1 172 150 250 (6450000)
I0215 10:12:16.011626 12693 net.cpp:165] Memory required for data: 2927400028
I0215 10:12:16.011634 12693 layer_factory.hpp:77] Creating layer Scale15
I0215 10:12:16.011644 12693 net.cpp:106] Creating Layer Scale15
I0215 10:12:16.011651 12693 net.cpp:454] Scale15 <- BatchNorm15
I0215 10:12:16.011658 12693 net.cpp:397] Scale15 -> BatchNorm15 (in-place)
I0215 10:12:16.011720 12693 layer_factory.hpp:77] Creating layer Scale15
I0215 10:12:16.011945 12693 net.cpp:150] Setting up Scale15
I0215 10:12:16.011955 12693 net.cpp:157] Top shape: 1 172 150 250 (6450000)
I0215 10:12:16.011960 12693 net.cpp:165] Memory required for data: 2953200028
I0215 10:12:16.011967 12693 layer_factory.hpp:77] Creating layer ReLU15
I0215 10:12:16.011975 12693 net.cpp:106] Creating Layer ReLU15
I0215 10:12:16.011979 12693 net.cpp:454] ReLU15 <- BatchNorm15
I0215 10:12:16.011984 12693 net.cpp:397] ReLU15 -> BatchNorm15 (in-place)
I0215 10:12:16.011992 12693 net.cpp:150] Setting up ReLU15
I0215 10:12:16.011997 12693 net.cpp:157] Top shape: 1 172 150 250 (6450000)
I0215 10:12:16.012002 12693 net.cpp:165] Memory required for data: 2979000028
I0215 10:12:16.012006 12693 layer_factory.hpp:77] Creating layer Convolution16
I0215 10:12:16.012019 12693 net.cpp:106] Creating Layer Convolution16
I0215 10:12:16.012024 12693 net.cpp:454] Convolution16 <- BatchNorm15
I0215 10:12:16.012032 12693 net.cpp:411] Convolution16 -> Convolution16
I0215 10:12:16.012441 12693 net.cpp:150] Setting up Convolution16
I0215 10:12:16.012452 12693 net.cpp:157] Top shape: 1 12 150 250 (450000)
I0215 10:12:16.012457 12693 net.cpp:165] Memory required for data: 2980800028
I0215 10:12:16.012464 12693 layer_factory.hpp:77] Creating layer Dropout15
I0215 10:12:16.012470 12693 net.cpp:106] Creating Layer Dropout15
I0215 10:12:16.012475 12693 net.cpp:454] Dropout15 <- Convolution16
I0215 10:12:16.012482 12693 net.cpp:411] Dropout15 -> Dropout15
I0215 10:12:16.012542 12693 net.cpp:150] Setting up Dropout15
I0215 10:12:16.012553 12693 net.cpp:157] Top shape: 1 12 150 250 (450000)
I0215 10:12:16.012557 12693 net.cpp:165] Memory required for data: 2982600028
I0215 10:12:16.012562 12693 layer_factory.hpp:77] Creating layer Concat14
I0215 10:12:16.012568 12693 net.cpp:106] Creating Layer Concat14
I0215 10:12:16.012573 12693 net.cpp:454] Concat14 <- Concat13_Concat13_0_split_1
I0215 10:12:16.012579 12693 net.cpp:454] Concat14 <- Dropout15
I0215 10:12:16.012585 12693 net.cpp:411] Concat14 -> Concat14
I0215 10:12:16.012624 12693 net.cpp:150] Setting up Concat14
I0215 10:12:16.012632 12693 net.cpp:157] Top shape: 1 184 150 250 (6900000)
I0215 10:12:16.012636 12693 net.cpp:165] Memory required for data: 3010200028
I0215 10:12:16.012641 12693 layer_factory.hpp:77] Creating layer Concat14_Concat14_0_split
I0215 10:12:16.012647 12693 net.cpp:106] Creating Layer Concat14_Concat14_0_split
I0215 10:12:16.012652 12693 net.cpp:454] Concat14_Concat14_0_split <- Concat14
I0215 10:12:16.012658 12693 net.cpp:411] Concat14_Concat14_0_split -> Concat14_Concat14_0_split_0
I0215 10:12:16.012665 12693 net.cpp:411] Concat14_Concat14_0_split -> Concat14_Concat14_0_split_1
I0215 10:12:16.012719 12693 net.cpp:150] Setting up Concat14_Concat14_0_split
I0215 10:12:16.012730 12693 net.cpp:157] Top shape: 1 184 150 250 (6900000)
I0215 10:12:16.012735 12693 net.cpp:157] Top shape: 1 184 150 250 (6900000)
I0215 10:12:16.012740 12693 net.cpp:165] Memory required for data: 3065400028
I0215 10:12:16.012744 12693 layer_factory.hpp:77] Creating layer BatchNorm16
I0215 10:12:16.012751 12693 net.cpp:106] Creating Layer BatchNorm16
I0215 10:12:16.012756 12693 net.cpp:454] BatchNorm16 <- Concat14_Concat14_0_split_0
I0215 10:12:16.012764 12693 net.cpp:411] BatchNorm16 -> BatchNorm16
I0215 10:12:16.013928 12693 net.cpp:150] Setting up BatchNorm16
I0215 10:12:16.013942 12693 net.cpp:157] Top shape: 1 184 150 250 (6900000)
I0215 10:12:16.013947 12693 net.cpp:165] Memory required for data: 3093000028
I0215 10:12:16.013957 12693 layer_factory.hpp:77] Creating layer Scale16
I0215 10:12:16.013967 12693 net.cpp:106] Creating Layer Scale16
I0215 10:12:16.013972 12693 net.cpp:454] Scale16 <- BatchNorm16
I0215 10:12:16.013978 12693 net.cpp:397] Scale16 -> BatchNorm16 (in-place)
I0215 10:12:16.014041 12693 layer_factory.hpp:77] Creating layer Scale16
I0215 10:12:16.014271 12693 net.cpp:150] Setting up Scale16
I0215 10:12:16.014281 12693 net.cpp:157] Top shape: 1 184 150 250 (6900000)
I0215 10:12:16.014286 12693 net.cpp:165] Memory required for data: 3120600028
I0215 10:12:16.014293 12693 layer_factory.hpp:77] Creating layer ReLU16
I0215 10:12:16.014302 12693 net.cpp:106] Creating Layer ReLU16
I0215 10:12:16.014305 12693 net.cpp:454] ReLU16 <- BatchNorm16
I0215 10:12:16.014312 12693 net.cpp:397] ReLU16 -> BatchNorm16 (in-place)
I0215 10:12:16.014318 12693 net.cpp:150] Setting up ReLU16
I0215 10:12:16.014324 12693 net.cpp:157] Top shape: 1 184 150 250 (6900000)
I0215 10:12:16.014328 12693 net.cpp:165] Memory required for data: 3148200028
I0215 10:12:16.014333 12693 layer_factory.hpp:77] Creating layer Convolution17
I0215 10:12:16.014341 12693 net.cpp:106] Creating Layer Convolution17
I0215 10:12:16.014346 12693 net.cpp:454] Convolution17 <- BatchNorm16
I0215 10:12:16.014354 12693 net.cpp:411] Convolution17 -> Convolution17
I0215 10:12:16.014816 12693 net.cpp:150] Setting up Convolution17
I0215 10:12:16.014827 12693 net.cpp:157] Top shape: 1 12 150 250 (450000)
I0215 10:12:16.014832 12693 net.cpp:165] Memory required for data: 3150000028
I0215 10:12:16.014838 12693 layer_factory.hpp:77] Creating layer Dropout16
I0215 10:12:16.014848 12693 net.cpp:106] Creating Layer Dropout16
I0215 10:12:16.014853 12693 net.cpp:454] Dropout16 <- Convolution17
I0215 10:12:16.014860 12693 net.cpp:411] Dropout16 -> Dropout16
I0215 10:12:16.014920 12693 net.cpp:150] Setting up Dropout16
I0215 10:12:16.014930 12693 net.cpp:157] Top shape: 1 12 150 250 (450000)
I0215 10:12:16.014935 12693 net.cpp:165] Memory required for data: 3151800028
I0215 10:12:16.014940 12693 layer_factory.hpp:77] Creating layer Concat15
I0215 10:12:16.014945 12693 net.cpp:106] Creating Layer Concat15
I0215 10:12:16.014950 12693 net.cpp:454] Concat15 <- Concat14_Concat14_0_split_1
I0215 10:12:16.014956 12693 net.cpp:454] Concat15 <- Dropout16
I0215 10:12:16.014964 12693 net.cpp:411] Concat15 -> Concat15
I0215 10:12:16.015000 12693 net.cpp:150] Setting up Concat15
I0215 10:12:16.015010 12693 net.cpp:157] Top shape: 1 196 150 250 (7350000)
I0215 10:12:16.015014 12693 net.cpp:165] Memory required for data: 3181200028
I0215 10:12:16.015020 12693 layer_factory.hpp:77] Creating layer Concat15_Concat15_0_split
I0215 10:12:16.015028 12693 net.cpp:106] Creating Layer Concat15_Concat15_0_split
I0215 10:12:16.015033 12693 net.cpp:454] Concat15_Concat15_0_split <- Concat15
I0215 10:12:16.015039 12693 net.cpp:411] Concat15_Concat15_0_split -> Concat15_Concat15_0_split_0
I0215 10:12:16.015046 12693 net.cpp:411] Concat15_Concat15_0_split -> Concat15_Concat15_0_split_1
I0215 10:12:16.015102 12693 net.cpp:150] Setting up Concat15_Concat15_0_split
I0215 10:12:16.015111 12693 net.cpp:157] Top shape: 1 196 150 250 (7350000)
I0215 10:12:16.015117 12693 net.cpp:157] Top shape: 1 196 150 250 (7350000)
I0215 10:12:16.015121 12693 net.cpp:165] Memory required for data: 3240000028
I0215 10:12:16.015126 12693 layer_factory.hpp:77] Creating layer BatchNorm17
I0215 10:12:16.015135 12693 net.cpp:106] Creating Layer BatchNorm17
I0215 10:12:16.015139 12693 net.cpp:454] BatchNorm17 <- Concat15_Concat15_0_split_0
I0215 10:12:16.015146 12693 net.cpp:411] BatchNorm17 -> BatchNorm17
I0215 10:12:16.015620 12693 net.cpp:150] Setting up BatchNorm17
I0215 10:12:16.015632 12693 net.cpp:157] Top shape: 1 196 150 250 (7350000)
I0215 10:12:16.015636 12693 net.cpp:165] Memory required for data: 3269400028
I0215 10:12:16.015645 12693 layer_factory.hpp:77] Creating layer Scale17
I0215 10:12:16.015655 12693 net.cpp:106] Creating Layer Scale17
I0215 10:12:16.015661 12693 net.cpp:454] Scale17 <- BatchNorm17
I0215 10:12:16.015667 12693 net.cpp:397] Scale17 -> BatchNorm17 (in-place)
I0215 10:12:16.015733 12693 layer_factory.hpp:77] Creating layer Scale17
I0215 10:12:16.015970 12693 net.cpp:150] Setting up Scale17
I0215 10:12:16.015982 12693 net.cpp:157] Top shape: 1 196 150 250 (7350000)
I0215 10:12:16.015986 12693 net.cpp:165] Memory required for data: 3298800028
I0215 10:12:16.015995 12693 layer_factory.hpp:77] Creating layer ReLU17
I0215 10:12:16.016001 12693 net.cpp:106] Creating Layer ReLU17
I0215 10:12:16.016006 12693 net.cpp:454] ReLU17 <- BatchNorm17
I0215 10:12:16.016012 12693 net.cpp:397] ReLU17 -> BatchNorm17 (in-place)
I0215 10:12:16.016019 12693 net.cpp:150] Setting up ReLU17
I0215 10:12:16.016026 12693 net.cpp:157] Top shape: 1 196 150 250 (7350000)
I0215 10:12:16.016029 12693 net.cpp:165] Memory required for data: 3328200028
I0215 10:12:16.016033 12693 layer_factory.hpp:77] Creating layer Convolution18
I0215 10:12:16.016042 12693 net.cpp:106] Creating Layer Convolution18
I0215 10:12:16.016047 12693 net.cpp:454] Convolution18 <- BatchNorm17
I0215 10:12:16.016057 12693 net.cpp:411] Convolution18 -> Convolution18
I0215 10:12:16.016495 12693 net.cpp:150] Setting up Convolution18
I0215 10:12:16.016506 12693 net.cpp:157] Top shape: 1 12 150 250 (450000)
I0215 10:12:16.016510 12693 net.cpp:165] Memory required for data: 3330000028
I0215 10:12:16.016516 12693 layer_factory.hpp:77] Creating layer Dropout17
I0215 10:12:16.016525 12693 net.cpp:106] Creating Layer Dropout17
I0215 10:12:16.016530 12693 net.cpp:454] Dropout17 <- Convolution18
I0215 10:12:16.016536 12693 net.cpp:411] Dropout17 -> Dropout17
I0215 10:12:16.016594 12693 net.cpp:150] Setting up Dropout17
I0215 10:12:16.016604 12693 net.cpp:157] Top shape: 1 12 150 250 (450000)
I0215 10:12:16.016608 12693 net.cpp:165] Memory required for data: 3331800028
I0215 10:12:16.016613 12693 layer_factory.hpp:77] Creating layer Concat16
I0215 10:12:16.016619 12693 net.cpp:106] Creating Layer Concat16
I0215 10:12:16.016628 12693 net.cpp:454] Concat16 <- Concat15_Concat15_0_split_1
I0215 10:12:16.016634 12693 net.cpp:454] Concat16 <- Dropout17
I0215 10:12:16.016640 12693 net.cpp:411] Concat16 -> Concat16
I0215 10:12:16.016676 12693 net.cpp:150] Setting up Concat16
I0215 10:12:16.016685 12693 net.cpp:157] Top shape: 1 208 150 250 (7800000)
I0215 10:12:16.016690 12693 net.cpp:165] Memory required for data: 3363000028
I0215 10:12:16.016695 12693 layer_factory.hpp:77] Creating layer BatchNorm18
I0215 10:12:16.016702 12693 net.cpp:106] Creating Layer BatchNorm18
I0215 10:12:16.016707 12693 net.cpp:454] BatchNorm18 <- Concat16
I0215 10:12:16.016713 12693 net.cpp:411] BatchNorm18 -> BatchNorm18
I0215 10:12:16.025073 12693 net.cpp:150] Setting up BatchNorm18
I0215 10:12:16.025097 12693 net.cpp:157] Top shape: 1 208 150 250 (7800000)
I0215 10:12:16.025105 12693 net.cpp:165] Memory required for data: 3394200028
I0215 10:12:16.025125 12693 layer_factory.hpp:77] Creating layer Scale18
I0215 10:12:16.025137 12693 net.cpp:106] Creating Layer Scale18
I0215 10:12:16.025146 12693 net.cpp:454] Scale18 <- BatchNorm18
I0215 10:12:16.025158 12693 net.cpp:397] Scale18 -> BatchNorm18 (in-place)
I0215 10:12:16.025282 12693 layer_factory.hpp:77] Creating layer Scale18
I0215 10:12:16.025737 12693 net.cpp:150] Setting up Scale18
I0215 10:12:16.025758 12693 net.cpp:157] Top shape: 1 208 150 250 (7800000)
I0215 10:12:16.025768 12693 net.cpp:165] Memory required for data: 3425400028
I0215 10:12:16.025782 12693 layer_factory.hpp:77] Creating layer ReLU18
I0215 10:12:16.025804 12693 net.cpp:106] Creating Layer ReLU18
I0215 10:12:16.025815 12693 net.cpp:454] ReLU18 <- BatchNorm18
I0215 10:12:16.025826 12693 net.cpp:397] ReLU18 -> BatchNorm18 (in-place)
I0215 10:12:16.025840 12693 net.cpp:150] Setting up ReLU18
I0215 10:12:16.025852 12693 net.cpp:157] Top shape: 1 208 150 250 (7800000)
I0215 10:12:16.025861 12693 net.cpp:165] Memory required for data: 3456600028
I0215 10:12:16.025868 12693 layer_factory.hpp:77] Creating layer Convolution19
I0215 10:12:16.025887 12693 net.cpp:106] Creating Layer Convolution19
I0215 10:12:16.025897 12693 net.cpp:454] Convolution19 <- BatchNorm18
I0215 10:12:16.025910 12693 net.cpp:411] Convolution19 -> Convolution19
I0215 10:12:16.026859 12693 net.cpp:150] Setting up Convolution19
I0215 10:12:16.026880 12693 net.cpp:157] Top shape: 1 208 150 250 (7800000)
I0215 10:12:16.026887 12693 net.cpp:165] Memory required for data: 3487800028
I0215 10:12:16.026901 12693 layer_factory.hpp:77] Creating layer Dropout18
I0215 10:12:16.026913 12693 net.cpp:106] Creating Layer Dropout18
I0215 10:12:16.026923 12693 net.cpp:454] Dropout18 <- Convolution19
I0215 10:12:16.026942 12693 net.cpp:411] Dropout18 -> Dropout18
I0215 10:12:16.027055 12693 net.cpp:150] Setting up Dropout18
I0215 10:12:16.027070 12693 net.cpp:157] Top shape: 1 208 150 250 (7800000)
I0215 10:12:16.027078 12693 net.cpp:165] Memory required for data: 3519000028
I0215 10:12:16.027086 12693 layer_factory.hpp:77] Creating layer Pooling2
I0215 10:12:16.027102 12693 net.cpp:106] Creating Layer Pooling2
I0215 10:12:16.027112 12693 net.cpp:454] Pooling2 <- Dropout18
I0215 10:12:16.027127 12693 net.cpp:411] Pooling2 -> Pooling2
I0215 10:12:16.027184 12693 net.cpp:150] Setting up Pooling2
I0215 10:12:16.027196 12693 net.cpp:157] Top shape: 1 208 75 125 (1950000)
I0215 10:12:16.027204 12693 net.cpp:165] Memory required for data: 3526800028
I0215 10:12:16.027212 12693 layer_factory.hpp:77] Creating layer Pooling2_Pooling2_0_split
I0215 10:12:16.027225 12693 net.cpp:106] Creating Layer Pooling2_Pooling2_0_split
I0215 10:12:16.027235 12693 net.cpp:454] Pooling2_Pooling2_0_split <- Pooling2
I0215 10:12:16.027254 12693 net.cpp:411] Pooling2_Pooling2_0_split -> Pooling2_Pooling2_0_split_0
I0215 10:12:16.027269 12693 net.cpp:411] Pooling2_Pooling2_0_split -> Pooling2_Pooling2_0_split_1
I0215 10:12:16.027367 12693 net.cpp:150] Setting up Pooling2_Pooling2_0_split
I0215 10:12:16.027384 12693 net.cpp:157] Top shape: 1 208 75 125 (1950000)
I0215 10:12:16.027392 12693 net.cpp:157] Top shape: 1 208 75 125 (1950000)
I0215 10:12:16.027400 12693 net.cpp:165] Memory required for data: 3542400028
I0215 10:12:16.027407 12693 layer_factory.hpp:77] Creating layer BatchNorm19
I0215 10:12:16.027442 12693 net.cpp:106] Creating Layer BatchNorm19
I0215 10:12:16.027451 12693 net.cpp:454] BatchNorm19 <- Pooling2_Pooling2_0_split_0
I0215 10:12:16.027462 12693 net.cpp:411] BatchNorm19 -> BatchNorm19
I0215 10:12:16.028044 12693 net.cpp:150] Setting up BatchNorm19
I0215 10:12:16.028069 12693 net.cpp:157] Top shape: 1 208 75 125 (1950000)
I0215 10:12:16.028077 12693 net.cpp:165] Memory required for data: 3550200028
I0215 10:12:16.028102 12693 layer_factory.hpp:77] Creating layer Scale19
I0215 10:12:16.028118 12693 net.cpp:106] Creating Layer Scale19
I0215 10:12:16.028128 12693 net.cpp:454] Scale19 <- BatchNorm19
I0215 10:12:16.028146 12693 net.cpp:397] Scale19 -> BatchNorm19 (in-place)
I0215 10:12:16.028254 12693 layer_factory.hpp:77] Creating layer Scale19
I0215 10:12:16.028604 12693 net.cpp:150] Setting up Scale19
I0215 10:12:16.028620 12693 net.cpp:157] Top shape: 1 208 75 125 (1950000)
I0215 10:12:16.028628 12693 net.cpp:165] Memory required for data: 3558000028
I0215 10:12:16.028642 12693 layer_factory.hpp:77] Creating layer ReLU19
I0215 10:12:16.028656 12693 net.cpp:106] Creating Layer ReLU19
I0215 10:12:16.028666 12693 net.cpp:454] ReLU19 <- BatchNorm19
I0215 10:12:16.028681 12693 net.cpp:397] ReLU19 -> BatchNorm19 (in-place)
I0215 10:12:16.028697 12693 net.cpp:150] Setting up ReLU19
I0215 10:12:16.028709 12693 net.cpp:157] Top shape: 1 208 75 125 (1950000)
I0215 10:12:16.028717 12693 net.cpp:165] Memory required for data: 3565800028
I0215 10:12:16.028725 12693 layer_factory.hpp:77] Creating layer Convolution20
I0215 10:12:16.028740 12693 net.cpp:106] Creating Layer Convolution20
I0215 10:12:16.028749 12693 net.cpp:454] Convolution20 <- BatchNorm19
I0215 10:12:16.028761 12693 net.cpp:411] Convolution20 -> Convolution20
I0215 10:12:16.029475 12693 net.cpp:150] Setting up Convolution20
I0215 10:12:16.029492 12693 net.cpp:157] Top shape: 1 12 75 125 (112500)
I0215 10:12:16.029500 12693 net.cpp:165] Memory required for data: 3566250028
I0215 10:12:16.029512 12693 layer_factory.hpp:77] Creating layer Dropout19
I0215 10:12:16.029525 12693 net.cpp:106] Creating Layer Dropout19
I0215 10:12:16.029532 12693 net.cpp:454] Dropout19 <- Convolution20
I0215 10:12:16.029546 12693 net.cpp:411] Dropout19 -> Dropout19
I0215 10:12:16.029642 12693 net.cpp:150] Setting up Dropout19
I0215 10:12:16.029659 12693 net.cpp:157] Top shape: 1 12 75 125 (112500)
I0215 10:12:16.029666 12693 net.cpp:165] Memory required for data: 3566700028
I0215 10:12:16.029675 12693 layer_factory.hpp:77] Creating layer Concat17
I0215 10:12:16.029686 12693 net.cpp:106] Creating Layer Concat17
I0215 10:12:16.029695 12693 net.cpp:454] Concat17 <- Pooling2_Pooling2_0_split_1
I0215 10:12:16.029706 12693 net.cpp:454] Concat17 <- Dropout19
I0215 10:12:16.029722 12693 net.cpp:411] Concat17 -> Concat17
I0215 10:12:16.029783 12693 net.cpp:150] Setting up Concat17
I0215 10:12:16.029798 12693 net.cpp:157] Top shape: 1 220 75 125 (2062500)
I0215 10:12:16.029804 12693 net.cpp:165] Memory required for data: 3574950028
I0215 10:12:16.029813 12693 layer_factory.hpp:77] Creating layer Concat17_Concat17_0_split
I0215 10:12:16.029822 12693 net.cpp:106] Creating Layer Concat17_Concat17_0_split
I0215 10:12:16.029830 12693 net.cpp:454] Concat17_Concat17_0_split <- Concat17
I0215 10:12:16.029844 12693 net.cpp:411] Concat17_Concat17_0_split -> Concat17_Concat17_0_split_0
I0215 10:12:16.029856 12693 net.cpp:411] Concat17_Concat17_0_split -> Concat17_Concat17_0_split_1
I0215 10:12:16.029943 12693 net.cpp:150] Setting up Concat17_Concat17_0_split
I0215 10:12:16.029956 12693 net.cpp:157] Top shape: 1 220 75 125 (2062500)
I0215 10:12:16.029965 12693 net.cpp:157] Top shape: 1 220 75 125 (2062500)
I0215 10:12:16.029971 12693 net.cpp:165] Memory required for data: 3591450028
I0215 10:12:16.029978 12693 layer_factory.hpp:77] Creating layer BatchNorm20
I0215 10:12:16.029992 12693 net.cpp:106] Creating Layer BatchNorm20
I0215 10:12:16.030000 12693 net.cpp:454] BatchNorm20 <- Concat17_Concat17_0_split_0
I0215 10:12:16.030011 12693 net.cpp:411] BatchNorm20 -> BatchNorm20
I0215 10:12:16.030570 12693 net.cpp:150] Setting up BatchNorm20
I0215 10:12:16.030586 12693 net.cpp:157] Top shape: 1 220 75 125 (2062500)
I0215 10:12:16.030593 12693 net.cpp:165] Memory required for data: 3599700028
I0215 10:12:16.030608 12693 layer_factory.hpp:77] Creating layer Scale20
I0215 10:12:16.030625 12693 net.cpp:106] Creating Layer Scale20
I0215 10:12:16.030634 12693 net.cpp:454] Scale20 <- BatchNorm20
I0215 10:12:16.030644 12693 net.cpp:397] Scale20 -> BatchNorm20 (in-place)
I0215 10:12:16.030746 12693 layer_factory.hpp:77] Creating layer Scale20
I0215 10:12:16.031121 12693 net.cpp:150] Setting up Scale20
I0215 10:12:16.031137 12693 net.cpp:157] Top shape: 1 220 75 125 (2062500)
I0215 10:12:16.031146 12693 net.cpp:165] Memory required for data: 3607950028
I0215 10:12:16.031160 12693 layer_factory.hpp:77] Creating layer ReLU20
I0215 10:12:16.031173 12693 net.cpp:106] Creating Layer ReLU20
I0215 10:12:16.031183 12693 net.cpp:454] ReLU20 <- BatchNorm20
I0215 10:12:16.031193 12693 net.cpp:397] ReLU20 -> BatchNorm20 (in-place)
I0215 10:12:16.031208 12693 net.cpp:150] Setting up ReLU20
I0215 10:12:16.031219 12693 net.cpp:157] Top shape: 1 220 75 125 (2062500)
I0215 10:12:16.031227 12693 net.cpp:165] Memory required for data: 3616200028
I0215 10:12:16.031236 12693 layer_factory.hpp:77] Creating layer Convolution21
I0215 10:12:16.031255 12693 net.cpp:106] Creating Layer Convolution21
I0215 10:12:16.031265 12693 net.cpp:454] Convolution21 <- BatchNorm20
I0215 10:12:16.031287 12693 net.cpp:411] Convolution21 -> Convolution21
I0215 10:12:16.032086 12693 net.cpp:150] Setting up Convolution21
I0215 10:12:16.032109 12693 net.cpp:157] Top shape: 1 12 75 125 (112500)
I0215 10:12:16.032117 12693 net.cpp:165] Memory required for data: 3616650028
I0215 10:12:16.032140 12693 layer_factory.hpp:77] Creating layer Dropout20
I0215 10:12:16.032163 12693 net.cpp:106] Creating Layer Dropout20
I0215 10:12:16.032173 12693 net.cpp:454] Dropout20 <- Convolution21
I0215 10:12:16.032186 12693 net.cpp:411] Dropout20 -> Dropout20
I0215 10:12:16.032282 12693 net.cpp:150] Setting up Dropout20
I0215 10:12:16.032299 12693 net.cpp:157] Top shape: 1 12 75 125 (112500)
I0215 10:12:16.032307 12693 net.cpp:165] Memory required for data: 3617100028
I0215 10:12:16.032330 12693 layer_factory.hpp:77] Creating layer Concat18
I0215 10:12:16.032349 12693 net.cpp:106] Creating Layer Concat18
I0215 10:12:16.032361 12693 net.cpp:454] Concat18 <- Concat17_Concat17_0_split_1
I0215 10:12:16.032371 12693 net.cpp:454] Concat18 <- Dropout20
I0215 10:12:16.032387 12693 net.cpp:411] Concat18 -> Concat18
I0215 10:12:16.032449 12693 net.cpp:150] Setting up Concat18
I0215 10:12:16.032466 12693 net.cpp:157] Top shape: 1 232 75 125 (2175000)
I0215 10:12:16.032474 12693 net.cpp:165] Memory required for data: 3625800028
I0215 10:12:16.032482 12693 layer_factory.hpp:77] Creating layer Concat18_Concat18_0_split
I0215 10:12:16.032500 12693 net.cpp:106] Creating Layer Concat18_Concat18_0_split
I0215 10:12:16.032521 12693 net.cpp:454] Concat18_Concat18_0_split <- Concat18
I0215 10:12:16.032536 12693 net.cpp:411] Concat18_Concat18_0_split -> Concat18_Concat18_0_split_0
I0215 10:12:16.032552 12693 net.cpp:411] Concat18_Concat18_0_split -> Concat18_Concat18_0_split_1
I0215 10:12:16.032649 12693 net.cpp:150] Setting up Concat18_Concat18_0_split
I0215 10:12:16.032665 12693 net.cpp:157] Top shape: 1 232 75 125 (2175000)
I0215 10:12:16.032676 12693 net.cpp:157] Top shape: 1 232 75 125 (2175000)
I0215 10:12:16.032691 12693 net.cpp:165] Memory required for data: 3643200028
I0215 10:12:16.032708 12693 layer_factory.hpp:77] Creating layer BatchNorm21
I0215 10:12:16.032726 12693 net.cpp:106] Creating Layer BatchNorm21
I0215 10:12:16.032737 12693 net.cpp:454] BatchNorm21 <- Concat18_Concat18_0_split_0
I0215 10:12:16.032757 12693 net.cpp:411] BatchNorm21 -> BatchNorm21
I0215 10:12:16.033303 12693 net.cpp:150] Setting up BatchNorm21
I0215 10:12:16.033327 12693 net.cpp:157] Top shape: 1 232 75 125 (2175000)
I0215 10:12:16.033346 12693 net.cpp:165] Memory required for data: 3651900028
I0215 10:12:16.033370 12693 layer_factory.hpp:77] Creating layer Scale21
I0215 10:12:16.033390 12693 net.cpp:106] Creating Layer Scale21
I0215 10:12:16.033404 12693 net.cpp:454] Scale21 <- BatchNorm21
I0215 10:12:16.033432 12693 net.cpp:397] Scale21 -> BatchNorm21 (in-place)
I0215 10:12:16.033534 12693 layer_factory.hpp:77] Creating layer Scale21
I0215 10:12:16.033887 12693 net.cpp:150] Setting up Scale21
I0215 10:12:16.033905 12693 net.cpp:157] Top shape: 1 232 75 125 (2175000)
I0215 10:12:16.033915 12693 net.cpp:165] Memory required for data: 3660600028
I0215 10:12:16.033931 12693 layer_factory.hpp:77] Creating layer ReLU21
I0215 10:12:16.033946 12693 net.cpp:106] Creating Layer ReLU21
I0215 10:12:16.033954 12693 net.cpp:454] ReLU21 <- BatchNorm21
I0215 10:12:16.033983 12693 net.cpp:397] ReLU21 -> BatchNorm21 (in-place)
I0215 10:12:16.033998 12693 net.cpp:150] Setting up ReLU21
I0215 10:12:16.034009 12693 net.cpp:157] Top shape: 1 232 75 125 (2175000)
I0215 10:12:16.034021 12693 net.cpp:165] Memory required for data: 3669300028
I0215 10:12:16.034029 12693 layer_factory.hpp:77] Creating layer Convolution22
I0215 10:12:16.034054 12693 net.cpp:106] Creating Layer Convolution22
I0215 10:12:16.034075 12693 net.cpp:454] Convolution22 <- BatchNorm21
I0215 10:12:16.034092 12693 net.cpp:411] Convolution22 -> Convolution22
I0215 10:12:16.034801 12693 net.cpp:150] Setting up Convolution22
I0215 10:12:16.034819 12693 net.cpp:157] Top shape: 1 12 75 125 (112500)
I0215 10:12:16.034828 12693 net.cpp:165] Memory required for data: 3669750028
I0215 10:12:16.034840 12693 layer_factory.hpp:77] Creating layer Dropout21
I0215 10:12:16.034857 12693 net.cpp:106] Creating Layer Dropout21
I0215 10:12:16.034868 12693 net.cpp:454] Dropout21 <- Convolution22
I0215 10:12:16.034891 12693 net.cpp:411] Dropout21 -> Dropout21
I0215 10:12:16.034991 12693 net.cpp:150] Setting up Dropout21
I0215 10:12:16.035006 12693 net.cpp:157] Top shape: 1 12 75 125 (112500)
I0215 10:12:16.035014 12693 net.cpp:165] Memory required for data: 3670200028
I0215 10:12:16.035023 12693 layer_factory.hpp:77] Creating layer Concat19
I0215 10:12:16.035035 12693 net.cpp:106] Creating Layer Concat19
I0215 10:12:16.035046 12693 net.cpp:454] Concat19 <- Concat18_Concat18_0_split_1
I0215 10:12:16.035056 12693 net.cpp:454] Concat19 <- Dropout21
I0215 10:12:16.035089 12693 net.cpp:411] Concat19 -> Concat19
I0215 10:12:16.035146 12693 net.cpp:150] Setting up Concat19
I0215 10:12:16.035172 12693 net.cpp:157] Top shape: 1 244 75 125 (2287500)
I0215 10:12:16.035179 12693 net.cpp:165] Memory required for data: 3679350028
I0215 10:12:16.035188 12693 layer_factory.hpp:77] Creating layer Concat19_Concat19_0_split
I0215 10:12:16.035205 12693 net.cpp:106] Creating Layer Concat19_Concat19_0_split
I0215 10:12:16.035215 12693 net.cpp:454] Concat19_Concat19_0_split <- Concat19
I0215 10:12:16.035229 12693 net.cpp:411] Concat19_Concat19_0_split -> Concat19_Concat19_0_split_0
I0215 10:12:16.035271 12693 net.cpp:411] Concat19_Concat19_0_split -> Concat19_Concat19_0_split_1
I0215 10:12:16.035369 12693 net.cpp:150] Setting up Concat19_Concat19_0_split
I0215 10:12:16.035387 12693 net.cpp:157] Top shape: 1 244 75 125 (2287500)
I0215 10:12:16.035399 12693 net.cpp:157] Top shape: 1 244 75 125 (2287500)
I0215 10:12:16.035406 12693 net.cpp:165] Memory required for data: 3697650028
I0215 10:12:16.035418 12693 layer_factory.hpp:77] Creating layer BatchNorm22
I0215 10:12:16.035447 12693 net.cpp:106] Creating Layer BatchNorm22
I0215 10:12:16.035459 12693 net.cpp:454] BatchNorm22 <- Concat19_Concat19_0_split_0
I0215 10:12:16.035473 12693 net.cpp:411] BatchNorm22 -> BatchNorm22
I0215 10:12:16.035989 12693 net.cpp:150] Setting up BatchNorm22
I0215 10:12:16.036017 12693 net.cpp:157] Top shape: 1 244 75 125 (2287500)
I0215 10:12:16.036031 12693 net.cpp:165] Memory required for data: 3706800028
I0215 10:12:16.036085 12693 layer_factory.hpp:77] Creating layer Scale22
I0215 10:12:16.036106 12693 net.cpp:106] Creating Layer Scale22
I0215 10:12:16.036135 12693 net.cpp:454] Scale22 <- BatchNorm22
I0215 10:12:16.036149 12693 net.cpp:397] Scale22 -> BatchNorm22 (in-place)
I0215 10:12:16.036262 12693 layer_factory.hpp:77] Creating layer Scale22
I0215 10:12:16.036603 12693 net.cpp:150] Setting up Scale22
I0215 10:12:16.036622 12693 net.cpp:157] Top shape: 1 244 75 125 (2287500)
I0215 10:12:16.036631 12693 net.cpp:165] Memory required for data: 3715950028
I0215 10:12:16.036648 12693 layer_factory.hpp:77] Creating layer ReLU22
I0215 10:12:16.036660 12693 net.cpp:106] Creating Layer ReLU22
I0215 10:12:16.036689 12693 net.cpp:454] ReLU22 <- BatchNorm22
I0215 10:12:16.036702 12693 net.cpp:397] ReLU22 -> BatchNorm22 (in-place)
I0215 10:12:16.036715 12693 net.cpp:150] Setting up ReLU22
I0215 10:12:16.036726 12693 net.cpp:157] Top shape: 1 244 75 125 (2287500)
I0215 10:12:16.036733 12693 net.cpp:165] Memory required for data: 3725100028
I0215 10:12:16.036743 12693 layer_factory.hpp:77] Creating layer Convolution23
I0215 10:12:16.036767 12693 net.cpp:106] Creating Layer Convolution23
I0215 10:12:16.036785 12693 net.cpp:454] Convolution23 <- BatchNorm22
I0215 10:12:16.036801 12693 net.cpp:411] Convolution23 -> Convolution23
I0215 10:12:16.037536 12693 net.cpp:150] Setting up Convolution23
I0215 10:12:16.037554 12693 net.cpp:157] Top shape: 1 12 75 125 (112500)
I0215 10:12:16.037562 12693 net.cpp:165] Memory required for data: 3725550028
I0215 10:12:16.037573 12693 layer_factory.hpp:77] Creating layer Dropout22
I0215 10:12:16.037587 12693 net.cpp:106] Creating Layer Dropout22
I0215 10:12:16.037606 12693 net.cpp:454] Dropout22 <- Convolution23
I0215 10:12:16.037626 12693 net.cpp:411] Dropout22 -> Dropout22
I0215 10:12:16.037730 12693 net.cpp:150] Setting up Dropout22
I0215 10:12:16.037750 12693 net.cpp:157] Top shape: 1 12 75 125 (112500)
I0215 10:12:16.037760 12693 net.cpp:165] Memory required for data: 3726000028
I0215 10:12:16.037770 12693 layer_factory.hpp:77] Creating layer Concat20
I0215 10:12:16.037791 12693 net.cpp:106] Creating Layer Concat20
I0215 10:12:16.037807 12693 net.cpp:454] Concat20 <- Concat19_Concat19_0_split_1
I0215 10:12:16.037819 12693 net.cpp:454] Concat20 <- Dropout22
I0215 10:12:16.037837 12693 net.cpp:411] Concat20 -> Concat20
I0215 10:12:16.037904 12693 net.cpp:150] Setting up Concat20
I0215 10:12:16.037919 12693 net.cpp:157] Top shape: 1 256 75 125 (2400000)
I0215 10:12:16.037927 12693 net.cpp:165] Memory required for data: 3735600028
I0215 10:12:16.037945 12693 layer_factory.hpp:77] Creating layer Concat20_Concat20_0_split
I0215 10:12:16.037955 12693 net.cpp:106] Creating Layer Concat20_Concat20_0_split
I0215 10:12:16.037981 12693 net.cpp:454] Concat20_Concat20_0_split <- Concat20
I0215 10:12:16.037993 12693 net.cpp:411] Concat20_Concat20_0_split -> Concat20_Concat20_0_split_0
I0215 10:12:16.038012 12693 net.cpp:411] Concat20_Concat20_0_split -> Concat20_Concat20_0_split_1
I0215 10:12:16.038103 12693 net.cpp:150] Setting up Concat20_Concat20_0_split
I0215 10:12:16.038117 12693 net.cpp:157] Top shape: 1 256 75 125 (2400000)
I0215 10:12:16.038130 12693 net.cpp:157] Top shape: 1 256 75 125 (2400000)
I0215 10:12:16.038139 12693 net.cpp:165] Memory required for data: 3754800028
I0215 10:12:16.038153 12693 layer_factory.hpp:77] Creating layer BatchNorm23
I0215 10:12:16.038177 12693 net.cpp:106] Creating Layer BatchNorm23
I0215 10:12:16.038188 12693 net.cpp:454] BatchNorm23 <- Concat20_Concat20_0_split_0
I0215 10:12:16.038209 12693 net.cpp:411] BatchNorm23 -> BatchNorm23
I0215 10:12:16.038704 12693 net.cpp:150] Setting up BatchNorm23
I0215 10:12:16.038733 12693 net.cpp:157] Top shape: 1 256 75 125 (2400000)
I0215 10:12:16.038739 12693 net.cpp:165] Memory required for data: 3764400028
I0215 10:12:16.038759 12693 layer_factory.hpp:77] Creating layer Scale23
I0215 10:12:16.038774 12693 net.cpp:106] Creating Layer Scale23
I0215 10:12:16.038784 12693 net.cpp:454] Scale23 <- BatchNorm23
I0215 10:12:16.038810 12693 net.cpp:397] Scale23 -> BatchNorm23 (in-place)
I0215 10:12:16.038936 12693 layer_factory.hpp:77] Creating layer Scale23
I0215 10:12:16.039247 12693 net.cpp:150] Setting up Scale23
I0215 10:12:16.039263 12693 net.cpp:157] Top shape: 1 256 75 125 (2400000)
I0215 10:12:16.039286 12693 net.cpp:165] Memory required for data: 3774000028
I0215 10:12:16.039302 12693 layer_factory.hpp:77] Creating layer ReLU23
I0215 10:12:16.039317 12693 net.cpp:106] Creating Layer ReLU23
I0215 10:12:16.039330 12693 net.cpp:454] ReLU23 <- BatchNorm23
I0215 10:12:16.039341 12693 net.cpp:397] ReLU23 -> BatchNorm23 (in-place)
I0215 10:12:16.039361 12693 net.cpp:150] Setting up ReLU23
I0215 10:12:16.039381 12693 net.cpp:157] Top shape: 1 256 75 125 (2400000)
I0215 10:12:16.039391 12693 net.cpp:165] Memory required for data: 3783600028
I0215 10:12:16.039400 12693 layer_factory.hpp:77] Creating layer Convolution24
I0215 10:12:16.039422 12693 net.cpp:106] Creating Layer Convolution24
I0215 10:12:16.039434 12693 net.cpp:454] Convolution24 <- BatchNorm23
I0215 10:12:16.039458 12693 net.cpp:411] Convolution24 -> Convolution24
I0215 10:12:16.040210 12693 net.cpp:150] Setting up Convolution24
I0215 10:12:16.040226 12693 net.cpp:157] Top shape: 1 12 75 125 (112500)
I0215 10:12:16.040235 12693 net.cpp:165] Memory required for data: 3784050028
I0215 10:12:16.040247 12693 layer_factory.hpp:77] Creating layer Dropout23
I0215 10:12:16.040261 12693 net.cpp:106] Creating Layer Dropout23
I0215 10:12:16.040271 12693 net.cpp:454] Dropout23 <- Convolution24
I0215 10:12:16.040295 12693 net.cpp:411] Dropout23 -> Dropout23
I0215 10:12:16.040390 12693 net.cpp:150] Setting up Dropout23
I0215 10:12:16.040408 12693 net.cpp:157] Top shape: 1 12 75 125 (112500)
I0215 10:12:16.040417 12693 net.cpp:165] Memory required for data: 3784500028
I0215 10:12:16.040426 12693 layer_factory.hpp:77] Creating layer Concat21
I0215 10:12:16.040438 12693 net.cpp:106] Creating Layer Concat21
I0215 10:12:16.040448 12693 net.cpp:454] Concat21 <- Concat20_Concat20_0_split_1
I0215 10:12:16.040460 12693 net.cpp:454] Concat21 <- Dropout23
I0215 10:12:16.040473 12693 net.cpp:411] Concat21 -> Concat21
I0215 10:12:16.040532 12693 net.cpp:150] Setting up Concat21
I0215 10:12:16.040546 12693 net.cpp:157] Top shape: 1 268 75 125 (2512500)
I0215 10:12:16.040555 12693 net.cpp:165] Memory required for data: 3794550028
I0215 10:12:16.040565 12693 layer_factory.hpp:77] Creating layer Concat21_Concat21_0_split
I0215 10:12:16.040577 12693 net.cpp:106] Creating Layer Concat21_Concat21_0_split
I0215 10:12:16.040587 12693 net.cpp:454] Concat21_Concat21_0_split <- Concat21
I0215 10:12:16.040608 12693 net.cpp:411] Concat21_Concat21_0_split -> Concat21_Concat21_0_split_0
I0215 10:12:16.040622 12693 net.cpp:411] Concat21_Concat21_0_split -> Concat21_Concat21_0_split_1
I0215 10:12:16.040710 12693 net.cpp:150] Setting up Concat21_Concat21_0_split
I0215 10:12:16.040727 12693 net.cpp:157] Top shape: 1 268 75 125 (2512500)
I0215 10:12:16.040740 12693 net.cpp:157] Top shape: 1 268 75 125 (2512500)
I0215 10:12:16.040748 12693 net.cpp:165] Memory required for data: 3814650028
I0215 10:12:16.040756 12693 layer_factory.hpp:77] Creating layer BatchNorm24
I0215 10:12:16.040768 12693 net.cpp:106] Creating Layer BatchNorm24
I0215 10:12:16.040778 12693 net.cpp:454] BatchNorm24 <- Concat21_Concat21_0_split_0
I0215 10:12:16.040794 12693 net.cpp:411] BatchNorm24 -> BatchNorm24
I0215 10:12:16.042110 12693 net.cpp:150] Setting up BatchNorm24
I0215 10:12:16.042125 12693 net.cpp:157] Top shape: 1 268 75 125 (2512500)
I0215 10:12:16.042130 12693 net.cpp:165] Memory required for data: 3824700028
I0215 10:12:16.042141 12693 layer_factory.hpp:77] Creating layer Scale24
I0215 10:12:16.042152 12693 net.cpp:106] Creating Layer Scale24
I0215 10:12:16.042160 12693 net.cpp:454] Scale24 <- BatchNorm24
I0215 10:12:16.042168 12693 net.cpp:397] Scale24 -> BatchNorm24 (in-place)
I0215 10:12:16.042244 12693 layer_factory.hpp:77] Creating layer Scale24
I0215 10:12:16.042474 12693 net.cpp:150] Setting up Scale24
I0215 10:12:16.042486 12693 net.cpp:157] Top shape: 1 268 75 125 (2512500)
I0215 10:12:16.042491 12693 net.cpp:165] Memory required for data: 3834750028
I0215 10:12:16.042500 12693 layer_factory.hpp:77] Creating layer ReLU24
I0215 10:12:16.042508 12693 net.cpp:106] Creating Layer ReLU24
I0215 10:12:16.042513 12693 net.cpp:454] ReLU24 <- BatchNorm24
I0215 10:12:16.042520 12693 net.cpp:397] ReLU24 -> BatchNorm24 (in-place)
I0215 10:12:16.042528 12693 net.cpp:150] Setting up ReLU24
I0215 10:12:16.042534 12693 net.cpp:157] Top shape: 1 268 75 125 (2512500)
I0215 10:12:16.042539 12693 net.cpp:165] Memory required for data: 3844800028
I0215 10:12:16.042543 12693 layer_factory.hpp:77] Creating layer Convolution25
I0215 10:12:16.042554 12693 net.cpp:106] Creating Layer Convolution25
I0215 10:12:16.042559 12693 net.cpp:454] Convolution25 <- BatchNorm24
I0215 10:12:16.042569 12693 net.cpp:411] Convolution25 -> Convolution25
I0215 10:12:16.043817 12693 net.cpp:150] Setting up Convolution25
I0215 10:12:16.043833 12693 net.cpp:157] Top shape: 1 12 75 125 (112500)
I0215 10:12:16.043838 12693 net.cpp:165] Memory required for data: 3845250028
I0215 10:12:16.043845 12693 layer_factory.hpp:77] Creating layer Dropout24
I0215 10:12:16.043854 12693 net.cpp:106] Creating Layer Dropout24
I0215 10:12:16.043859 12693 net.cpp:454] Dropout24 <- Convolution25
I0215 10:12:16.043869 12693 net.cpp:411] Dropout24 -> Dropout24
I0215 10:12:16.043937 12693 net.cpp:150] Setting up Dropout24
I0215 10:12:16.043948 12693 net.cpp:157] Top shape: 1 12 75 125 (112500)
I0215 10:12:16.043953 12693 net.cpp:165] Memory required for data: 3845700028
I0215 10:12:16.043958 12693 layer_factory.hpp:77] Creating layer Concat22
I0215 10:12:16.043968 12693 net.cpp:106] Creating Layer Concat22
I0215 10:12:16.043974 12693 net.cpp:454] Concat22 <- Concat21_Concat21_0_split_1
I0215 10:12:16.043980 12693 net.cpp:454] Concat22 <- Dropout24
I0215 10:12:16.043988 12693 net.cpp:411] Concat22 -> Concat22
I0215 10:12:16.044030 12693 net.cpp:150] Setting up Concat22
I0215 10:12:16.044040 12693 net.cpp:157] Top shape: 1 280 75 125 (2625000)
I0215 10:12:16.044044 12693 net.cpp:165] Memory required for data: 3856200028
I0215 10:12:16.044049 12693 layer_factory.hpp:77] Creating layer Concat22_Concat22_0_split
I0215 10:12:16.044056 12693 net.cpp:106] Creating Layer Concat22_Concat22_0_split
I0215 10:12:16.044061 12693 net.cpp:454] Concat22_Concat22_0_split <- Concat22
I0215 10:12:16.044071 12693 net.cpp:411] Concat22_Concat22_0_split -> Concat22_Concat22_0_split_0
I0215 10:12:16.044080 12693 net.cpp:411] Concat22_Concat22_0_split -> Concat22_Concat22_0_split_1
I0215 10:12:16.044143 12693 net.cpp:150] Setting up Concat22_Concat22_0_split
I0215 10:12:16.044154 12693 net.cpp:157] Top shape: 1 280 75 125 (2625000)
I0215 10:12:16.044160 12693 net.cpp:157] Top shape: 1 280 75 125 (2625000)
I0215 10:12:16.044164 12693 net.cpp:165] Memory required for data: 3877200028
I0215 10:12:16.044169 12693 layer_factory.hpp:77] Creating layer BatchNorm25
I0215 10:12:16.044179 12693 net.cpp:106] Creating Layer BatchNorm25
I0215 10:12:16.044185 12693 net.cpp:454] BatchNorm25 <- Concat22_Concat22_0_split_0
I0215 10:12:16.044193 12693 net.cpp:411] BatchNorm25 -> BatchNorm25
I0215 10:12:16.044570 12693 net.cpp:150] Setting up BatchNorm25
I0215 10:12:16.044582 12693 net.cpp:157] Top shape: 1 280 75 125 (2625000)
I0215 10:12:16.044586 12693 net.cpp:165] Memory required for data: 3887700028
I0215 10:12:16.044596 12693 layer_factory.hpp:77] Creating layer Scale25
I0215 10:12:16.044605 12693 net.cpp:106] Creating Layer Scale25
I0215 10:12:16.044610 12693 net.cpp:454] Scale25 <- BatchNorm25
I0215 10:12:16.044620 12693 net.cpp:397] Scale25 -> BatchNorm25 (in-place)
I0215 10:12:16.044697 12693 layer_factory.hpp:77] Creating layer Scale25
I0215 10:12:16.044919 12693 net.cpp:150] Setting up Scale25
I0215 10:12:16.044931 12693 net.cpp:157] Top shape: 1 280 75 125 (2625000)
I0215 10:12:16.044936 12693 net.cpp:165] Memory required for data: 3898200028
I0215 10:12:16.044945 12693 layer_factory.hpp:77] Creating layer ReLU25
I0215 10:12:16.044955 12693 net.cpp:106] Creating Layer ReLU25
I0215 10:12:16.044960 12693 net.cpp:454] ReLU25 <- BatchNorm25
I0215 10:12:16.044967 12693 net.cpp:397] ReLU25 -> BatchNorm25 (in-place)
I0215 10:12:16.044975 12693 net.cpp:150] Setting up ReLU25
I0215 10:12:16.044981 12693 net.cpp:157] Top shape: 1 280 75 125 (2625000)
I0215 10:12:16.044986 12693 net.cpp:165] Memory required for data: 3908700028
I0215 10:12:16.044991 12693 layer_factory.hpp:77] Creating layer Convolution26
I0215 10:12:16.045001 12693 net.cpp:106] Creating Layer Convolution26
I0215 10:12:16.045006 12693 net.cpp:454] Convolution26 <- BatchNorm25
I0215 10:12:16.045016 12693 net.cpp:411] Convolution26 -> Convolution26
I0215 10:12:16.045583 12693 net.cpp:150] Setting up Convolution26
I0215 10:12:16.045594 12693 net.cpp:157] Top shape: 1 12 75 125 (112500)
I0215 10:12:16.045599 12693 net.cpp:165] Memory required for data: 3909150028
I0215 10:12:16.045606 12693 layer_factory.hpp:77] Creating layer Dropout25
I0215 10:12:16.045614 12693 net.cpp:106] Creating Layer Dropout25
I0215 10:12:16.045622 12693 net.cpp:454] Dropout25 <- Convolution26
I0215 10:12:16.045629 12693 net.cpp:411] Dropout25 -> Dropout25
I0215 10:12:16.045697 12693 net.cpp:150] Setting up Dropout25
I0215 10:12:16.045707 12693 net.cpp:157] Top shape: 1 12 75 125 (112500)
I0215 10:12:16.045717 12693 net.cpp:165] Memory required for data: 3909600028
I0215 10:12:16.045722 12693 layer_factory.hpp:77] Creating layer Concat23
I0215 10:12:16.045730 12693 net.cpp:106] Creating Layer Concat23
I0215 10:12:16.045735 12693 net.cpp:454] Concat23 <- Concat22_Concat22_0_split_1
I0215 10:12:16.045742 12693 net.cpp:454] Concat23 <- Dropout25
I0215 10:12:16.045750 12693 net.cpp:411] Concat23 -> Concat23
I0215 10:12:16.045791 12693 net.cpp:150] Setting up Concat23
I0215 10:12:16.045801 12693 net.cpp:157] Top shape: 1 292 75 125 (2737500)
I0215 10:12:16.045805 12693 net.cpp:165] Memory required for data: 3920550028
I0215 10:12:16.045810 12693 layer_factory.hpp:77] Creating layer Concat23_Concat23_0_split
I0215 10:12:16.045819 12693 net.cpp:106] Creating Layer Concat23_Concat23_0_split
I0215 10:12:16.045824 12693 net.cpp:454] Concat23_Concat23_0_split <- Concat23
I0215 10:12:16.045832 12693 net.cpp:411] Concat23_Concat23_0_split -> Concat23_Concat23_0_split_0
I0215 10:12:16.045840 12693 net.cpp:411] Concat23_Concat23_0_split -> Concat23_Concat23_0_split_1
I0215 10:12:16.045904 12693 net.cpp:150] Setting up Concat23_Concat23_0_split
I0215 10:12:16.045914 12693 net.cpp:157] Top shape: 1 292 75 125 (2737500)
I0215 10:12:16.045922 12693 net.cpp:157] Top shape: 1 292 75 125 (2737500)
I0215 10:12:16.045925 12693 net.cpp:165] Memory required for data: 3942450028
I0215 10:12:16.045930 12693 layer_factory.hpp:77] Creating layer BatchNorm26
I0215 10:12:16.045940 12693 net.cpp:106] Creating Layer BatchNorm26
I0215 10:12:16.045946 12693 net.cpp:454] BatchNorm26 <- Concat23_Concat23_0_split_0
I0215 10:12:16.045953 12693 net.cpp:411] BatchNorm26 -> BatchNorm26
I0215 10:12:16.046329 12693 net.cpp:150] Setting up BatchNorm26
I0215 10:12:16.046340 12693 net.cpp:157] Top shape: 1 292 75 125 (2737500)
I0215 10:12:16.046345 12693 net.cpp:165] Memory required for data: 3953400028
I0215 10:12:16.046355 12693 layer_factory.hpp:77] Creating layer Scale26
I0215 10:12:16.046366 12693 net.cpp:106] Creating Layer Scale26
I0215 10:12:16.046372 12693 net.cpp:454] Scale26 <- BatchNorm26
I0215 10:12:16.046380 12693 net.cpp:397] Scale26 -> BatchNorm26 (in-place)
I0215 10:12:16.046455 12693 layer_factory.hpp:77] Creating layer Scale26
I0215 10:12:16.046686 12693 net.cpp:150] Setting up Scale26
I0215 10:12:16.046699 12693 net.cpp:157] Top shape: 1 292 75 125 (2737500)
I0215 10:12:16.046703 12693 net.cpp:165] Memory required for data: 3964350028
I0215 10:12:16.046711 12693 layer_factory.hpp:77] Creating layer ReLU26
I0215 10:12:16.046721 12693 net.cpp:106] Creating Layer ReLU26
I0215 10:12:16.046727 12693 net.cpp:454] ReLU26 <- BatchNorm26
I0215 10:12:16.046735 12693 net.cpp:397] ReLU26 -> BatchNorm26 (in-place)
I0215 10:12:16.046742 12693 net.cpp:150] Setting up ReLU26
I0215 10:12:16.046748 12693 net.cpp:157] Top shape: 1 292 75 125 (2737500)
I0215 10:12:16.046753 12693 net.cpp:165] Memory required for data: 3975300028
I0215 10:12:16.046758 12693 layer_factory.hpp:77] Creating layer Convolution27
I0215 10:12:16.046768 12693 net.cpp:106] Creating Layer Convolution27
I0215 10:12:16.046773 12693 net.cpp:454] Convolution27 <- BatchNorm26
I0215 10:12:16.046783 12693 net.cpp:411] Convolution27 -> Convolution27
I0215 10:12:16.047344 12693 net.cpp:150] Setting up Convolution27
I0215 10:12:16.047356 12693 net.cpp:157] Top shape: 1 12 75 125 (112500)
I0215 10:12:16.047360 12693 net.cpp:165] Memory required for data: 3975750028
I0215 10:12:16.047369 12693 layer_factory.hpp:77] Creating layer Dropout26
I0215 10:12:16.047379 12693 net.cpp:106] Creating Layer Dropout26
I0215 10:12:16.047384 12693 net.cpp:454] Dropout26 <- Convolution27
I0215 10:12:16.047391 12693 net.cpp:411] Dropout26 -> Dropout26
I0215 10:12:16.047458 12693 net.cpp:150] Setting up Dropout26
I0215 10:12:16.047468 12693 net.cpp:157] Top shape: 1 12 75 125 (112500)
I0215 10:12:16.047473 12693 net.cpp:165] Memory required for data: 3976200028
I0215 10:12:16.047485 12693 layer_factory.hpp:77] Creating layer Concat24
I0215 10:12:16.047493 12693 net.cpp:106] Creating Layer Concat24
I0215 10:12:16.047498 12693 net.cpp:454] Concat24 <- Concat23_Concat23_0_split_1
I0215 10:12:16.047504 12693 net.cpp:454] Concat24 <- Dropout26
I0215 10:12:16.047513 12693 net.cpp:411] Concat24 -> Concat24
I0215 10:12:16.047555 12693 net.cpp:150] Setting up Concat24
I0215 10:12:16.047565 12693 net.cpp:157] Top shape: 1 304 75 125 (2850000)
I0215 10:12:16.047570 12693 net.cpp:165] Memory required for data: 3987600028
I0215 10:12:16.047575 12693 layer_factory.hpp:77] Creating layer BatchNorm27
I0215 10:12:16.047585 12693 net.cpp:106] Creating Layer BatchNorm27
I0215 10:12:16.047600 12693 net.cpp:454] BatchNorm27 <- Concat24
I0215 10:12:16.047615 12693 net.cpp:411] BatchNorm27 -> BatchNorm27
I0215 10:12:16.048001 12693 net.cpp:150] Setting up BatchNorm27
I0215 10:12:16.048015 12693 net.cpp:157] Top shape: 1 304 75 125 (2850000)
I0215 10:12:16.048020 12693 net.cpp:165] Memory required for data: 3999000028
I0215 10:12:16.048032 12693 layer_factory.hpp:77] Creating layer Scale27
I0215 10:12:16.048045 12693 net.cpp:106] Creating Layer Scale27
I0215 10:12:16.048053 12693 net.cpp:454] Scale27 <- BatchNorm27
I0215 10:12:16.048060 12693 net.cpp:397] Scale27 -> BatchNorm27 (in-place)
I0215 10:12:16.048138 12693 layer_factory.hpp:77] Creating layer Scale27
I0215 10:12:16.048372 12693 net.cpp:150] Setting up Scale27
I0215 10:12:16.048387 12693 net.cpp:157] Top shape: 1 304 75 125 (2850000)
I0215 10:12:16.048393 12693 net.cpp:165] Memory required for data: 4010400028
I0215 10:12:16.048403 12693 layer_factory.hpp:77] Creating layer ReLU27
I0215 10:12:16.048411 12693 net.cpp:106] Creating Layer ReLU27
I0215 10:12:16.048418 12693 net.cpp:454] ReLU27 <- BatchNorm27
I0215 10:12:16.048426 12693 net.cpp:397] ReLU27 -> BatchNorm27 (in-place)
I0215 10:12:16.048436 12693 net.cpp:150] Setting up ReLU27
I0215 10:12:16.048444 12693 net.cpp:157] Top shape: 1 304 75 125 (2850000)
I0215 10:12:16.048450 12693 net.cpp:165] Memory required for data: 4021800028
I0215 10:12:16.048455 12693 layer_factory.hpp:77] Creating layer Convolution28
I0215 10:12:16.048467 12693 net.cpp:106] Creating Layer Convolution28
I0215 10:12:16.048473 12693 net.cpp:454] Convolution28 <- BatchNorm27
I0215 10:12:16.048483 12693 net.cpp:411] Convolution28 -> Convolution28
I0215 10:12:16.049527 12693 net.cpp:150] Setting up Convolution28
I0215 10:12:16.049545 12693 net.cpp:157] Top shape: 1 304 75 125 (2850000)
I0215 10:12:16.049551 12693 net.cpp:165] Memory required for data: 4033200028
I0215 10:12:16.049558 12693 layer_factory.hpp:77] Creating layer Dropout27
I0215 10:12:16.049567 12693 net.cpp:106] Creating Layer Dropout27
I0215 10:12:16.049574 12693 net.cpp:454] Dropout27 <- Convolution28
I0215 10:12:16.049584 12693 net.cpp:411] Dropout27 -> Dropout27
I0215 10:12:16.049654 12693 net.cpp:150] Setting up Dropout27
I0215 10:12:16.049667 12693 net.cpp:157] Top shape: 1 304 75 125 (2850000)
I0215 10:12:16.049674 12693 net.cpp:165] Memory required for data: 4044600028
I0215 10:12:16.049679 12693 layer_factory.hpp:77] Creating layer Pooling3
I0215 10:12:16.049691 12693 net.cpp:106] Creating Layer Pooling3
I0215 10:12:16.049698 12693 net.cpp:454] Pooling3 <- Dropout27
I0215 10:12:16.049706 12693 net.cpp:411] Pooling3 -> Pooling3
I0215 10:12:16.049751 12693 net.cpp:150] Setting up Pooling3
I0215 10:12:16.049765 12693 net.cpp:157] Top shape: 1 304 38 63 (727776)
I0215 10:12:16.049772 12693 net.cpp:165] Memory required for data: 4047511132
I0215 10:12:16.049777 12693 layer_factory.hpp:77] Creating layer Pooling3_Pooling3_0_split
I0215 10:12:16.049787 12693 net.cpp:106] Creating Layer Pooling3_Pooling3_0_split
I0215 10:12:16.049793 12693 net.cpp:454] Pooling3_Pooling3_0_split <- Pooling3
I0215 10:12:16.049799 12693 net.cpp:411] Pooling3_Pooling3_0_split -> Pooling3_Pooling3_0_split_0
I0215 10:12:16.049809 12693 net.cpp:411] Pooling3_Pooling3_0_split -> Pooling3_Pooling3_0_split_1
I0215 10:12:16.049875 12693 net.cpp:150] Setting up Pooling3_Pooling3_0_split
I0215 10:12:16.049886 12693 net.cpp:157] Top shape: 1 304 38 63 (727776)
I0215 10:12:16.049896 12693 net.cpp:157] Top shape: 1 304 38 63 (727776)
I0215 10:12:16.049902 12693 net.cpp:165] Memory required for data: 4053333340
I0215 10:12:16.049907 12693 layer_factory.hpp:77] Creating layer BatchNorm28
I0215 10:12:16.049916 12693 net.cpp:106] Creating Layer BatchNorm28
I0215 10:12:16.049923 12693 net.cpp:454] BatchNorm28 <- Pooling3_Pooling3_0_split_0
I0215 10:12:16.049934 12693 net.cpp:411] BatchNorm28 -> BatchNorm28
I0215 10:12:16.050317 12693 net.cpp:150] Setting up BatchNorm28
I0215 10:12:16.050330 12693 net.cpp:157] Top shape: 1 304 38 63 (727776)
I0215 10:12:16.050336 12693 net.cpp:165] Memory required for data: 4056244444
I0215 10:12:16.050353 12693 layer_factory.hpp:77] Creating layer Scale28
I0215 10:12:16.050364 12693 net.cpp:106] Creating Layer Scale28
I0215 10:12:16.050371 12693 net.cpp:454] Scale28 <- BatchNorm28
I0215 10:12:16.050382 12693 net.cpp:397] Scale28 -> BatchNorm28 (in-place)
I0215 10:12:16.050458 12693 layer_factory.hpp:77] Creating layer Scale28
I0215 10:12:16.050686 12693 net.cpp:150] Setting up Scale28
I0215 10:12:16.050699 12693 net.cpp:157] Top shape: 1 304 38 63 (727776)
I0215 10:12:16.050706 12693 net.cpp:165] Memory required for data: 4059155548
I0215 10:12:16.050715 12693 layer_factory.hpp:77] Creating layer ReLU28
I0215 10:12:16.050724 12693 net.cpp:106] Creating Layer ReLU28
I0215 10:12:16.050731 12693 net.cpp:454] ReLU28 <- BatchNorm28
I0215 10:12:16.050740 12693 net.cpp:397] ReLU28 -> BatchNorm28 (in-place)
I0215 10:12:16.050750 12693 net.cpp:150] Setting up ReLU28
I0215 10:12:16.050757 12693 net.cpp:157] Top shape: 1 304 38 63 (727776)
I0215 10:12:16.050763 12693 net.cpp:165] Memory required for data: 4062066652
I0215 10:12:16.050768 12693 layer_factory.hpp:77] Creating layer Convolution29
I0215 10:12:16.050783 12693 net.cpp:106] Creating Layer Convolution29
I0215 10:12:16.050791 12693 net.cpp:454] Convolution29 <- BatchNorm28
I0215 10:12:16.050798 12693 net.cpp:411] Convolution29 -> Convolution29
I0215 10:12:16.051380 12693 net.cpp:150] Setting up Convolution29
I0215 10:12:16.051394 12693 net.cpp:157] Top shape: 1 12 38 63 (28728)
I0215 10:12:16.051400 12693 net.cpp:165] Memory required for data: 4062181564
I0215 10:12:16.051409 12693 layer_factory.hpp:77] Creating layer Dropout28
I0215 10:12:16.051417 12693 net.cpp:106] Creating Layer Dropout28
I0215 10:12:16.051424 12693 net.cpp:454] Dropout28 <- Convolution29
I0215 10:12:16.051434 12693 net.cpp:411] Dropout28 -> Dropout28
I0215 10:12:16.051502 12693 net.cpp:150] Setting up Dropout28
I0215 10:12:16.051517 12693 net.cpp:157] Top shape: 1 12 38 63 (28728)
I0215 10:12:16.051523 12693 net.cpp:165] Memory required for data: 4062296476
I0215 10:12:16.051528 12693 layer_factory.hpp:77] Creating layer Concat25
I0215 10:12:16.051537 12693 net.cpp:106] Creating Layer Concat25
I0215 10:12:16.051544 12693 net.cpp:454] Concat25 <- Pooling3_Pooling3_0_split_1
I0215 10:12:16.051550 12693 net.cpp:454] Concat25 <- Dropout28
I0215 10:12:16.051559 12693 net.cpp:411] Concat25 -> Concat25
I0215 10:12:16.051618 12693 net.cpp:150] Setting up Concat25
I0215 10:12:16.051632 12693 net.cpp:157] Top shape: 1 316 38 63 (756504)
I0215 10:12:16.051638 12693 net.cpp:165] Memory required for data: 4065322492
I0215 10:12:16.051645 12693 layer_factory.hpp:77] Creating layer Concat25_Concat25_0_split
I0215 10:12:16.051653 12693 net.cpp:106] Creating Layer Concat25_Concat25_0_split
I0215 10:12:16.051661 12693 net.cpp:454] Concat25_Concat25_0_split <- Concat25
I0215 10:12:16.051669 12693 net.cpp:411] Concat25_Concat25_0_split -> Concat25_Concat25_0_split_0
I0215 10:12:16.051679 12693 net.cpp:411] Concat25_Concat25_0_split -> Concat25_Concat25_0_split_1
I0215 10:12:16.051749 12693 net.cpp:150] Setting up Concat25_Concat25_0_split
I0215 10:12:16.051764 12693 net.cpp:157] Top shape: 1 316 38 63 (756504)
I0215 10:12:16.051772 12693 net.cpp:157] Top shape: 1 316 38 63 (756504)
I0215 10:12:16.051779 12693 net.cpp:165] Memory required for data: 4071374524
I0215 10:12:16.051784 12693 layer_factory.hpp:77] Creating layer BatchNorm29
I0215 10:12:16.051792 12693 net.cpp:106] Creating Layer BatchNorm29
I0215 10:12:16.051800 12693 net.cpp:454] BatchNorm29 <- Concat25_Concat25_0_split_0
I0215 10:12:16.051808 12693 net.cpp:411] BatchNorm29 -> BatchNorm29
I0215 10:12:16.052192 12693 net.cpp:150] Setting up BatchNorm29
I0215 10:12:16.052206 12693 net.cpp:157] Top shape: 1 316 38 63 (756504)
I0215 10:12:16.052213 12693 net.cpp:165] Memory required for data: 4074400540
I0215 10:12:16.052223 12693 layer_factory.hpp:77] Creating layer Scale29
I0215 10:12:16.052235 12693 net.cpp:106] Creating Layer Scale29
I0215 10:12:16.052243 12693 net.cpp:454] Scale29 <- BatchNorm29
I0215 10:12:16.052254 12693 net.cpp:397] Scale29 -> BatchNorm29 (in-place)
I0215 10:12:16.052332 12693 layer_factory.hpp:77] Creating layer Scale29
I0215 10:12:16.052557 12693 net.cpp:150] Setting up Scale29
I0215 10:12:16.052572 12693 net.cpp:157] Top shape: 1 316 38 63 (756504)
I0215 10:12:16.052577 12693 net.cpp:165] Memory required for data: 4077426556
I0215 10:12:16.052587 12693 layer_factory.hpp:77] Creating layer ReLU29
I0215 10:12:16.052595 12693 net.cpp:106] Creating Layer ReLU29
I0215 10:12:16.052603 12693 net.cpp:454] ReLU29 <- BatchNorm29
I0215 10:12:16.052610 12693 net.cpp:397] ReLU29 -> BatchNorm29 (in-place)
I0215 10:12:16.052620 12693 net.cpp:150] Setting up ReLU29
I0215 10:12:16.052628 12693 net.cpp:157] Top shape: 1 316 38 63 (756504)
I0215 10:12:16.052634 12693 net.cpp:165] Memory required for data: 4080452572
I0215 10:12:16.052639 12693 layer_factory.hpp:77] Creating layer Convolution30
I0215 10:12:16.052654 12693 net.cpp:106] Creating Layer Convolution30
I0215 10:12:16.052661 12693 net.cpp:454] Convolution30 <- BatchNorm29
I0215 10:12:16.052670 12693 net.cpp:411] Convolution30 -> Convolution30
I0215 10:12:16.053269 12693 net.cpp:150] Setting up Convolution30
I0215 10:12:16.053283 12693 net.cpp:157] Top shape: 1 12 38 63 (28728)
I0215 10:12:16.053290 12693 net.cpp:165] Memory required for data: 4080567484
I0215 10:12:16.053297 12693 layer_factory.hpp:77] Creating layer Dropout29
I0215 10:12:16.053308 12693 net.cpp:106] Creating Layer Dropout29
I0215 10:12:16.053314 12693 net.cpp:454] Dropout29 <- Convolution30
I0215 10:12:16.053323 12693 net.cpp:411] Dropout29 -> Dropout29
I0215 10:12:16.053397 12693 net.cpp:150] Setting up Dropout29
I0215 10:12:16.053412 12693 net.cpp:157] Top shape: 1 12 38 63 (28728)
I0215 10:12:16.053419 12693 net.cpp:165] Memory required for data: 4080682396
I0215 10:12:16.053424 12693 layer_factory.hpp:77] Creating layer Concat26
I0215 10:12:16.053433 12693 net.cpp:106] Creating Layer Concat26
I0215 10:12:16.053441 12693 net.cpp:454] Concat26 <- Concat25_Concat25_0_split_1
I0215 10:12:16.053448 12693 net.cpp:454] Concat26 <- Dropout29
I0215 10:12:16.053457 12693 net.cpp:411] Concat26 -> Concat26
I0215 10:12:16.053503 12693 net.cpp:150] Setting up Concat26
I0215 10:12:16.053514 12693 net.cpp:157] Top shape: 1 328 38 63 (785232)
I0215 10:12:16.053521 12693 net.cpp:165] Memory required for data: 4083823324
I0215 10:12:16.053526 12693 layer_factory.hpp:77] Creating layer Concat26_Concat26_0_split
I0215 10:12:16.053535 12693 net.cpp:106] Creating Layer Concat26_Concat26_0_split
I0215 10:12:16.053541 12693 net.cpp:454] Concat26_Concat26_0_split <- Concat26
I0215 10:12:16.053550 12693 net.cpp:411] Concat26_Concat26_0_split -> Concat26_Concat26_0_split_0
I0215 10:12:16.053560 12693 net.cpp:411] Concat26_Concat26_0_split -> Concat26_Concat26_0_split_1
I0215 10:12:16.053627 12693 net.cpp:150] Setting up Concat26_Concat26_0_split
I0215 10:12:16.053639 12693 net.cpp:157] Top shape: 1 328 38 63 (785232)
I0215 10:12:16.053647 12693 net.cpp:157] Top shape: 1 328 38 63 (785232)
I0215 10:12:16.053653 12693 net.cpp:165] Memory required for data: 4090105180
I0215 10:12:16.053658 12693 layer_factory.hpp:77] Creating layer BatchNorm30
I0215 10:12:16.053668 12693 net.cpp:106] Creating Layer BatchNorm30
I0215 10:12:16.053674 12693 net.cpp:454] BatchNorm30 <- Concat26_Concat26_0_split_0
I0215 10:12:16.053683 12693 net.cpp:411] BatchNorm30 -> BatchNorm30
I0215 10:12:16.054235 12693 net.cpp:150] Setting up BatchNorm30
I0215 10:12:16.054270 12693 net.cpp:157] Top shape: 1 328 38 63 (785232)
I0215 10:12:16.054276 12693 net.cpp:165] Memory required for data: 4093246108
I0215 10:12:16.054288 12693 layer_factory.hpp:77] Creating layer Scale30
I0215 10:12:16.054299 12693 net.cpp:106] Creating Layer Scale30
I0215 10:12:16.054307 12693 net.cpp:454] Scale30 <- BatchNorm30
I0215 10:12:16.054317 12693 net.cpp:397] Scale30 -> BatchNorm30 (in-place)
I0215 10:12:16.054400 12693 layer_factory.hpp:77] Creating layer Scale30
I0215 10:12:16.054610 12693 net.cpp:150] Setting up Scale30
I0215 10:12:16.054622 12693 net.cpp:157] Top shape: 1 328 38 63 (785232)
I0215 10:12:16.054628 12693 net.cpp:165] Memory required for data: 4096387036
I0215 10:12:16.054636 12693 layer_factory.hpp:77] Creating layer ReLU30
I0215 10:12:16.054644 12693 net.cpp:106] Creating Layer ReLU30
I0215 10:12:16.054651 12693 net.cpp:454] ReLU30 <- BatchNorm30
I0215 10:12:16.054658 12693 net.cpp:397] ReLU30 -> BatchNorm30 (in-place)
I0215 10:12:16.054667 12693 net.cpp:150] Setting up ReLU30
I0215 10:12:16.054674 12693 net.cpp:157] Top shape: 1 328 38 63 (785232)
I0215 10:12:16.054680 12693 net.cpp:165] Memory required for data: 4099527964
I0215 10:12:16.054684 12693 layer_factory.hpp:77] Creating layer Convolution31
I0215 10:12:16.054697 12693 net.cpp:106] Creating Layer Convolution31
I0215 10:12:16.054704 12693 net.cpp:454] Convolution31 <- BatchNorm30
I0215 10:12:16.054713 12693 net.cpp:411] Convolution31 -> Convolution31
I0215 10:12:16.055290 12693 net.cpp:150] Setting up Convolution31
I0215 10:12:16.055304 12693 net.cpp:157] Top shape: 1 12 38 63 (28728)
I0215 10:12:16.055308 12693 net.cpp:165] Memory required for data: 4099642876
I0215 10:12:16.055315 12693 layer_factory.hpp:77] Creating layer Dropout30
I0215 10:12:16.055325 12693 net.cpp:106] Creating Layer Dropout30
I0215 10:12:16.055330 12693 net.cpp:454] Dropout30 <- Convolution31
I0215 10:12:16.055342 12693 net.cpp:411] Dropout30 -> Dropout30
I0215 10:12:16.055410 12693 net.cpp:150] Setting up Dropout30
I0215 10:12:16.055423 12693 net.cpp:157] Top shape: 1 12 38 63 (28728)
I0215 10:12:16.055428 12693 net.cpp:165] Memory required for data: 4099757788
I0215 10:12:16.055433 12693 layer_factory.hpp:77] Creating layer Concat27
I0215 10:12:16.055441 12693 net.cpp:106] Creating Layer Concat27
I0215 10:12:16.055449 12693 net.cpp:454] Concat27 <- Concat26_Concat26_0_split_1
I0215 10:12:16.055455 12693 net.cpp:454] Concat27 <- Dropout30
I0215 10:12:16.055464 12693 net.cpp:411] Concat27 -> Concat27
I0215 10:12:16.055506 12693 net.cpp:150] Setting up Concat27
I0215 10:12:16.055517 12693 net.cpp:157] Top shape: 1 340 38 63 (813960)
I0215 10:12:16.055522 12693 net.cpp:165] Memory required for data: 4103013628
I0215 10:12:16.055527 12693 layer_factory.hpp:77] Creating layer Concat27_Concat27_0_split
I0215 10:12:16.055536 12693 net.cpp:106] Creating Layer Concat27_Concat27_0_split
I0215 10:12:16.055541 12693 net.cpp:454] Concat27_Concat27_0_split <- Concat27
I0215 10:12:16.055550 12693 net.cpp:411] Concat27_Concat27_0_split -> Concat27_Concat27_0_split_0
I0215 10:12:16.055563 12693 net.cpp:411] Concat27_Concat27_0_split -> Concat27_Concat27_0_split_1
I0215 10:12:16.055649 12693 net.cpp:150] Setting up Concat27_Concat27_0_split
I0215 10:12:16.055662 12693 net.cpp:157] Top shape: 1 340 38 63 (813960)
I0215 10:12:16.055670 12693 net.cpp:157] Top shape: 1 340 38 63 (813960)
I0215 10:12:16.055675 12693 net.cpp:165] Memory required for data: 4109525308
I0215 10:12:16.055680 12693 layer_factory.hpp:77] Creating layer BatchNorm31
I0215 10:12:16.055688 12693 net.cpp:106] Creating Layer BatchNorm31
I0215 10:12:16.055696 12693 net.cpp:454] BatchNorm31 <- Concat27_Concat27_0_split_0
I0215 10:12:16.055704 12693 net.cpp:411] BatchNorm31 -> BatchNorm31
I0215 10:12:16.056124 12693 net.cpp:150] Setting up BatchNorm31
I0215 10:12:16.056138 12693 net.cpp:157] Top shape: 1 340 38 63 (813960)
I0215 10:12:16.056143 12693 net.cpp:165] Memory required for data: 4112781148
I0215 10:12:16.056154 12693 layer_factory.hpp:77] Creating layer Scale31
I0215 10:12:16.056165 12693 net.cpp:106] Creating Layer Scale31
I0215 10:12:16.056172 12693 net.cpp:454] Scale31 <- BatchNorm31
I0215 10:12:16.056180 12693 net.cpp:397] Scale31 -> BatchNorm31 (in-place)
I0215 10:12:16.056253 12693 layer_factory.hpp:77] Creating layer Scale31
I0215 10:12:16.056455 12693 net.cpp:150] Setting up Scale31
I0215 10:12:16.056469 12693 net.cpp:157] Top shape: 1 340 38 63 (813960)
I0215 10:12:16.056475 12693 net.cpp:165] Memory required for data: 4116036988
I0215 10:12:16.056483 12693 layer_factory.hpp:77] Creating layer ReLU31
I0215 10:12:16.056490 12693 net.cpp:106] Creating Layer ReLU31
I0215 10:12:16.056496 12693 net.cpp:454] ReLU31 <- BatchNorm31
I0215 10:12:16.056502 12693 net.cpp:397] ReLU31 -> BatchNorm31 (in-place)
I0215 10:12:16.056511 12693 net.cpp:150] Setting up ReLU31
I0215 10:12:16.056519 12693 net.cpp:157] Top shape: 1 340 38 63 (813960)
I0215 10:12:16.056524 12693 net.cpp:165] Memory required for data: 4119292828
I0215 10:12:16.056529 12693 layer_factory.hpp:77] Creating layer Convolution32
I0215 10:12:16.056540 12693 net.cpp:106] Creating Layer Convolution32
I0215 10:12:16.056547 12693 net.cpp:454] Convolution32 <- BatchNorm31
I0215 10:12:16.056555 12693 net.cpp:411] Convolution32 -> Convolution32
I0215 10:12:16.057134 12693 net.cpp:150] Setting up Convolution32
I0215 10:12:16.057147 12693 net.cpp:157] Top shape: 1 12 38 63 (28728)
I0215 10:12:16.057152 12693 net.cpp:165] Memory required for data: 4119407740
I0215 10:12:16.057159 12693 layer_factory.hpp:77] Creating layer Dropout31
I0215 10:12:16.057168 12693 net.cpp:106] Creating Layer Dropout31
I0215 10:12:16.057174 12693 net.cpp:454] Dropout31 <- Convolution32
I0215 10:12:16.057184 12693 net.cpp:411] Dropout31 -> Dropout31
I0215 10:12:16.057248 12693 net.cpp:150] Setting up Dropout31
I0215 10:12:16.057260 12693 net.cpp:157] Top shape: 1 12 38 63 (28728)
I0215 10:12:16.057265 12693 net.cpp:165] Memory required for data: 4119522652
I0215 10:12:16.057271 12693 layer_factory.hpp:77] Creating layer Concat28
I0215 10:12:16.057278 12693 net.cpp:106] Creating Layer Concat28
I0215 10:12:16.057284 12693 net.cpp:454] Concat28 <- Concat27_Concat27_0_split_1
I0215 10:12:16.057291 12693 net.cpp:454] Concat28 <- Dropout31
I0215 10:12:16.057298 12693 net.cpp:411] Concat28 -> Concat28
I0215 10:12:16.057341 12693 net.cpp:150] Setting up Concat28
I0215 10:12:16.057353 12693 net.cpp:157] Top shape: 1 352 38 63 (842688)
I0215 10:12:16.057358 12693 net.cpp:165] Memory required for data: 4122893404
I0215 10:12:16.057363 12693 layer_factory.hpp:77] Creating layer Concat28_Concat28_0_split
I0215 10:12:16.057368 12693 net.cpp:106] Creating Layer Concat28_Concat28_0_split
I0215 10:12:16.057374 12693 net.cpp:454] Concat28_Concat28_0_split <- Concat28
I0215 10:12:16.057381 12693 net.cpp:411] Concat28_Concat28_0_split -> Concat28_Concat28_0_split_0
I0215 10:12:16.057389 12693 net.cpp:411] Concat28_Concat28_0_split -> Concat28_Concat28_0_split_1
I0215 10:12:16.057448 12693 net.cpp:150] Setting up Concat28_Concat28_0_split
I0215 10:12:16.057459 12693 net.cpp:157] Top shape: 1 352 38 63 (842688)
I0215 10:12:16.057466 12693 net.cpp:157] Top shape: 1 352 38 63 (842688)
I0215 10:12:16.057471 12693 net.cpp:165] Memory required for data: 4129634908
I0215 10:12:16.057476 12693 layer_factory.hpp:77] Creating layer BatchNorm32
I0215 10:12:16.057484 12693 net.cpp:106] Creating Layer BatchNorm32
I0215 10:12:16.057490 12693 net.cpp:454] BatchNorm32 <- Concat28_Concat28_0_split_0
I0215 10:12:16.057499 12693 net.cpp:411] BatchNorm32 -> BatchNorm32
I0215 10:12:16.057838 12693 net.cpp:150] Setting up BatchNorm32
I0215 10:12:16.057850 12693 net.cpp:157] Top shape: 1 352 38 63 (842688)
I0215 10:12:16.057857 12693 net.cpp:165] Memory required for data: 4133005660
I0215 10:12:16.057867 12693 layer_factory.hpp:77] Creating layer Scale32
I0215 10:12:16.057878 12693 net.cpp:106] Creating Layer Scale32
I0215 10:12:16.057883 12693 net.cpp:454] Scale32 <- BatchNorm32
I0215 10:12:16.057891 12693 net.cpp:397] Scale32 -> BatchNorm32 (in-place)
I0215 10:12:16.057960 12693 layer_factory.hpp:77] Creating layer Scale32
I0215 10:12:16.058161 12693 net.cpp:150] Setting up Scale32
I0215 10:12:16.058173 12693 net.cpp:157] Top shape: 1 352 38 63 (842688)
I0215 10:12:16.058179 12693 net.cpp:165] Memory required for data: 4136376412
I0215 10:12:16.058187 12693 layer_factory.hpp:77] Creating layer ReLU32
I0215 10:12:16.058195 12693 net.cpp:106] Creating Layer ReLU32
I0215 10:12:16.058202 12693 net.cpp:454] ReLU32 <- BatchNorm32
I0215 10:12:16.058209 12693 net.cpp:397] ReLU32 -> BatchNorm32 (in-place)
I0215 10:12:16.058217 12693 net.cpp:150] Setting up ReLU32
I0215 10:12:16.058221 12693 net.cpp:157] Top shape: 1 352 38 63 (842688)
I0215 10:12:16.058228 12693 net.cpp:165] Memory required for data: 4139747164
I0215 10:12:16.058233 12693 layer_factory.hpp:77] Creating layer Convolution33
I0215 10:12:16.058244 12693 net.cpp:106] Creating Layer Convolution33
I0215 10:12:16.058250 12693 net.cpp:454] Convolution33 <- BatchNorm32
I0215 10:12:16.058259 12693 net.cpp:411] Convolution33 -> Convolution33
I0215 10:12:16.059444 12693 net.cpp:150] Setting up Convolution33
I0215 10:12:16.059459 12693 net.cpp:157] Top shape: 1 12 38 63 (28728)
I0215 10:12:16.059465 12693 net.cpp:165] Memory required for data: 4139862076
I0215 10:12:16.059473 12693 layer_factory.hpp:77] Creating layer Dropout32
I0215 10:12:16.059481 12693 net.cpp:106] Creating Layer Dropout32
I0215 10:12:16.059487 12693 net.cpp:454] Dropout32 <- Convolution33
I0215 10:12:16.059495 12693 net.cpp:411] Dropout32 -> Dropout32
I0215 10:12:16.059561 12693 net.cpp:150] Setting up Dropout32
I0215 10:12:16.059571 12693 net.cpp:157] Top shape: 1 12 38 63 (28728)
I0215 10:12:16.059577 12693 net.cpp:165] Memory required for data: 4139976988
I0215 10:12:16.059582 12693 layer_factory.hpp:77] Creating layer Concat29
I0215 10:12:16.059597 12693 net.cpp:106] Creating Layer Concat29
I0215 10:12:16.059604 12693 net.cpp:454] Concat29 <- Concat28_Concat28_0_split_1
I0215 10:12:16.059610 12693 net.cpp:454] Concat29 <- Dropout32
I0215 10:12:16.059618 12693 net.cpp:411] Concat29 -> Concat29
I0215 10:12:16.059660 12693 net.cpp:150] Setting up Concat29
I0215 10:12:16.059674 12693 net.cpp:157] Top shape: 1 364 38 63 (871416)
I0215 10:12:16.059680 12693 net.cpp:165] Memory required for data: 4143462652
I0215 10:12:16.059685 12693 layer_factory.hpp:77] Creating layer Concat29_Concat29_0_split
I0215 10:12:16.059692 12693 net.cpp:106] Creating Layer Concat29_Concat29_0_split
I0215 10:12:16.059700 12693 net.cpp:454] Concat29_Concat29_0_split <- Concat29
I0215 10:12:16.059706 12693 net.cpp:411] Concat29_Concat29_0_split -> Concat29_Concat29_0_split_0
I0215 10:12:16.059715 12693 net.cpp:411] Concat29_Concat29_0_split -> Concat29_Concat29_0_split_1
I0215 10:12:16.059775 12693 net.cpp:150] Setting up Concat29_Concat29_0_split
I0215 10:12:16.059788 12693 net.cpp:157] Top shape: 1 364 38 63 (871416)
I0215 10:12:16.059795 12693 net.cpp:157] Top shape: 1 364 38 63 (871416)
I0215 10:12:16.059801 12693 net.cpp:165] Memory required for data: 4150433980
I0215 10:12:16.059805 12693 layer_factory.hpp:77] Creating layer BatchNorm33
I0215 10:12:16.059813 12693 net.cpp:106] Creating Layer BatchNorm33
I0215 10:12:16.059820 12693 net.cpp:454] BatchNorm33 <- Concat29_Concat29_0_split_0
I0215 10:12:16.059830 12693 net.cpp:411] BatchNorm33 -> BatchNorm33
I0215 10:12:16.060214 12693 net.cpp:150] Setting up BatchNorm33
I0215 10:12:16.060226 12693 net.cpp:157] Top shape: 1 364 38 63 (871416)
I0215 10:12:16.060231 12693 net.cpp:165] Memory required for data: 4153919644
I0215 10:12:16.060241 12693 layer_factory.hpp:77] Creating layer Scale33
I0215 10:12:16.060252 12693 net.cpp:106] Creating Layer Scale33
I0215 10:12:16.060259 12693 net.cpp:454] Scale33 <- BatchNorm33
I0215 10:12:16.060269 12693 net.cpp:397] Scale33 -> BatchNorm33 (in-place)
I0215 10:12:16.060338 12693 layer_factory.hpp:77] Creating layer Scale33
I0215 10:12:16.060544 12693 net.cpp:150] Setting up Scale33
I0215 10:12:16.060556 12693 net.cpp:157] Top shape: 1 364 38 63 (871416)
I0215 10:12:16.060561 12693 net.cpp:165] Memory required for data: 4157405308
I0215 10:12:16.060570 12693 layer_factory.hpp:77] Creating layer ReLU33
I0215 10:12:16.060577 12693 net.cpp:106] Creating Layer ReLU33
I0215 10:12:16.060585 12693 net.cpp:454] ReLU33 <- BatchNorm33
I0215 10:12:16.060591 12693 net.cpp:397] ReLU33 -> BatchNorm33 (in-place)
I0215 10:12:16.060600 12693 net.cpp:150] Setting up ReLU33
I0215 10:12:16.060606 12693 net.cpp:157] Top shape: 1 364 38 63 (871416)
I0215 10:12:16.060611 12693 net.cpp:165] Memory required for data: 4160890972
I0215 10:12:16.060616 12693 layer_factory.hpp:77] Creating layer Convolution34
I0215 10:12:16.060628 12693 net.cpp:106] Creating Layer Convolution34
I0215 10:12:16.060634 12693 net.cpp:454] Convolution34 <- BatchNorm33
I0215 10:12:16.060643 12693 net.cpp:411] Convolution34 -> Convolution34
I0215 10:12:16.061197 12693 net.cpp:150] Setting up Convolution34
I0215 10:12:16.061210 12693 net.cpp:157] Top shape: 1 12 38 63 (28728)
I0215 10:12:16.061215 12693 net.cpp:165] Memory required for data: 4161005884
I0215 10:12:16.061223 12693 layer_factory.hpp:77] Creating layer Dropout33
I0215 10:12:16.061233 12693 net.cpp:106] Creating Layer Dropout33
I0215 10:12:16.061239 12693 net.cpp:454] Dropout33 <- Convolution34
I0215 10:12:16.061247 12693 net.cpp:411] Dropout33 -> Dropout33
I0215 10:12:16.061311 12693 net.cpp:150] Setting up Dropout33
I0215 10:12:16.061322 12693 net.cpp:157] Top shape: 1 12 38 63 (28728)
I0215 10:12:16.061327 12693 net.cpp:165] Memory required for data: 4161120796
I0215 10:12:16.061332 12693 layer_factory.hpp:77] Creating layer Concat30
I0215 10:12:16.061341 12693 net.cpp:106] Creating Layer Concat30
I0215 10:12:16.061347 12693 net.cpp:454] Concat30 <- Concat29_Concat29_0_split_1
I0215 10:12:16.061354 12693 net.cpp:454] Concat30 <- Dropout33
I0215 10:12:16.061363 12693 net.cpp:411] Concat30 -> Concat30
I0215 10:12:16.061403 12693 net.cpp:150] Setting up Concat30
I0215 10:12:16.061414 12693 net.cpp:157] Top shape: 1 376 38 63 (900144)
I0215 10:12:16.061419 12693 net.cpp:165] Memory required for data: 4164721372
I0215 10:12:16.061424 12693 layer_factory.hpp:77] Creating layer Concat30_Concat30_0_split
I0215 10:12:16.061434 12693 net.cpp:106] Creating Layer Concat30_Concat30_0_split
I0215 10:12:16.061440 12693 net.cpp:454] Concat30_Concat30_0_split <- Concat30
I0215 10:12:16.061447 12693 net.cpp:411] Concat30_Concat30_0_split -> Concat30_Concat30_0_split_0
I0215 10:12:16.061455 12693 net.cpp:411] Concat30_Concat30_0_split -> Concat30_Concat30_0_split_1
I0215 10:12:16.061513 12693 net.cpp:150] Setting up Concat30_Concat30_0_split
I0215 10:12:16.061524 12693 net.cpp:157] Top shape: 1 376 38 63 (900144)
I0215 10:12:16.061532 12693 net.cpp:157] Top shape: 1 376 38 63 (900144)
I0215 10:12:16.061537 12693 net.cpp:165] Memory required for data: 4171922524
I0215 10:12:16.061542 12693 layer_factory.hpp:77] Creating layer BatchNorm34
I0215 10:12:16.061553 12693 net.cpp:106] Creating Layer BatchNorm34
I0215 10:12:16.061558 12693 net.cpp:454] BatchNorm34 <- Concat30_Concat30_0_split_0
I0215 10:12:16.061566 12693 net.cpp:411] BatchNorm34 -> BatchNorm34
I0215 10:12:16.061909 12693 net.cpp:150] Setting up BatchNorm34
I0215 10:12:16.061921 12693 net.cpp:157] Top shape: 1 376 38 63 (900144)
I0215 10:12:16.061928 12693 net.cpp:165] Memory required for data: 4175523100
I0215 10:12:16.061936 12693 layer_factory.hpp:77] Creating layer Scale34
I0215 10:12:16.061947 12693 net.cpp:106] Creating Layer Scale34
I0215 10:12:16.061954 12693 net.cpp:454] Scale34 <- BatchNorm34
I0215 10:12:16.061962 12693 net.cpp:397] Scale34 -> BatchNorm34 (in-place)
I0215 10:12:16.062034 12693 layer_factory.hpp:77] Creating layer Scale34
I0215 10:12:16.062237 12693 net.cpp:150] Setting up Scale34
I0215 10:12:16.062249 12693 net.cpp:157] Top shape: 1 376 38 63 (900144)
I0215 10:12:16.062255 12693 net.cpp:165] Memory required for data: 4179123676
I0215 10:12:16.062263 12693 layer_factory.hpp:77] Creating layer ReLU34
I0215 10:12:16.062271 12693 net.cpp:106] Creating Layer ReLU34
I0215 10:12:16.062278 12693 net.cpp:454] ReLU34 <- BatchNorm34
I0215 10:12:16.062284 12693 net.cpp:397] ReLU34 -> BatchNorm34 (in-place)
I0215 10:12:16.062292 12693 net.cpp:150] Setting up ReLU34
I0215 10:12:16.062300 12693 net.cpp:157] Top shape: 1 376 38 63 (900144)
I0215 10:12:16.062305 12693 net.cpp:165] Memory required for data: 4182724252
I0215 10:12:16.062309 12693 layer_factory.hpp:77] Creating layer Convolution35
I0215 10:12:16.062319 12693 net.cpp:106] Creating Layer Convolution35
I0215 10:12:16.062325 12693 net.cpp:454] Convolution35 <- BatchNorm34
I0215 10:12:16.062335 12693 net.cpp:411] Convolution35 -> Convolution35
I0215 10:12:16.062909 12693 net.cpp:150] Setting up Convolution35
I0215 10:12:16.062922 12693 net.cpp:157] Top shape: 1 12 38 63 (28728)
I0215 10:12:16.062928 12693 net.cpp:165] Memory required for data: 4182839164
I0215 10:12:16.062935 12693 layer_factory.hpp:77] Creating layer Dropout34
I0215 10:12:16.062945 12693 net.cpp:106] Creating Layer Dropout34
I0215 10:12:16.062952 12693 net.cpp:454] Dropout34 <- Convolution35
I0215 10:12:16.062960 12693 net.cpp:411] Dropout34 -> Dropout34
I0215 10:12:16.063024 12693 net.cpp:150] Setting up Dropout34
I0215 10:12:16.063035 12693 net.cpp:157] Top shape: 1 12 38 63 (28728)
I0215 10:12:16.063040 12693 net.cpp:165] Memory required for data: 4182954076
I0215 10:12:16.063045 12693 layer_factory.hpp:77] Creating layer Concat31
I0215 10:12:16.063052 12693 net.cpp:106] Creating Layer Concat31
I0215 10:12:16.063061 12693 net.cpp:454] Concat31 <- Concat30_Concat30_0_split_1
I0215 10:12:16.063068 12693 net.cpp:454] Concat31 <- Dropout34
I0215 10:12:16.063076 12693 net.cpp:411] Concat31 -> Concat31
I0215 10:12:16.063115 12693 net.cpp:150] Setting up Concat31
I0215 10:12:16.063127 12693 net.cpp:157] Top shape: 1 388 38 63 (928872)
I0215 10:12:16.063132 12693 net.cpp:165] Memory required for data: 4186669564
I0215 10:12:16.063136 12693 layer_factory.hpp:77] Creating layer Concat31_Concat31_0_split
I0215 10:12:16.063145 12693 net.cpp:106] Creating Layer Concat31_Concat31_0_split
I0215 10:12:16.063151 12693 net.cpp:454] Concat31_Concat31_0_split <- Concat31
I0215 10:12:16.063159 12693 net.cpp:411] Concat31_Concat31_0_split -> Concat31_Concat31_0_split_0
I0215 10:12:16.063168 12693 net.cpp:411] Concat31_Concat31_0_split -> Concat31_Concat31_0_split_1
I0215 10:12:16.063226 12693 net.cpp:150] Setting up Concat31_Concat31_0_split
I0215 10:12:16.063237 12693 net.cpp:157] Top shape: 1 388 38 63 (928872)
I0215 10:12:16.063244 12693 net.cpp:157] Top shape: 1 388 38 63 (928872)
I0215 10:12:16.063249 12693 net.cpp:165] Memory required for data: 4194100540
I0215 10:12:16.063254 12693 layer_factory.hpp:77] Creating layer BatchNorm35
I0215 10:12:16.063264 12693 net.cpp:106] Creating Layer BatchNorm35
I0215 10:12:16.063271 12693 net.cpp:454] BatchNorm35 <- Concat31_Concat31_0_split_0
I0215 10:12:16.063278 12693 net.cpp:411] BatchNorm35 -> BatchNorm35
I0215 10:12:16.063635 12693 net.cpp:150] Setting up BatchNorm35
I0215 10:12:16.063647 12693 net.cpp:157] Top shape: 1 388 38 63 (928872)
I0215 10:12:16.063653 12693 net.cpp:165] Memory required for data: 4197816028
I0215 10:12:16.063663 12693 layer_factory.hpp:77] Creating layer Scale35
I0215 10:12:16.063674 12693 net.cpp:106] Creating Layer Scale35
I0215 10:12:16.063681 12693 net.cpp:454] Scale35 <- BatchNorm35
I0215 10:12:16.063688 12693 net.cpp:397] Scale35 -> BatchNorm35 (in-place)
I0215 10:12:16.063760 12693 layer_factory.hpp:77] Creating layer Scale35
I0215 10:12:16.063964 12693 net.cpp:150] Setting up Scale35
I0215 10:12:16.063978 12693 net.cpp:157] Top shape: 1 388 38 63 (928872)
I0215 10:12:16.063984 12693 net.cpp:165] Memory required for data: 4201531516
I0215 10:12:16.063992 12693 layer_factory.hpp:77] Creating layer ReLU35
I0215 10:12:16.064000 12693 net.cpp:106] Creating Layer ReLU35
I0215 10:12:16.064007 12693 net.cpp:454] ReLU35 <- BatchNorm35
I0215 10:12:16.064014 12693 net.cpp:397] ReLU35 -> BatchNorm35 (in-place)
I0215 10:12:16.064023 12693 net.cpp:150] Setting up ReLU35
I0215 10:12:16.064029 12693 net.cpp:157] Top shape: 1 388 38 63 (928872)
I0215 10:12:16.064035 12693 net.cpp:165] Memory required for data: 4205247004
I0215 10:12:16.064039 12693 layer_factory.hpp:77] Creating layer Convolution36
I0215 10:12:16.064049 12693 net.cpp:106] Creating Layer Convolution36
I0215 10:12:16.064055 12693 net.cpp:454] Convolution36 <- BatchNorm35
I0215 10:12:16.064065 12693 net.cpp:411] Convolution36 -> Convolution36
I0215 10:12:16.064651 12693 net.cpp:150] Setting up Convolution36
I0215 10:12:16.064664 12693 net.cpp:157] Top shape: 1 12 38 63 (28728)
I0215 10:12:16.064671 12693 net.cpp:165] Memory required for data: 4205361916
I0215 10:12:16.064677 12693 layer_factory.hpp:77] Creating layer Dropout35
I0215 10:12:16.064684 12693 net.cpp:106] Creating Layer Dropout35
I0215 10:12:16.064690 12693 net.cpp:454] Dropout35 <- Convolution36
I0215 10:12:16.064698 12693 net.cpp:411] Dropout35 -> Dropout35
I0215 10:12:16.064761 12693 net.cpp:150] Setting up Dropout35
I0215 10:12:16.064772 12693 net.cpp:157] Top shape: 1 12 38 63 (28728)
I0215 10:12:16.064779 12693 net.cpp:165] Memory required for data: 4205476828
I0215 10:12:16.064784 12693 layer_factory.hpp:77] Creating layer Concat32
I0215 10:12:16.064793 12693 net.cpp:106] Creating Layer Concat32
I0215 10:12:16.064800 12693 net.cpp:454] Concat32 <- Concat31_Concat31_0_split_1
I0215 10:12:16.064806 12693 net.cpp:454] Concat32 <- Dropout35
I0215 10:12:16.064813 12693 net.cpp:411] Concat32 -> Concat32
I0215 10:12:16.064852 12693 net.cpp:150] Setting up Concat32
I0215 10:12:16.064865 12693 net.cpp:157] Top shape: 1 400 38 63 (957600)
I0215 10:12:16.064872 12693 net.cpp:165] Memory required for data: 4209307228
I0215 10:12:16.064877 12693 layer_factory.hpp:77] Creating layer BatchNorm36
I0215 10:12:16.064884 12693 net.cpp:106] Creating Layer BatchNorm36
I0215 10:12:16.064890 12693 net.cpp:454] BatchNorm36 <- Concat32
I0215 10:12:16.064899 12693 net.cpp:411] BatchNorm36 -> BatchNorm36
I0215 10:12:16.065243 12693 net.cpp:150] Setting up BatchNorm36
I0215 10:12:16.065254 12693 net.cpp:157] Top shape: 1 400 38 63 (957600)
I0215 10:12:16.065260 12693 net.cpp:165] Memory required for data: 4213137628
I0215 10:12:16.065269 12693 layer_factory.hpp:77] Creating layer Scale36
I0215 10:12:16.065281 12693 net.cpp:106] Creating Layer Scale36
I0215 10:12:16.065289 12693 net.cpp:454] Scale36 <- BatchNorm36
I0215 10:12:16.065297 12693 net.cpp:397] Scale36 -> BatchNorm36 (in-place)
I0215 10:12:16.065366 12693 layer_factory.hpp:77] Creating layer Scale36
I0215 10:12:16.065567 12693 net.cpp:150] Setting up Scale36
I0215 10:12:16.065580 12693 net.cpp:157] Top shape: 1 400 38 63 (957600)
I0215 10:12:16.065585 12693 net.cpp:165] Memory required for data: 4216968028
I0215 10:12:16.065593 12693 layer_factory.hpp:77] Creating layer ReLU36
I0215 10:12:16.065601 12693 net.cpp:106] Creating Layer ReLU36
I0215 10:12:16.065608 12693 net.cpp:454] ReLU36 <- BatchNorm36
I0215 10:12:16.065615 12693 net.cpp:397] ReLU36 -> BatchNorm36 (in-place)
I0215 10:12:16.065623 12693 net.cpp:150] Setting up ReLU36
I0215 10:12:16.065630 12693 net.cpp:157] Top shape: 1 400 38 63 (957600)
I0215 10:12:16.065635 12693 net.cpp:165] Memory required for data: 4220798428
I0215 10:12:16.065640 12693 layer_factory.hpp:77] Creating layer Convolution37
I0215 10:12:16.065654 12693 net.cpp:106] Creating Layer Convolution37
I0215 10:12:16.065659 12693 net.cpp:454] Convolution37 <- BatchNorm36
I0215 10:12:16.065668 12693 net.cpp:411] Convolution37 -> Convolution37
I0215 10:12:16.067703 12693 net.cpp:150] Setting up Convolution37
I0215 10:12:16.067718 12693 net.cpp:157] Top shape: 1 400 38 63 (957600)
I0215 10:12:16.067724 12693 net.cpp:165] Memory required for data: 4224628828
I0215 10:12:16.067731 12693 layer_factory.hpp:77] Creating layer Dropout36
I0215 10:12:16.067742 12693 net.cpp:106] Creating Layer Dropout36
I0215 10:12:16.067749 12693 net.cpp:454] Dropout36 <- Convolution37
I0215 10:12:16.067757 12693 net.cpp:411] Dropout36 -> Dropout36
I0215 10:12:16.067821 12693 net.cpp:150] Setting up Dropout36
I0215 10:12:16.067833 12693 net.cpp:157] Top shape: 1 400 38 63 (957600)
I0215 10:12:16.067839 12693 net.cpp:165] Memory required for data: 4228459228
I0215 10:12:16.067844 12693 layer_factory.hpp:77] Creating layer Pooling4
I0215 10:12:16.067862 12693 net.cpp:106] Creating Layer Pooling4
I0215 10:12:16.067868 12693 net.cpp:454] Pooling4 <- Dropout36
I0215 10:12:16.067878 12693 net.cpp:411] Pooling4 -> Pooling4
I0215 10:12:16.067921 12693 net.cpp:150] Setting up Pooling4
I0215 10:12:16.067932 12693 net.cpp:157] Top shape: 1 400 19 32 (243200)
I0215 10:12:16.067939 12693 net.cpp:165] Memory required for data: 4229432028
I0215 10:12:16.067944 12693 layer_factory.hpp:77] Creating layer BatchNorm37
I0215 10:12:16.067953 12693 net.cpp:106] Creating Layer BatchNorm37
I0215 10:12:16.067960 12693 net.cpp:454] BatchNorm37 <- Pooling4
I0215 10:12:16.067967 12693 net.cpp:411] BatchNorm37 -> BatchNorm37
I0215 10:12:16.068308 12693 net.cpp:150] Setting up BatchNorm37
I0215 10:12:16.068320 12693 net.cpp:157] Top shape: 1 400 19 32 (243200)
I0215 10:12:16.068325 12693 net.cpp:165] Memory required for data: 4230404828
I0215 10:12:16.068336 12693 layer_factory.hpp:77] Creating layer Scale37
I0215 10:12:16.068346 12693 net.cpp:106] Creating Layer Scale37
I0215 10:12:16.068353 12693 net.cpp:454] Scale37 <- BatchNorm37
I0215 10:12:16.068362 12693 net.cpp:397] Scale37 -> BatchNorm37 (in-place)
I0215 10:12:16.068433 12693 layer_factory.hpp:77] Creating layer Scale37
I0215 10:12:16.068632 12693 net.cpp:150] Setting up Scale37
I0215 10:12:16.068645 12693 net.cpp:157] Top shape: 1 400 19 32 (243200)
I0215 10:12:16.068650 12693 net.cpp:165] Memory required for data: 4231377628
I0215 10:12:16.068658 12693 layer_factory.hpp:77] Creating layer ReLU37
I0215 10:12:16.068666 12693 net.cpp:106] Creating Layer ReLU37
I0215 10:12:16.068673 12693 net.cpp:454] ReLU37 <- BatchNorm37
I0215 10:12:16.068681 12693 net.cpp:397] ReLU37 -> BatchNorm37 (in-place)
I0215 10:12:16.068688 12693 net.cpp:150] Setting up ReLU37
I0215 10:12:16.068696 12693 net.cpp:157] Top shape: 1 400 19 32 (243200)
I0215 10:12:16.068701 12693 net.cpp:165] Memory required for data: 4232350428
I0215 10:12:16.068706 12693 layer_factory.hpp:77] Creating layer rpn_conv/3x3
I0215 10:12:16.068718 12693 net.cpp:106] Creating Layer rpn_conv/3x3
I0215 10:12:16.068724 12693 net.cpp:454] rpn_conv/3x3 <- BatchNorm37
I0215 10:12:16.068733 12693 net.cpp:411] rpn_conv/3x3 -> rpn/output
I0215 10:12:16.125646 12693 net.cpp:150] Setting up rpn_conv/3x3
I0215 10:12:16.125679 12693 net.cpp:157] Top shape: 1 512 19 32 (311296)
I0215 10:12:16.125684 12693 net.cpp:165] Memory required for data: 4233595612
I0215 10:12:16.125694 12693 layer_factory.hpp:77] Creating layer rpn_relu/3x3
I0215 10:12:16.125705 12693 net.cpp:106] Creating Layer rpn_relu/3x3
I0215 10:12:16.125710 12693 net.cpp:454] rpn_relu/3x3 <- rpn/output
I0215 10:12:16.125718 12693 net.cpp:397] rpn_relu/3x3 -> rpn/output (in-place)
I0215 10:12:16.125727 12693 net.cpp:150] Setting up rpn_relu/3x3
I0215 10:12:16.125735 12693 net.cpp:157] Top shape: 1 512 19 32 (311296)
I0215 10:12:16.125741 12693 net.cpp:165] Memory required for data: 4234840796
I0215 10:12:16.125744 12693 layer_factory.hpp:77] Creating layer rpn/output_rpn_relu/3x3_0_split
I0215 10:12:16.125790 12693 net.cpp:106] Creating Layer rpn/output_rpn_relu/3x3_0_split
I0215 10:12:16.125797 12693 net.cpp:454] rpn/output_rpn_relu/3x3_0_split <- rpn/output
I0215 10:12:16.125807 12693 net.cpp:411] rpn/output_rpn_relu/3x3_0_split -> rpn/output_rpn_relu/3x3_0_split_0
I0215 10:12:16.125815 12693 net.cpp:411] rpn/output_rpn_relu/3x3_0_split -> rpn/output_rpn_relu/3x3_0_split_1
I0215 10:12:16.125882 12693 net.cpp:150] Setting up rpn/output_rpn_relu/3x3_0_split
I0215 10:12:16.125893 12693 net.cpp:157] Top shape: 1 512 19 32 (311296)
I0215 10:12:16.125900 12693 net.cpp:157] Top shape: 1 512 19 32 (311296)
I0215 10:12:16.125905 12693 net.cpp:165] Memory required for data: 4237331164
I0215 10:12:16.125911 12693 layer_factory.hpp:77] Creating layer rpn_cls_score
I0215 10:12:16.125926 12693 net.cpp:106] Creating Layer rpn_cls_score
I0215 10:12:16.125932 12693 net.cpp:454] rpn_cls_score <- rpn/output_rpn_relu/3x3_0_split_0
I0215 10:12:16.125942 12693 net.cpp:411] rpn_cls_score -> rpn_cls_score
I0215 10:12:16.127120 12693 net.cpp:150] Setting up rpn_cls_score
I0215 10:12:16.127135 12693 net.cpp:157] Top shape: 1 50 19 32 (30400)
I0215 10:12:16.127140 12693 net.cpp:165] Memory required for data: 4237452764
I0215 10:12:16.127147 12693 layer_factory.hpp:77] Creating layer rpn_cls_score_rpn_cls_score_0_split
I0215 10:12:16.127156 12693 net.cpp:106] Creating Layer rpn_cls_score_rpn_cls_score_0_split
I0215 10:12:16.127162 12693 net.cpp:454] rpn_cls_score_rpn_cls_score_0_split <- rpn_cls_score
I0215 10:12:16.127169 12693 net.cpp:411] rpn_cls_score_rpn_cls_score_0_split -> rpn_cls_score_rpn_cls_score_0_split_0
I0215 10:12:16.127179 12693 net.cpp:411] rpn_cls_score_rpn_cls_score_0_split -> rpn_cls_score_rpn_cls_score_0_split_1
I0215 10:12:16.127249 12693 net.cpp:150] Setting up rpn_cls_score_rpn_cls_score_0_split
I0215 10:12:16.127261 12693 net.cpp:157] Top shape: 1 50 19 32 (30400)
I0215 10:12:16.127269 12693 net.cpp:157] Top shape: 1 50 19 32 (30400)
I0215 10:12:16.127274 12693 net.cpp:165] Memory required for data: 4237695964
I0215 10:12:16.127279 12693 layer_factory.hpp:77] Creating layer rpn_bbox_pred
I0215 10:12:16.127291 12693 net.cpp:106] Creating Layer rpn_bbox_pred
I0215 10:12:16.127298 12693 net.cpp:454] rpn_bbox_pred <- rpn/output_rpn_relu/3x3_0_split_1
I0215 10:12:16.127307 12693 net.cpp:411] rpn_bbox_pred -> rpn_bbox_pred
I0215 10:12:16.129202 12693 net.cpp:150] Setting up rpn_bbox_pred
I0215 10:12:16.129216 12693 net.cpp:157] Top shape: 1 100 19 32 (60800)
I0215 10:12:16.129221 12693 net.cpp:165] Memory required for data: 4237939164
I0215 10:12:16.129230 12693 layer_factory.hpp:77] Creating layer rpn_cls_score_reshape
I0215 10:12:16.129242 12693 net.cpp:106] Creating Layer rpn_cls_score_reshape
I0215 10:12:16.129250 12693 net.cpp:454] rpn_cls_score_reshape <- rpn_cls_score_rpn_cls_score_0_split_0
I0215 10:12:16.129257 12693 net.cpp:411] rpn_cls_score_reshape -> rpn_cls_score_reshape
I0215 10:12:16.129309 12693 net.cpp:150] Setting up rpn_cls_score_reshape
I0215 10:12:16.129320 12693 net.cpp:157] Top shape: 1 2 475 32 (30400)
I0215 10:12:16.129326 12693 net.cpp:165] Memory required for data: 4238060764
I0215 10:12:16.129331 12693 layer_factory.hpp:77] Creating layer rpn-data
I0215 10:12:16.130020 12693 net.cpp:106] Creating Layer rpn-data
I0215 10:12:16.130034 12693 net.cpp:454] rpn-data <- rpn_cls_score_rpn_cls_score_0_split_1
I0215 10:12:16.130043 12693 net.cpp:454] rpn-data <- gt_boxes
I0215 10:12:16.130049 12693 net.cpp:454] rpn-data <- im_info
I0215 10:12:16.130056 12693 net.cpp:454] rpn-data <- data_input-data_0_split_1
I0215 10:12:16.130064 12693 net.cpp:411] rpn-data -> rpn_labels
I0215 10:12:16.130074 12693 net.cpp:411] rpn-data -> rpn_bbox_targets
I0215 10:12:16.130084 12693 net.cpp:411] rpn-data -> rpn_bbox_inside_weights
I0215 10:12:16.130095 12693 net.cpp:411] rpn-data -> rpn_bbox_outside_weights
I0215 10:12:16.134621 12693 net.cpp:150] Setting up rpn-data
I0215 10:12:16.134639 12693 net.cpp:157] Top shape: 1 1 475 32 (15200)
I0215 10:12:16.134646 12693 net.cpp:157] Top shape: 1 100 19 32 (60800)
I0215 10:12:16.134654 12693 net.cpp:157] Top shape: 1 100 19 32 (60800)
I0215 10:12:16.134660 12693 net.cpp:157] Top shape: 1 100 19 32 (60800)
I0215 10:12:16.134665 12693 net.cpp:165] Memory required for data: 4238851164
I0215 10:12:16.134670 12693 layer_factory.hpp:77] Creating layer rpn_loss_cls
I0215 10:12:16.134680 12693 net.cpp:106] Creating Layer rpn_loss_cls
I0215 10:12:16.134686 12693 net.cpp:454] rpn_loss_cls <- rpn_cls_score_reshape
I0215 10:12:16.134694 12693 net.cpp:454] rpn_loss_cls <- rpn_labels
I0215 10:12:16.134704 12693 net.cpp:411] rpn_loss_cls -> rpn_cls_loss
…
