…
random_seed: 831486
stepvalue: 60000
stepvalue: 120000
type: "Nesterov"
I0213 19:02:32.293541  8424 solver.cpp:81] Creating training net from train_net file: models/pascal_voc/VGG16/dense37net/train_densenet.prototxt
I0213 19:02:32.298125  8424 net.cpp:49] Initializing net from parameters: 
name: "Densenet_37_layers"
state {
  phase: TRAIN
}
layer {
  name: "input-data"
  type: "Python"
  top: "data"
  top: "im_info"
  top: "gt_boxes"
  python_param {
    module: "roi_data_layer.layer"
    layer: "RoIDataLayer"
    param_str: "\'num_classes\': 21"
  }
}
layer {
  name: "Convolution1"
  type: "Convolution"
  bottom: "data"
  top: "Convolution1"
  convolution_param {
    num_output: 16
    bias_term: false
    pad: 1
    kernel_size: 3
    stride: 1
    weight_filler {
      type: "msra"
    }
    bias_filler {
      type: "constant"
    }
  }
}
layer {
  name: "BatchNorm1"
  type: "BatchNorm"
  bottom: "Convolution1"
  top: "BatchNorm1"
  param {
    lr_mult: 0
    decay_mult: 0
  }
  param {
    lr_mult: 0
    decay_mult: 0
  }
  param {
    lr_mult: 0
    decay_mult: 0
  }
}
layer {
  name: "Scale1"
  type: "Scale"
  bottom: "BatchNorm1"
  top: "BatchNorm1"
  scale_param {
    filler {
      value: 1
    }
    bias_term: true
    bias_filler {
      value: 0
    }
  }
}
layer {
  name: "ReLU1"
  type: "ReLU"
  bottom: "BatchNorm1"
  top: "BatchNorm1"
}
layer {
  name: "Convolution2"
  type: "Convolution"
  bottom: "BatchNorm1"
  top: "Convolution2"
  convolution_param {
    num_output: 12
    bias_term: false
    pad: 1
    kernel_size: 3
    stride: 1
    weight_filler {
      type: "msra"
    }
    bias_filler {
      type: "constant"
    }
  }
}
layer {
  name: "Dropout1"
  type: "Dropout"
  bottom: "Convolution2"
  top: "Dropout1"
  dropout_param {
    dropout_ratio: 0.2
  }
}
layer {
  name: "Concat1"
  type: "Concat"
  bottom: "Convolution1"
  bottom: "Dropout1"
  top: "Concat1"
  concat_param {
    axis: 1
  }
}
layer {
  name: "BatchNorm2"
  type: "BatchNorm"
  bottom: "Concat1"
  top: "BatchNorm2"
  param {
    lr_mult: 0
    decay_mult: 0
  }
  param {
    lr_mult: 0
    decay_mult: 0
  }
  param {
    lr_mult: 0
    decay_mult: 0
  }
}
layer {
  name: "Scale2"
  type: "Scale"
  bottom: "BatchNorm2"
  top: "BatchNorm2"
  scale_param {
    filler {
      value: 1
    }
    bias_term: true
    bias_filler {
      value: 0
    }
  }
}
layer {
  name: "ReLU2"
  type: "ReLU"
  bottom: "BatchNorm2"
  top: "BatchNorm2"
}
layer {
  name: "Convolution3"
  type: "Convolution"
  bottom: "BatchNorm2"
  top: "Convolution3"
  convolution_param {
    num_output: 12
    bias_term: false
    pad: 1
    kernel_size: 3
    stride: 1
    weight_filler {
      type: "msra"
    }
    bias_filler {
      type: "constant"
    }
  }
}
layer {
  name: "Dropout2"
  type: "Dropout"
  bottom: "Convolution3"
  top: "Dropout2"
  dropout_param {
    dropout_ratio: 0.2
  }
}
layer {
  name: "Concat2"
  type: "Concat"
  bottom: "Concat1"
  bottom: "Dropout2"
  top: "Concat2"
  concat_param {
    axis: 1
  }
}
layer {
  name: "BatchNorm3"
  type: "BatchNorm"
  bottom: "Concat2"
  top: "BatchNorm3"
  param {
    lr_mult: 0
    decay_mult: 0
  }
  param {
    lr_mult: 0
    decay_mult: 0
  }
  param {
    lr_mult: 0
    decay_mult: 0
  }
}
layer {
  name: "Scale3"
  type: "Scale"
  bottom: "BatchNorm3"
  top: "BatchNorm3"
  scale_param {
    filler {
      value: 1
    }
    bias_term: true
    bias_filler {
      value: 0
    }
  }
}
layer {
  name: "ReLU3"
  type: "ReLU"
  bottom: "BatchNorm3"
  top: "BatchNorm3"
}
layer {
  name: "Convolution4"
  type: "Convolution"
  bottom: "BatchNorm3"
  top: "Convolution4"
  convolution_param {
    num_output: 12
    bias_term: false
    pad: 1
    kernel_size: 3
    stride: 1
    weight_filler {
      type: "msra"
    }
    bias_filler {
      type: "constant"
    }
  }
}
layer {
  name: "Dropout3"
  type: "Dropout"
  bottom: "Convolution4"
  top: "Dropout3"
  dropout_param {
    dropout_ratio: 0.2
  }
}
layer {
  name: "Concat3"
  type: "Concat"
  bottom: "Concat2"
  bottom: "Dropout3"
  top: "Concat3"
  concat_param {
    axis: 1
  }
}
layer {
  name: "BatchNorm4"
  type: "BatchNorm"
  bottom: "Concat3"
  top: "BatchNorm4"
  param {
    lr_mult: 0
    decay_mult: 0
  }
  param {
    lr_mult: 0
    decay_mult: 0
  }
  param {
    lr_mult: 0
    decay_mult: 0
  }
}
layer {
  name: "Scale4"
  type: "Scale"
  bottom: "BatchNorm4"
  top: "BatchNorm4"
  scale_param {
    filler {
      value: 1
    }
    bias_term: true
    bias_filler {
      value: 0
    }
  }
}
layer {
  name: "ReLU4"
  type: "ReLU"
  bottom: "BatchNorm4"
  top: "BatchNorm4"
}
layer {
  name: "Convolution5"
  type: "Convolution"
  bottom: "BatchNorm4"
  top: "Convolution5"
  convolution_param {
    num_output: 12
    bias_term: false
    pad: 1
    kernel_size: 3
    stride: 1
    weight_filler {
      type: "msra"
    }
    bias_filler {
      type: "constant"
    }
  }
}
layer {
  name: "Dropout4"
  type: "Dropout"
  bottom: "Convolution5"
  top: "Dropout4"
  dropout_param {
    dropout_ratio: 0.2
  }
}
layer {
  name: "Concat4"
  type: "Concat"
  bottom: "Concat3"
  bottom: "Dropout4"
  top: "Concat4"
  concat_param {
    axis: 1
  }
}
layer {
  name: "BatchNorm5"
  type: "BatchNorm"
  bottom: "Concat4"
  top: "BatchNorm5"
  param {
    lr_mult: 0
    decay_mult: 0
  }
  param {
    lr_mult: 0
    decay_mult: 0
  }
  param {
    lr_mult: 0
    decay_mult: 0
  }
}
layer {
  name: "Scale5"
  type: "Scale"
  bottom: "BatchNorm5"
  top: "BatchNorm5"
  scale_param {
    filler {
      value: 1
    }
    bias_term: true
    bias_filler {
      value: 0
    }
  }
}
layer {
  name: "ReLU5"
  type: "ReLU"
  bottom: "BatchNorm5"
  top: "BatchNorm5"
}
layer {
  name: "Convolution6"
  type: "Convolution"
  bottom: "BatchNorm5"
  top: "Convolution6"
  convolution_param {
    num_output: 12
    bias_term: false
    pad: 1
    kernel_size: 3
    stride: 1
    weight_filler {
      type: "msra"
    }
    bias_filler {
      type: "constant"
    }
  }
}
layer {
  name: "Dropout5"
  type: "Dropout"
  bottom: "Convolution6"
  top: "Dropout5"
  dropout_param {
    dropout_ratio: 0.2
  }
}
layer {
  name: "Concat5"
  type: "Concat"
  bottom: "Concat4"
  bottom: "Dropout5"
  top: "Concat5"
  concat_param {
    axis: 1
  }
}
layer {
  name: "BatchNorm6"
  type: "BatchNorm"
  bottom: "Concat5"
  top: "BatchNorm6"
  param {
    lr_mult: 0
    decay_mult: 0
  }
  param {
    lr_mult: 0
    decay_mult: 0
  }
  param {
    lr_mult: 0
    decay_mult: 0
  }
}
layer {
  name: "Scale6"
  type: "Scale"
  bottom: "BatchNorm6"
  top: "BatchNorm6"
  scale_param {
    filler {
      value: 1
    }
    bias_term: true
    bias_filler {
      value: 0
    }
  }
}
layer {
  name: "ReLU6"
  type: "ReLU"
  bottom: "BatchNorm6"
  top: "BatchNorm6"
}
layer {
  name: "Convolution7"
  type: "Convolution"
  bottom: "BatchNorm6"
  top: "Convolution7"
  convolution_param {
    num_output: 12
    bias_term: false
    pad: 1
    kernel_size: 3
    stride: 1
    weight_filler {
      type: "msra"
    }
    bias_filler {
      type: "constant"
    }
  }
}
layer {
  name: "Dropout6"
  type: "Dropout"
  bottom: "Convolution7"
  top: "Dropout6"
  dropout_param {
    dropout_ratio: 0.2
  }
}
layer {
  name: "Concat6"
  type: "Concat"
  bottom: "Concat5"
  bottom: "Dropout6"
  top: "Concat6"
  concat_param {
    axis: 1
  }
}
layer {
  name: "BatchNorm7"
  type: "BatchNorm"
  bottom: "Concat6"
  top: "BatchNorm7"
  param {
    lr_mult: 0
    decay_mult: 0
  }
  param {
    lr_mult: 0
    decay_mult: 0
  }
  param {
    lr_mult: 0
    decay_mult: 0
  }
}
layer {
  name: "Scale7"
  type: "Scale"
  bottom: "BatchNorm7"
  top: "BatchNorm7"
  scale_param {
    filler {
      value: 1
    }
    bias_term: true
    bias_filler {
      value: 0
    }
  }
}
layer {
  name: "ReLU7"
  type: "ReLU"
  bottom: "BatchNorm7"
  top: "BatchNorm7"
}
layer {
  name: "Convolution8"
  type: "Convolution"
  bottom: "BatchNorm7"
  top: "Convolution8"
  convolution_param {
    num_output: 12
    bias_term: false
    pad: 1
    kernel_size: 3
    stride: 1
    weight_filler {
      type: "msra"
    }
    bias_filler {
      type: "constant"
    }
  }
}
layer {
  name: "Dropout7"
  type: "Dropout"
  bottom: "Convolution8"
  top: "Dropout7"
  dropout_param {
    dropout_ratio: 0.2
  }
}
layer {
  name: "Concat7"
  type: "Concat"
  bottom: "Concat6"
  bottom: "Dropout7"
  top: "Concat7"
  concat_param {
    axis: 1
  }
}
layer {
  name: "BatchNorm8"
  type: "BatchNorm"
  bottom: "Concat7"
  top: "BatchNorm8"
  param {
    lr_mult: 0
    decay_mult: 0
  }
  param {
    lr_mult: 0
    decay_mult: 0
  }
  param {
    lr_mult: 0
    decay_mult: 0
  }
}
layer {
  name: "Scale8"
  type: "Scale"
  bottom: "BatchNorm8"
  top: "BatchNorm8"
  scale_param {
    filler {
      value: 1
    }
    bias_term: true
    bias_filler {
      value: 0
    }
  }
}
layer {
  name: "ReLU8"
  type: "ReLU"
  bottom: "BatchNorm8"
  top: "BatchNorm8"
}
layer {
  name: "Convolution9"
  type: "Convolution"
  bottom: "BatchNorm8"
  top: "Convolution9"
  convolution_param {
    num_output: 12
    bias_term: false
    pad: 1
    kernel_size: 3
    stride: 1
    weight_filler {
      type: "msra"
    }
    bias_filler {
      type: "constant"
    }
  }
}
layer {
  name: "Dropout8"
  type: "Dropout"
  bottom: "Convolution9"
  top: "Dropout8"
  dropout_param {
    dropout_ratio: 0.2
  }
}
layer {
  name: "Concat8"
  type: "Concat"
  bottom: "Concat7"
  bottom: "Dropout8"
  top: "Concat8"
  concat_param {
    axis: 1
  }
}
layer {
  name: "BatchNorm9"
  type: "BatchNorm"
  bottom: "Concat8"
  top: "BatchNorm9"
  param {
    lr_mult: 0
    decay_mult: 0
  }
  param {
    lr_mult: 0
    decay_mult: 0
  }
  param {
    lr_mult: 0
    decay_mult: 0
  }
}
layer {
  name: "Scale9"
  type: "Scale"
  bottom: "BatchNorm9"
  top: "BatchNorm9"
  scale_param {
    filler {
      value: 1
    }
    bias_term: true
    bias_filler {
      value: 0
    }
  }
}
layer {
  name: "ReLU9"
  type: "ReLU"
  bottom: "BatchNorm9"
  top: "BatchNorm9"
}
layer {
  name: "Convolution10"
  type: "Convolution"
  bottom: "BatchNorm9"
  top: "Convolution10"
  convolution_param {
    num_output: 112
    bias_term: false
    pad: 0
    kernel_size: 1
    stride: 1
    weight_filler {
      type: "msra"
    }
    bias_filler {
      type: "constant"
    }
  }
}
layer {
  name: "Dropout9"
  type: "Dropout"
  bottom: "Convolution10"
  top: "Dropout9"
  dropout_param {
    dropout_ratio: 0.2
  }
}
layer {
  name: "Pooling1"
  type: "Pooling"
  bottom: "Dropout9"
  top: "Pooling1"
  pooling_param {
    pool: AVE
    kernel_size: 2
    stride: 2
  }
}
layer {
  name: "BatchNorm10"
  type: "BatchNorm"
  bottom: "Pooling1"
  top: "BatchNorm10"
  param {
    lr_mult: 0
    decay_mult: 0
  }
  param {
    lr_mult: 0
    decay_mult: 0
  }
  param {
    lr_mult: 0
    decay_mult: 0
  }
}
layer {
  name: "Scale10"
  type: "Scale"
  bottom: "BatchNorm10"
  top: "BatchNorm10"
  scale_param {
    filler {
      value: 1
    }
    bias_term: true
    bias_filler {
      value: 0
    }
  }
}
layer {
  name: "ReLU10"
  type: "ReLU"
  bottom: "BatchNorm10"
  top: "BatchNorm10"
}
layer {
  name: "Convolution11"
  type: "Convolution"
  bottom: "BatchNorm10"
  top: "Convolution11"
  convolution_param {
    num_output: 12
    bias_term: false
    pad: 1
    kernel_size: 3
    stride: 1
    weight_filler {
      type: "msra"
    }
    bias_filler {
      type: "constant"
    }
  }
}
layer {
  name: "Dropout10"
  type: "Dropout"
  bottom: "Convolution11"
  top: "Dropout10"
  dropout_param {
    dropout_ratio: 0.2
  }
}
layer {
  name: "Concat9"
  type: "Concat"
  bottom: "Pooling1"
  bottom: "Dropout10"
  top: "Concat9"
  concat_param {
    axis: 1
  }
}
layer {
  name: "BatchNorm11"
  type: "BatchNorm"
  bottom: "Concat9"
  top: "BatchNorm11"
  param {
    lr_mult: 0
    decay_mult: 0
  }
  param {
    lr_mult: 0
    decay_mult: 0
  }
  param {
    lr_mult: 0
    decay_mult: 0
  }
}
layer {
  name: "Scale11"
  type: "Scale"
  bottom: "BatchNorm11"
  top: "BatchNorm11"
  scale_param {
    filler {
      value: 1
    }
    bias_term: true
    bias_filler {
      value: 0
    }
  }
}
layer {
  name: "ReLU11"
  type: "ReLU"
  bottom: "BatchNorm11"
  top: "BatchNorm11"
}
layer {
  name: "Convolution12"
  type: "Convolution"
  bottom: "BatchNorm11"
  top: "Convolution12"
  convolution_param {
    num_output: 12
    bias_term: false
    pad: 1
    kernel_size: 3
    stride: 1
    weight_filler {
      type: "msra"
    }
    bias_filler {
      type: "constant"
    }
  }
}
layer {
  name: "Dropout11"
  type: "Dropout"
  bottom: "Convolution12"
  top: "Dropout11"
  dropout_param {
    dropout_ratio: 0.2
  }
}
layer {
  name: "Concat10"
  type: "Concat"
  bottom: "Concat9"
  bottom: "Dropout11"
  top: "Concat10"
  concat_param {
    axis: 1
  }
}
layer {
  name: "BatchNorm12"
  type: "BatchNorm"
  bottom: "Concat10"
  top: "BatchNorm12"
  param {
    lr_mult: 0
    decay_mult: 0
  }
  param {
    lr_mult: 0
    decay_mult: 0
  }
  param {
    lr_mult: 0
    decay_mult: 0
  }
}
layer {
  name: "Scale12"
  type: "Scale"
  bottom: "BatchNorm12"
  top: "BatchNorm12"
  scale_param {
    filler {
      value: 1
    }
    bias_term: true
    bias_filler {
      value: 0
    }
  }
}
layer {
  name: "ReLU12"
  type: "ReLU"
  bottom: "BatchNorm12"
  top: "BatchNorm12"
}
layer {
  name: "Convolution13"
  type: "Convolution"
  bottom: "BatchNorm12"
  top: "Convolution13"
  convolution_param {
    num_output: 12
    bias_term: false
    pad: 1
    kernel_size: 3
    stride: 1
    weight_filler {
      type: "msra"
    }
    bias_filler {
      type: "constant"
    }
  }
}
layer {
  name: "Dropout12"
  type: "Dropout"
  bottom: "Convolution13"
  top: "Dropout12"
  dropout_param {
    dropout_ratio: 0.2
  }
}
layer {
  name: "Concat11"
  type: "Concat"
  bottom: "Concat10"
  bottom: "Dropout12"
  top: "Concat11"
  concat_param {
    axis: 1
  }
}
layer {
  name: "BatchNorm13"
  type: "BatchNorm"
  bottom: "Concat11"
  top: "BatchNorm13"
  param {
    lr_mult: 0
    decay_mult: 0
  }
  param {
    lr_mult: 0
    decay_mult: 0
  }
  param {
    lr_mult: 0
    decay_mult: 0
  }
}
layer {
  name: "Scale13"
  type: "Scale"
  bottom: "BatchNorm13"
  top: "BatchNorm13"
  scale_param {
    filler {
      value: 1
    }
    bias_term: true
    bias_filler {
      value: 0
    }
  }
}
layer {
  name: "ReLU13"
  type: "ReLU"
  bottom: "BatchNorm13"
  top: "BatchNorm13"
}
layer {
  name: "Convolution14"
  type: "Convolution"
  bottom: "BatchNorm13"
  top: "Convolution14"
  convolution_param {
    num_output: 12
    bias_term: false
    pad: 1
    kernel_size: 3
    stride: 1
    weight_filler {
      type: "msra"
    }
    bias_filler {
      type: "constant"
    }
  }
}
layer {
  name: "Dropout13"
  type: "Dropout"
  bottom: "Convolution14"
  top: "Dropout13"
  dropout_param {
    dropout_ratio: 0.2
  }
}
layer {
  name: "Concat12"
  type: "Concat"
  bottom: "Concat11"
  bottom: "Dropout13"
  top: "Concat12"
  concat_param {
    axis: 1
  }
}
layer {
  name: "BatchNorm14"
  type: "BatchNorm"
  bottom: "Concat12"
  top: "BatchNorm14"
  param {
    lr_mult: 0
    decay_mult: 0
  }
  param {
    lr_mult: 0
    decay_mult: 0
  }
  param {
    lr_mult: 0
    decay_mult: 0
  }
}
layer {
  name: "Scale14"
  type: "Scale"
  bottom: "BatchNorm14"
  top: "BatchNorm14"
  scale_param {
    filler {
      value: 1
    }
    bias_term: true
    bias_filler {
      value: 0
    }
  }
}
layer {
  name: "ReLU14"
  type: "ReLU"
  bottom: "BatchNorm14"
  top: "BatchNorm14"
}
layer {
  name: "Convolution15"
  type: "Convolution"
  bottom: "BatchNorm14"
  top: "Convolution15"
  convolution_param {
    num_output: 12
    bias_term: false
    pad: 1
    kernel_size: 3
    stride: 1
    weight_filler {
      type: "msra"
    }
    bias_filler {
      type: "constant"
    }
  }
}
layer {
  name: "Dropout14"
  type: "Dropout"
  bottom: "Convolution15"
  top: "Dropout14"
  dropout_param {
    dropout_ratio: 0.2
  }
}
layer {
  name: "Concat13"
  type: "Concat"
  bottom: "Concat12"
  bottom: "Dropout14"
  top: "Concat13"
  concat_param {
    axis: 1
  }
}
layer {
  name: "BatchNorm15"
  type: "BatchNorm"
  bottom: "Concat13"
  top: "BatchNorm15"
  param {
    lr_mult: 0
    decay_mult: 0
  }
  param {
    lr_mult: 0
    decay_mult: 0
  }
  param {
    lr_mult: 0
    decay_mult: 0
  }
}
layer {
  name: "Scale15"
  type: "Scale"
  bottom: "BatchNorm15"
  top: "BatchNorm15"
  scale_param {
    filler {
      value: 1
    }
    bias_term: true
    bias_filler {
      value: 0
    }
  }
}
layer {
  name: "ReLU15"
  type: "ReLU"
  bottom: "BatchNorm15"
  top: "BatchNorm15"
}
layer {
  name: "Convolution16"
  type: "Convolution"
  bottom: "BatchNorm15"
  top: "Convolution16"
  convolution_param {
    num_output: 12
    bias_term: false
    pad: 1
    kernel_size: 3
    stride: 1
    weight_filler {
      type: "msra"
    }
    bias_filler {
      type: "constant"
    }
  }
}
layer {
  name: "Dropout15"
  type: "Dropout"
  bottom: "Convolution16"
  top: "Dropout15"
  dropout_param {
    dropout_ratio: 0.2
  }
}
layer {
  name: "Concat14"
  type: "Concat"
  bottom: "Concat13"
  bottom: "Dropout15"
  top: "Concat14"
  concat_param {
    axis: 1
  }
}
layer {
  name: "BatchNorm16"
  type: "BatchNorm"
  bottom: "Concat14"
  top: "BatchNorm16"
  param {
    lr_mult: 0
    decay_mult: 0
  }
  param {
    lr_mult: 0
    decay_mult: 0
  }
  param {
    lr_mult: 0
    decay_mult: 0
  }
}
layer {
  name: "Scale16"
  type: "Scale"
  bottom: "BatchNorm16"
  top: "BatchNorm16"
  scale_param {
    filler {
      value: 1
    }
    bias_term: true
    bias_filler {
      value: 0
    }
  }
}
layer {
  name: "ReLU16"
  type: "ReLU"
  bottom: "BatchNorm16"
  top: "BatchNorm16"
}
layer {
  name: "Convolution17"
  type: "Convolution"
  bottom: "BatchNorm16"
  top: "Convolution17"
  convolution_param {
    num_output: 12
    bias_term: false
    pad: 1
    kernel_size: 3
    stride: 1
    weight_filler {
      type: "msra"
    }
    bias_filler {
      type: "constant"
    }
  }
}
layer {
  name: "Dropout16"
  type: "Dropout"
  bottom: "Convolution17"
  top: "Dropout16"
  dropout_param {
    dropout_ratio: 0.2
  }
}
layer {
  name: "Concat15"
  type: "Concat"
  bottom: "Concat14"
  bottom: "Dropout16"
  top: "Concat15"
  concat_param {
    axis: 1
  }
}
layer {
  name: "BatchNorm17"
  type: "BatchNorm"
  bottom: "Concat15"
  top: "BatchNorm17"
  param {
    lr_mult: 0
    decay_mult: 0
  }
  param {
    lr_mult: 0
    decay_mult: 0
  }
  param {
    lr_mult: 0
    decay_mult: 0
  }
}
layer {
  name: "Scale17"
  type: "Scale"
  bottom: "BatchNorm17"
  top: "BatchNorm17"
  scale_param {
    filler {
      value: 1
    }
    bias_term: true
    bias_filler {
      value: 0
    }
  }
}
layer {
  name: "ReLU17"
  type: "ReLU"
  bottom: "BatchNorm17"
  top: "BatchNorm17"
}
layer {
  name: "Convolution18"
  type: "Convolution"
  bottom: "BatchNorm17"
  top: "Convolution18"
  convolution_param {
    num_output: 12
    bias_term: false
    pad: 1
    kernel_size: 3
    stride: 1
    weight_filler {
      type: "msra"
    }
    bias_filler {
      type: "constant"
    }
  }
}
layer {
  name: "Dropout17"
  type: "Dropout"
  bottom: "Convolution18"
  top: "Dropout17"
  dropout_param {
    dropout_ratio: 0.2
  }
}
layer {
  name: "Concat16"
  type: "Concat"
  bottom: "Concat15"
  bottom: "Dropout17"
  top: "Concat16"
  concat_param {
    axis: 1
  }
}
layer {
  name: "BatchNorm18"
  type: "BatchNorm"
  bottom: "Concat16"
  top: "BatchNorm18"
  param {
    lr_mult: 0
    decay_mult: 0
  }
  param {
    lr_mult: 0
    decay_mult: 0
  }
  param {
    lr_mult: 0
    decay_mult: 0
  }
}
layer {
  name: "Scale18"
  type: "Scale"
  bottom: "BatchNorm18"
  top: "BatchNorm18"
  scale_param {
    filler {
      value: 1
    }
    bias_term: true
    bias_filler {
      value: 0
    }
  }
}
layer {
  name: "ReLU18"
  type: "ReLU"
  bottom: "BatchNorm18"
  top: "BatchNorm18"
}
layer {
  name: "Convolution19"
  type: "Convolution"
  bottom: "BatchNorm18"
  top: "Convolution19"
  convolution_param {
    num_output: 208
    bias_term: false
    pad: 0
    kernel_size: 1
    stride: 1
    weight_filler {
      type: "msra"
    }
    bias_filler {
      type: "constant"
    }
  }
}
layer {
  name: "Dropout18"
  type: "Dropout"
  bottom: "Convolution19"
  top: "Dropout18"
  dropout_param {
    dropout_ratio: 0.2
  }
}
layer {
  name: "Pooling2"
  type: "Pooling"
  bottom: "Dropout18"
  top: "Pooling2"
  pooling_param {
    pool: AVE
    kernel_size: 2
    stride: 2
  }
}
layer {
  name: "BatchNorm19"
  type: "BatchNorm"
  bottom: "Pooling2"
  top: "BatchNorm19"
  param {
    lr_mult: 0
    decay_mult: 0
  }
  param {
    lr_mult: 0
    decay_mult: 0
  }
  param {
    lr_mult: 0
    decay_mult: 0
  }
}
layer {
  name: "Scale19"
  type: "Scale"
  bottom: "BatchNorm19"
  top: "BatchNorm19"
  scale_param {
    filler {
      value: 1
    }
    bias_term: true
    bias_filler {
      value: 0
    }
  }
}
layer {
  name: "ReLU19"
  type: "ReLU"
  bottom: "BatchNorm19"
  top: "BatchNorm19"
}
layer {
  name: "Convolution20"
  type: "Convolution"
  bottom: "BatchNorm19"
  top: "Convolution20"
  convolution_param {
    num_output: 12
    bias_term: false
    pad: 1
    kernel_size: 3
    stride: 1
    weight_filler {
      type: "msra"
    }
    bias_filler {
      type: "constant"
    }
  }
}
layer {
  name: "Dropout19"
  type: "Dropout"
  bottom: "Convolution20"
  top: "Dropout19"
  dropout_param {
    dropout_ratio: 0.2
  }
}
layer {
  name: "Concat17"
  type: "Concat"
  bottom: "Pooling2"
  bottom: "Dropout19"
  top: "Concat17"
  concat_param {
    axis: 1
  }
}
layer {
  name: "BatchNorm20"
  type: "BatchNorm"
  bottom: "Concat17"
  top: "BatchNorm20"
  param {
    lr_mult: 0
    decay_mult: 0
  }
  param {
    lr_mult: 0
    decay_mult: 0
  }
  param {
    lr_mult: 0
    decay_mult: 0
  }
}
layer {
  name: "Scale20"
  type: "Scale"
  bottom: "BatchNorm20"
  top: "BatchNorm20"
  scale_param {
    filler {
      value: 1
    }
    bias_term: true
    bias_filler {
      value: 0
    }
  }
}
layer {
  name: "ReLU20"
  type: "ReLU"
  bottom: "BatchNorm20"
  top: "BatchNorm20"
}
layer {
  name: "Convolution21"
  type: "Convolution"
  bottom: "BatchNorm20"
  top: "Convolution21"
  convolution_param {
    num_output: 12
    bias_term: false
    pad: 1
    kernel_size: 3
    stride: 1
    weight_filler {
      type: "msra"
    }
    bias_filler {
      type: "constant"
    }
  }
}
layer {
  name: "Dropout20"
  type: "Dropout"
  bottom: "Convolution21"
  top: "Dropout20"
  dropout_param {
    dropout_ratio: 0.2
  }
}
layer {
  name: "Concat18"
  type: "Concat"
  bottom: "Concat17"
  bottom: "Dropout20"
  top: "Concat18"
  concat_param {
    axis: 1
  }
}
layer {
  name: "BatchNorm21"
  type: "BatchNorm"
  bottom: "Concat18"
  top: "BatchNorm21"
  param {
    lr_mult: 0
    decay_mult: 0
  }
  param {
    lr_mult: 0
    decay_mult: 0
  }
  param {
    lr_mult: 0
    decay_mult: 0
  }
}
layer {
  name: "Scale21"
  type: "Scale"
  bottom: "BatchNorm21"
  top: "BatchNorm21"
  scale_param {
    filler {
      value: 1
    }
    bias_term: true
    bias_filler {
      value: 0
    }
  }
}
layer {
  name: "ReLU21"
  type: "ReLU"
  bottom: "BatchNorm21"
  top: "BatchNorm21"
}
layer {
  name: "Convolution22"
  type: "Convolution"
  bottom: "BatchNorm21"
  top: "Convolution22"
  convolution_param {
    num_output: 12
    bias_term: false
    pad: 1
    kernel_size: 3
    stride: 1
    weight_filler {
      type: "msra"
    }
    bias_filler {
      type: "constant"
    }
  }
}
layer {
  name: "Dropout21"
  type: "Dropout"
  bottom: "Convolution22"
  top: "Dropout21"
  dropout_param {
    dropout_ratio: 0.2
  }
}
layer {
  name: "Concat19"
  type: "Concat"
  bottom: "Concat18"
  bottom: "Dropout21"
  top: "Concat19"
  concat_param {
    axis: 1
  }
}
layer {
  name: "BatchNorm22"
  type: "BatchNorm"
  bottom: "Concat19"
  top: "BatchNorm22"
  param {
    lr_mult: 0
    decay_mult: 0
  }
  param {
    lr_mult: 0
    decay_mult: 0
  }
  param {
    lr_mult: 0
    decay_mult: 0
  }
}
layer {
  name: "Scale22"
  type: "Scale"
  bottom: "BatchNorm22"
  top: "BatchNorm22"
  scale_param {
    filler {
      value: 1
    }
    bias_term: true
    bias_filler {
      value: 0
    }
  }
}
layer {
  name: "ReLU22"
  type: "ReLU"
  bottom: "BatchNorm22"
  top: "BatchNorm22"
}
layer {
  name: "Convolution23"
  type: "Convolution"
  bottom: "BatchNorm22"
  top: "Convolution23"
  convolution_param {
    num_output: 12
    bias_term: false
    pad: 1
    kernel_size: 3
    stride: 1
    weight_filler {
      type: "msra"
    }
    bias_filler {
      type: "constant"
    }
  }
}
layer {
  name: "Dropout22"
  type: "Dropout"
  bottom: "Convolution23"
  top: "Dropout22"
  dropout_param {
    dropout_ratio: 0.2
  }
}
layer {
  name: "Concat20"
  type: "Concat"
  bottom: "Concat19"
  bottom: "Dropout22"
  top: "Concat20"
  concat_param {
    axis: 1
  }
}
layer {
  name: "BatchNorm23"
  type: "BatchNorm"
  bottom: "Concat20"
  top: "BatchNorm23"
  param {
    lr_mult: 0
    decay_mult: 0
  }
  param {
    lr_mult: 0
    decay_mult: 0
  }
  param {
    lr_mult: 0
    decay_mult: 0
  }
}
layer {
  name: "Scale23"
  type: "Scale"
  bottom: "BatchNorm23"
  top: "BatchNorm23"
  scale_param {
    filler {
      value: 1
    }
    bias_term: true
    bias_filler {
      value: 0
    }
  }
}
layer {
  name: "ReLU23"
  type: "ReLU"
  bottom: "BatchNorm23"
  top: "BatchNorm23"
}
layer {
  name: "Convolution24"
  type: "Convolution"
  bottom: "BatchNorm23"
  top: "Convolution24"
  convolution_param {
    num_output: 12
    bias_term: false
    pad: 1
    kernel_size: 3
    stride: 1
    weight_filler {
      type: "msra"
    }
    bias_filler {
      type: "constant"
    }
  }
}
layer {
  name: "Dropout23"
  type: "Dropout"
  bottom: "Convolution24"
  top: "Dropout23"
  dropout_param {
    dropout_ratio: 0.2
  }
}
layer {
  name: "Concat21"
  type: "Concat"
  bottom: "Concat20"
  bottom: "Dropout23"
  top: "Concat21"
  concat_param {
    axis: 1
  }
}
layer {
  name: "BatchNorm24"
  type: "BatchNorm"
  bottom: "Concat21"
  top: "BatchNorm24"
  param {
    lr_mult: 0
    decay_mult: 0
  }
  param {
    lr_mult: 0
    decay_mult: 0
  }
  param {
    lr_mult: 0
    decay_mult: 0
  }
}
layer {
  name: "Scale24"
  type: "Scale"
  bottom: "BatchNorm24"
  top: "BatchNorm24"
  scale_param {
    filler {
      value: 1
    }
    bias_term: true
    bias_filler {
      value: 0
    }
  }
}
layer {
  name: "ReLU24"
  type: "ReLU"
  bottom: "BatchNorm24"
  top: "BatchNorm24"
}
layer {
  name: "Convolution25"
  type: "Convolution"
  bottom: "BatchNorm24"
  top: "Convolution25"
  convolution_param {
    num_output: 12
    bias_term: false
    pad: 1
    kernel_size: 3
    stride: 1
    weight_filler {
      type: "msra"
    }
    bias_filler {
      type: "constant"
    }
  }
}
layer {
  name: "Dropout24"
  type: "Dropout"
  bottom: "Convolution25"
  top: "Dropout24"
  dropout_param {
    dropout_ratio: 0.2
  }
}
layer {
  name: "Concat22"
  type: "Concat"
  bottom: "Concat21"
  bottom: "Dropout24"
  top: "Concat22"
  concat_param {
    axis: 1
  }
}
layer {
  name: "BatchNorm25"
  type: "BatchNorm"
  bottom: "Concat22"
  top: "BatchNorm25"
  param {
    lr_mult: 0
    decay_mult: 0
  }
  param {
    lr_mult: 0
    decay_mult: 0
  }
  param {
    lr_mult: 0
    decay_mult: 0
  }
}
layer {
  name: "Scale25"
  type: "Scale"
  bottom: "BatchNorm25"
  top: "BatchNorm25"
  scale_param {
    filler {
      value: 1
    }
    bias_term: true
    bias_filler {
      value: 0
    }
  }
}
layer {
  name: "ReLU25"
  type: "ReLU"
  bottom: "BatchNorm25"
  top: "BatchNorm25"
}
layer {
  name: "Convolution26"
  type: "Convolution"
  bottom: "BatchNorm25"
  top: "Convolution26"
  convolution_param {
    num_output: 12
    bias_term: false
    pad: 1
    kernel_size: 3
    stride: 1
    weight_filler {
      type: "msra"
    }
    bias_filler {
      type: "constant"
    }
  }
}
layer {
  name: "Dropout25"
  type: "Dropout"
  bottom: "Convolution26"
  top: "Dropout25"
  dropout_param {
    dropout_ratio: 0.2
  }
}
layer {
  name: "Concat23"
  type: "Concat"
  bottom: "Concat22"
  bottom: "Dropout25"
  top: "Concat23"
  concat_param {
    axis: 1
  }
}
layer {
  name: "BatchNorm26"
  type: "BatchNorm"
  bottom: "Concat23"
  top: "BatchNorm26"
  param {
    lr_mult: 0
    decay_mult: 0
  }
  param {
    lr_mult: 0
    decay_mult: 0
  }
  param {
    lr_mult: 0
    decay_mult: 0
  }
}
layer {
  name: "Scale26"
  type: "Scale"
  bottom: "BatchNorm26"
  top: "BatchNorm26"
  scale_param {
    filler {
      value: 1
    }
    bias_term: true
    bias_filler {
      value: 0
    }
  }
}
layer {
  name: "ReLU26"
  type: "ReLU"
  bottom: "BatchNorm26"
  top: "BatchNorm26"
}
layer {
  name: "Convolution27"
  type: "Convolution"
  bottom: "BatchNorm26"
  top: "Convolution27"
  convolution_param {
    num_output: 12
    bias_term: false
    pad: 1
    kernel_size: 3
    stride: 1
    weight_filler {
      type: "msra"
    }
    bias_filler {
      type: "constant"
    }
  }
}
layer {
  name: "Dropout26"
  type: "Dropout"
  bottom: "Convolution27"
  top: "Dropout26"
  dropout_param {
    dropout_ratio: 0.2
  }
}
layer {
  name: "Concat24"
  type: "Concat"
  bottom: "Concat23"
  bottom: "Dropout26"
  top: "Concat24"
  concat_param {
    axis: 1
  }
}
layer {
  name: "BatchNorm27"
  type: "BatchNorm"
  bottom: "Concat24"
  top: "BatchNorm27"
  param {
    lr_mult: 0
    decay_mult: 0
  }
  param {
    lr_mult: 0
    decay_mult: 0
  }
  param {
    lr_mult: 0
    decay_mult: 0
  }
}
layer {
  name: "Scale27"
  type: "Scale"
  bottom: "BatchNorm27"
  top: "BatchNorm27"
  scale_param {
    filler {
      value: 1
    }
    bias_term: true
    bias_filler {
      value: 0
    }
  }
}
layer {
  name: "ReLU27"
  type: "ReLU"
  bottom: "BatchNorm27"
  top: "BatchNorm27"
}
layer {
  name: "Convolution28"
  type: "Convolution"
  bottom: "BatchNorm27"
  top: "Convolution28"
  convolution_param {
    num_output: 304
    bias_term: false
    pad: 0
   
I0213 19:02:32.299196  8424 layer_factory.hpp:77] Creating layer input-data
I0213 19:02:32.318577  8424 net.cpp:106] Creating Layer input-data
I0213 19:02:32.318603  8424 net.cpp:411] input-data -> data
I0213 19:02:32.318619  8424 net.cpp:411] input-data -> im_info
I0213 19:02:32.318630  8424 net.cpp:411] input-data -> gt_boxes
I0213 19:02:32.331109  8424 net.cpp:150] Setting up input-data
I0213 19:02:32.331133  8424 net.cpp:157] Top shape: 1 3 300 500 (450000)
I0213 19:02:32.331140  8424 net.cpp:157] Top shape: 1 3 (3)
I0213 19:02:32.331146  8424 net.cpp:157] Top shape: 1 4 (4)
I0213 19:02:32.331151  8424 net.cpp:165] Memory required for data: 1800028
I0213 19:02:32.331157  8424 layer_factory.hpp:77] Creating layer data_input-data_0_split
I0213 19:02:32.331173  8424 net.cpp:106] Creating Layer data_input-data_0_split
I0213 19:02:32.331182  8424 net.cpp:454] data_input-data_0_split <- data
I0213 19:02:32.331190  8424 net.cpp:411] data_input-data_0_split -> data_input-data_0_split_0
I0213 19:02:32.331205  8424 net.cpp:411] data_input-data_0_split -> data_input-data_0_split_1
I0213 19:02:32.331262  8424 net.cpp:150] Setting up data_input-data_0_split
I0213 19:02:32.331274  8424 net.cpp:157] Top shape: 1 3 300 500 (450000)
I0213 19:02:32.331281  8424 net.cpp:157] Top shape: 1 3 300 500 (450000)
I0213 19:02:32.331286  8424 net.cpp:165] Memory required for data: 5400028
I0213 19:02:32.331291  8424 layer_factory.hpp:77] Creating layer Convolution1
I0213 19:02:32.331310  8424 net.cpp:106] Creating Layer Convolution1
I0213 19:02:32.331317  8424 net.cpp:454] Convolution1 <- data_input-data_0_split_0
I0213 19:02:32.331326  8424 net.cpp:411] Convolution1 -> Convolution1
I0213 19:02:32.332263  8424 net.cpp:150] Setting up Convolution1
I0213 19:02:32.332280  8424 net.cpp:157] Top shape: 1 16 300 500 (2400000)
I0213 19:02:32.332290  8424 net.cpp:165] Memory required for data: 15000028
I0213 19:02:32.332310  8424 layer_factory.hpp:77] Creating layer Convolution1_Convolution1_0_split
I0213 19:02:32.332321  8424 net.cpp:106] Creating Layer Convolution1_Convolution1_0_split
I0213 19:02:32.332330  8424 net.cpp:454] Convolution1_Convolution1_0_split <- Convolution1
I0213 19:02:32.332342  8424 net.cpp:411] Convolution1_Convolution1_0_split -> Convolution1_Convolution1_0_split_0
I0213 19:02:32.332356  8424 net.cpp:411] Convolution1_Convolution1_0_split -> Convolution1_Convolution1_0_split_1
I0213 19:02:32.332418  8424 net.cpp:150] Setting up Convolution1_Convolution1_0_split
I0213 19:02:32.332432  8424 net.cpp:157] Top shape: 1 16 300 500 (2400000)
I0213 19:02:32.332442  8424 net.cpp:157] Top shape: 1 16 300 500 (2400000)
I0213 19:02:32.332451  8424 net.cpp:165] Memory required for data: 34200028
I0213 19:02:32.332460  8424 layer_factory.hpp:77] Creating layer BatchNorm1
I0213 19:02:32.332484  8424 net.cpp:106] Creating Layer BatchNorm1
I0213 19:02:32.332491  8424 net.cpp:454] BatchNorm1 <- Convolution1_Convolution1_0_split_0
I0213 19:02:32.332505  8424 net.cpp:411] BatchNorm1 -> BatchNorm1
I0213 19:02:32.333489  8424 net.cpp:150] Setting up BatchNorm1
I0213 19:02:32.333506  8424 net.cpp:157] Top shape: 1 16 300 500 (2400000)
I0213 19:02:32.333516  8424 net.cpp:165] Memory required for data: 43800028
I0213 19:02:32.333537  8424 layer_factory.hpp:77] Creating layer Scale1
I0213 19:02:32.333555  8424 net.cpp:106] Creating Layer Scale1
I0213 19:02:32.333564  8424 net.cpp:454] Scale1 <- BatchNorm1
I0213 19:02:32.333580  8424 net.cpp:397] Scale1 -> BatchNorm1 (in-place)
I0213 19:02:32.333647  8424 layer_factory.hpp:77] Creating layer Scale1
I0213 19:02:32.335160  8424 net.cpp:150] Setting up Scale1
I0213 19:02:32.335177  8424 net.cpp:157] Top shape: 1 16 300 500 (2400000)
I0213 19:02:32.335187  8424 net.cpp:165] Memory required for data: 53400028
I0213 19:02:32.335206  8424 layer_factory.hpp:77] Creating layer ReLU1
I0213 19:02:32.335222  8424 net.cpp:106] Creating Layer ReLU1
I0213 19:02:32.335229  8424 net.cpp:454] ReLU1 <- BatchNorm1
I0213 19:02:32.335242  8424 net.cpp:397] ReLU1 -> BatchNorm1 (in-place)
I0213 19:02:32.335255  8424 net.cpp:150] Setting up ReLU1
I0213 19:02:32.335266  8424 net.cpp:157] Top shape: 1 16 300 500 (2400000)
I0213 19:02:32.335275  8424 net.cpp:165] Memory required for data: 63000028
I0213 19:02:32.335284  8424 layer_factory.hpp:77] Creating layer Convolution2
I0213 19:02:32.335299  8424 net.cpp:106] Creating Layer Convolution2
I0213 19:02:32.335304  8424 net.cpp:454] Convolution2 <- BatchNorm1
I0213 19:02:32.335312  8424 net.cpp:411] Convolution2 -> Convolution2
I0213 19:02:32.336205  8424 net.cpp:150] Setting up Convolution2
I0213 19:02:32.336220  8424 net.cpp:157] Top shape: 1 12 300 500 (1800000)
I0213 19:02:32.336225  8424 net.cpp:165] Memory required for data: 70200028
I0213 19:02:32.336233  8424 layer_factory.hpp:77] Creating layer Dropout1
I0213 19:02:32.336252  8424 net.cpp:106] Creating Layer Dropout1
I0213 19:02:32.336261  8424 net.cpp:454] Dropout1 <- Convolution2
I0213 19:02:32.336273  8424 net.cpp:411] Dropout1 -> Dropout1
I0213 19:02:32.336335  8424 net.cpp:150] Setting up Dropout1
I0213 19:02:32.336349  8424 net.cpp:157] Top shape: 1 12 300 500 (1800000)
I0213 19:02:32.336357  8424 net.cpp:165] Memory required for data: 77400028
I0213 19:02:32.336366  8424 layer_factory.hpp:77] Creating layer Concat1
I0213 19:02:32.336380  8424 net.cpp:106] Creating Layer Concat1
I0213 19:02:32.336387  8424 net.cpp:454] Concat1 <- Convolution1_Convolution1_0_split_1
I0213 19:02:32.336397  8424 net.cpp:454] Concat1 <- Dropout1
I0213 19:02:32.336411  8424 net.cpp:411] Concat1 -> Concat1
I0213 19:02:32.336452  8424 net.cpp:150] Setting up Concat1
I0213 19:02:32.336465  8424 net.cpp:157] Top shape: 1 28 300 500 (4200000)
I0213 19:02:32.336473  8424 net.cpp:165] Memory required for data: 94200028
I0213 19:02:32.336483  8424 layer_factory.hpp:77] Creating layer Concat1_Concat1_0_split
I0213 19:02:32.336498  8424 net.cpp:106] Creating Layer Concat1_Concat1_0_split
I0213 19:02:32.336505  8424 net.cpp:454] Concat1_Concat1_0_split <- Concat1
I0213 19:02:32.336518  8424 net.cpp:411] Concat1_Concat1_0_split -> Concat1_Concat1_0_split_0
I0213 19:02:32.336530  8424 net.cpp:411] Concat1_Concat1_0_split -> Concat1_Concat1_0_split_1
I0213 19:02:32.336585  8424 net.cpp:150] Setting up Concat1_Concat1_0_split
I0213 19:02:32.336597  8424 net.cpp:157] Top shape: 1 28 300 500 (4200000)
I0213 19:02:32.336608  8424 net.cpp:157] Top shape: 1 28 300 500 (4200000)
I0213 19:02:32.336616  8424 net.cpp:165] Memory required for data: 127800028
I0213 19:02:32.336624  8424 layer_factory.hpp:77] Creating layer BatchNorm2
I0213 19:02:32.336640  8424 net.cpp:106] Creating Layer BatchNorm2
I0213 19:02:32.336648  8424 net.cpp:454] BatchNorm2 <- Concat1_Concat1_0_split_0
I0213 19:02:32.336659  8424 net.cpp:411] BatchNorm2 -> BatchNorm2
I0213 19:02:32.337612  8424 net.cpp:150] Setting up BatchNorm2
I0213 19:02:32.337628  8424 net.cpp:157] Top shape: 1 28 300 500 (4200000)
I0213 19:02:32.337633  8424 net.cpp:165] Memory required for data: 144600028
I0213 19:02:32.337649  8424 layer_factory.hpp:77] Creating layer Scale2
I0213 19:02:32.337664  8424 net.cpp:106] Creating Layer Scale2
I0213 19:02:32.337674  8424 net.cpp:454] Scale2 <- BatchNorm2
I0213 19:02:32.337687  8424 net.cpp:397] Scale2 -> BatchNorm2 (in-place)
I0213 19:02:32.337750  8424 layer_factory.hpp:77] Creating layer Scale2
I0213 19:02:32.339298  8424 net.cpp:150] Setting up Scale2
I0213 19:02:32.339314  8424 net.cpp:157] Top shape: 1 28 300 500 (4200000)
I0213 19:02:32.339321  8424 net.cpp:165] Memory required for data: 161400028
I0213 19:02:32.339334  8424 layer_factory.hpp:77] Creating layer ReLU2
I0213 19:02:32.339349  8424 net.cpp:106] Creating Layer ReLU2
I0213 19:02:32.339356  8424 net.cpp:454] ReLU2 <- BatchNorm2
I0213 19:02:32.339367  8424 net.cpp:397] ReLU2 -> BatchNorm2 (in-place)
I0213 19:02:32.339381  8424 net.cpp:150] Setting up ReLU2
I0213 19:02:32.339391  8424 net.cpp:157] Top shape: 1 28 300 500 (4200000)
I0213 19:02:32.339401  8424 net.cpp:165] Memory required for data: 178200028
I0213 19:02:32.339409  8424 layer_factory.hpp:77] Creating layer Convolution3
I0213 19:02:32.339428  8424 net.cpp:106] Creating Layer Convolution3
I0213 19:02:32.339437  8424 net.cpp:454] Convolution3 <- BatchNorm2
I0213 19:02:32.339449  8424 net.cpp:411] Convolution3 -> Convolution3
I0213 19:02:32.339824  8424 net.cpp:150] Setting up Convolution3
I0213 19:02:32.339839  8424 net.cpp:157] Top shape: 1 12 300 500 (1800000)
I0213 19:02:32.339849  8424 net.cpp:165] Memory required for data: 185400028
I0213 19:02:32.339862  8424 layer_factory.hpp:77] Creating layer Dropout2
I0213 19:02:32.339875  8424 net.cpp:106] Creating Layer Dropout2
I0213 19:02:32.339884  8424 net.cpp:454] Dropout2 <- Convolution3
I0213 19:02:32.339900  8424 net.cpp:411] Dropout2 -> Dropout2
I0213 19:02:32.339959  8424 net.cpp:150] Setting up Dropout2
I0213 19:02:32.339973  8424 net.cpp:157] Top shape: 1 12 300 500 (1800000)
I0213 19:02:32.339982  8424 net.cpp:165] Memory required for data: 192600028
I0213 19:02:32.339992  8424 layer_factory.hpp:77] Creating layer Concat2
I0213 19:02:32.340008  8424 net.cpp:106] Creating Layer Concat2
I0213 19:02:32.340016  8424 net.cpp:454] Concat2 <- Concat1_Concat1_0_split_1
I0213 19:02:32.340028  8424 net.cpp:454] Concat2 <- Dropout2
I0213 19:02:32.340039  8424 net.cpp:411] Concat2 -> Concat2
I0213 19:02:32.340080  8424 net.cpp:150] Setting up Concat2
I0213 19:02:32.340091  8424 net.cpp:157] Top shape: 1 40 300 500 (6000000)
I0213 19:02:32.340101  8424 net.cpp:165] Memory required for data: 216600028
I0213 19:02:32.340109  8424 layer_factory.hpp:77] Creating layer Concat2_Concat2_0_split
I0213 19:02:32.340123  8424 net.cpp:106] Creating Layer Concat2_Concat2_0_split
I0213 19:02:32.340131  8424 net.cpp:454] Concat2_Concat2_0_split <- Concat2
I0213 19:02:32.340143  8424 net.cpp:411] Concat2_Concat2_0_split -> Concat2_Concat2_0_split_0
I0213 19:02:32.340157  8424 net.cpp:411] Concat2_Concat2_0_split -> Concat2_Concat2_0_split_1
I0213 19:02:32.340215  8424 net.cpp:150] Setting up Concat2_Concat2_0_split
I0213 19:02:32.340229  8424 net.cpp:157] Top shape: 1 40 300 500 (6000000)
I0213 19:02:32.340239  8424 net.cpp:157] Top shape: 1 40 300 500 (6000000)
I0213 19:02:32.340247  8424 net.cpp:165] Memory required for data: 264600028
I0213 19:02:32.340255  8424 layer_factory.hpp:77] Creating layer BatchNorm3
I0213 19:02:32.340268  8424 net.cpp:106] Creating Layer BatchNorm3
I0213 19:02:32.340276  8424 net.cpp:454] BatchNorm3 <- Concat2_Concat2_0_split_0
I0213 19:02:32.340287  8424 net.cpp:411] BatchNorm3 -> BatchNorm3
I0213 19:02:32.341258  8424 net.cpp:150] Setting up BatchNorm3
I0213 19:02:32.341274  8424 net.cpp:157] Top shape: 1 40 300 500 (6000000)
I0213 19:02:32.341284  8424 net.cpp:165] Memory required for data: 288600028
I0213 19:02:32.341300  8424 layer_factory.hpp:77] Creating layer Scale3
I0213 19:02:32.341312  8424 net.cpp:106] Creating Layer Scale3
I0213 19:02:32.341320  8424 net.cpp:454] Scale3 <- BatchNorm3
I0213 19:02:32.341336  8424 net.cpp:397] Scale3 -> BatchNorm3 (in-place)
I0213 19:02:32.341400  8424 layer_factory.hpp:77] Creating layer Scale3
I0213 19:02:32.343039  8424 net.cpp:150] Setting up Scale3
I0213 19:02:32.343055  8424 net.cpp:157] Top shape: 1 40 300 500 (6000000)
I0213 19:02:32.343065  8424 net.cpp:165] Memory required for data: 312600028
I0213 19:02:32.343086  8424 layer_factory.hpp:77] Creating layer ReLU3
I0213 19:02:32.343097  8424 net.cpp:106] Creating Layer ReLU3
I0213 19:02:32.343106  8424 net.cpp:454] ReLU3 <- BatchNorm3
I0213 19:02:32.343117  8424 net.cpp:397] ReLU3 -> BatchNorm3 (in-place)
I0213 19:02:32.343130  8424 net.cpp:150] Setting up ReLU3
I0213 19:02:32.343140  8424 net.cpp:157] Top shape: 1 40 300 500 (6000000)
I0213 19:02:32.343148  8424 net.cpp:165] Memory required for data: 336600028
I0213 19:02:32.343158  8424 layer_factory.hpp:77] Creating layer Convolution4
I0213 19:02:32.343176  8424 net.cpp:106] Creating Layer Convolution4
I0213 19:02:32.343183  8424 net.cpp:454] Convolution4 <- BatchNorm3
I0213 19:02:32.343199  8424 net.cpp:411] Convolution4 -> Convolution4
I0213 19:02:32.344203  8424 net.cpp:150] Setting up Convolution4
I0213 19:02:32.344220  8424 net.cpp:157] Top shape: 1 12 300 500 (1800000)
I0213 19:02:32.344230  8424 net.cpp:165] Memory required for data: 343800028
I0213 19:02:32.344244  8424 layer_factory.hpp:77] Creating layer Dropout3
I0213 19:02:32.344256  8424 net.cpp:106] Creating Layer Dropout3
I0213 19:02:32.344264  8424 net.cpp:454] Dropout3 <- Convolution4
I0213 19:02:32.344277  8424 net.cpp:411] Dropout3 -> Dropout3
I0213 19:02:32.344337  8424 net.cpp:150] Setting up Dropout3
I0213 19:02:32.344350  8424 net.cpp:157] Top shape: 1 12 300 500 (1800000)
I0213 19:02:32.344362  8424 net.cpp:165] Memory required for data: 351000028
I0213 19:02:32.344370  8424 layer_factory.hpp:77] Creating layer Concat3
I0213 19:02:32.344383  8424 net.cpp:106] Creating Layer Concat3
I0213 19:02:32.344393  8424 net.cpp:454] Concat3 <- Concat2_Concat2_0_split_1
I0213 19:02:32.344403  8424 net.cpp:454] Concat3 <- Dropout3
I0213 19:02:32.344414  8424 net.cpp:411] Concat3 -> Concat3
I0213 19:02:32.344455  8424 net.cpp:150] Setting up Concat3
I0213 19:02:32.344468  8424 net.cpp:157] Top shape: 1 52 300 500 (7800000)
I0213 19:02:32.344477  8424 net.cpp:165] Memory required for data: 382200028
I0213 19:02:32.344485  8424 layer_factory.hpp:77] Creating layer Concat3_Concat3_0_split
I0213 19:02:32.344498  8424 net.cpp:106] Creating Layer Concat3_Concat3_0_split
I0213 19:02:32.344506  8424 net.cpp:454] Concat3_Concat3_0_split <- Concat3
I0213 19:02:32.344518  8424 net.cpp:411] Concat3_Concat3_0_split -> Concat3_Concat3_0_split_0
I0213 19:02:32.344530  8424 net.cpp:411] Concat3_Concat3_0_split -> Concat3_Concat3_0_split_1
I0213 19:02:32.344588  8424 net.cpp:150] Setting up Concat3_Concat3_0_split
I0213 19:02:32.344604  8424 net.cpp:157] Top shape: 1 52 300 500 (7800000)
I0213 19:02:32.344614  8424 net.cpp:157] Top shape: 1 52 300 500 (7800000)
I0213 19:02:32.344621  8424 net.cpp:165] Memory required for data: 444600028
I0213 19:02:32.344630  8424 layer_factory.hpp:77] Creating layer BatchNorm4
I0213 19:02:32.344643  8424 net.cpp:106] Creating Layer BatchNorm4
I0213 19:02:32.344651  8424 net.cpp:454] BatchNorm4 <- Concat3_Concat3_0_split_0
I0213 19:02:32.344666  8424 net.cpp:411] BatchNorm4 -> BatchNorm4
I0213 19:02:32.345669  8424 net.cpp:150] Setting up BatchNorm4
I0213 19:02:32.345685  8424 net.cpp:157] Top shape: 1 52 300 500 (7800000)
I0213 19:02:32.345693  8424 net.cpp:165] Memory required for data: 475800028
I0213 19:02:32.345710  8424 layer_factory.hpp:77] Creating layer Scale4
I0213 19:02:32.345722  8424 net.cpp:106] Creating Layer Scale4
I0213 19:02:32.345731  8424 net.cpp:454] Scale4 <- BatchNorm4
I0213 19:02:32.345747  8424 net.cpp:397] Scale4 -> BatchNorm4 (in-place)
I0213 19:02:32.345813  8424 layer_factory.hpp:77] Creating layer Scale4
I0213 19:02:32.347298  8424 net.cpp:150] Setting up Scale4
I0213 19:02:32.347316  8424 net.cpp:157] Top shape: 1 52 300 500 (7800000)
I0213 19:02:32.347324  8424 net.cpp:165] Memory required for data: 507000028
I0213 19:02:32.347339  8424 layer_factory.hpp:77] Creating layer ReLU4
I0213 19:02:32.347350  8424 net.cpp:106] Creating Layer ReLU4
I0213 19:02:32.347359  8424 net.cpp:454] ReLU4 <- BatchNorm4
I0213 19:02:32.347371  8424 net.cpp:397] ReLU4 -> BatchNorm4 (in-place)
I0213 19:02:32.347384  8424 net.cpp:150] Setting up ReLU4
I0213 19:02:32.347394  8424 net.cpp:157] Top shape: 1 52 300 500 (7800000)
I0213 19:02:32.347403  8424 net.cpp:165] Memory required for data: 538200028
I0213 19:02:32.347411  8424 layer_factory.hpp:77] Creating layer Convolution5
I0213 19:02:32.347429  8424 net.cpp:106] Creating Layer Convolution5
I0213 19:02:32.347437  8424 net.cpp:454] Convolution5 <- BatchNorm4
I0213 19:02:32.347453  8424 net.cpp:411] Convolution5 -> Convolution5
I0213 19:02:32.347903  8424 net.cpp:150] Setting up Convolution5
I0213 19:02:32.347919  8424 net.cpp:157] Top shape: 1 12 300 500 (1800000)
I0213 19:02:32.347929  8424 net.cpp:165] Memory required for data: 545400028
I0213 19:02:32.347940  8424 layer_factory.hpp:77] Creating layer Dropout4
I0213 19:02:32.347952  8424 net.cpp:106] Creating Layer Dropout4
I0213 19:02:32.347961  8424 net.cpp:454] Dropout4 <- Convolution5
I0213 19:02:32.347976  8424 net.cpp:411] Dropout4 -> Dropout4
I0213 19:02:32.348037  8424 net.cpp:150] Setting up Dropout4
I0213 19:02:32.348050  8424 net.cpp:157] Top shape: 1 12 300 500 (1800000)
I0213 19:02:32.348059  8424 net.cpp:165] Memory required for data: 552600028
I0213 19:02:32.348068  8424 layer_factory.hpp:77] Creating layer Concat4
I0213 19:02:32.348080  8424 net.cpp:106] Creating Layer Concat4
I0213 19:02:32.348088  8424 net.cpp:454] Concat4 <- Concat3_Concat3_0_split_1
I0213 19:02:32.348099  8424 net.cpp:454] Concat4 <- Dropout4
I0213 19:02:32.348110  8424 net.cpp:411] Concat4 -> Concat4
I0213 19:02:32.348152  8424 net.cpp:150] Setting up Concat4
I0213 19:02:32.348165  8424 net.cpp:157] Top shape: 1 64 300 500 (9600000)
I0213 19:02:32.348173  8424 net.cpp:165] Memory required for data: 591000028
I0213 19:02:32.348182  8424 layer_factory.hpp:77] Creating layer Concat4_Concat4_0_split
I0213 19:02:32.348194  8424 net.cpp:106] Creating Layer Concat4_Concat4_0_split
I0213 19:02:32.348202  8424 net.cpp:454] Concat4_Concat4_0_split <- Concat4
I0213 19:02:32.348217  8424 net.cpp:411] Concat4_Concat4_0_split -> Concat4_Concat4_0_split_0
I0213 19:02:32.348229  8424 net.cpp:411] Concat4_Concat4_0_split -> Concat4_Concat4_0_split_1
I0213 19:02:32.348287  8424 net.cpp:150] Setting up Concat4_Concat4_0_split
I0213 19:02:32.348299  8424 net.cpp:157] Top shape: 1 64 300 500 (9600000)
I0213 19:02:32.348310  8424 net.cpp:157] Top shape: 1 64 300 500 (9600000)
I0213 19:02:32.348318  8424 net.cpp:165] Memory required for data: 667800028
I0213 19:02:32.348327  8424 layer_factory.hpp:77] Creating layer BatchNorm5
I0213 19:02:32.348345  8424 net.cpp:106] Creating Layer BatchNorm5
I0213 19:02:32.348352  8424 net.cpp:454] BatchNorm5 <- Concat4_Concat4_0_split_0
I0213 19:02:32.348368  8424 net.cpp:411] BatchNorm5 -> BatchNorm5
I0213 19:02:32.349318  8424 net.cpp:150] Setting up BatchNorm5
I0213 19:02:32.349335  8424 net.cpp:157] Top shape: 1 64 300 500 (9600000)
I0213 19:02:32.349344  8424 net.cpp:165] Memory required for data: 706200028
I0213 19:02:32.349361  8424 layer_factory.hpp:77] Creating layer Scale5
I0213 19:02:32.349376  8424 net.cpp:106] Creating Layer Scale5
I0213 19:02:32.349385  8424 net.cpp:454] Scale5 <- BatchNorm5
I0213 19:02:32.349397  8424 net.cpp:397] Scale5 -> BatchNorm5 (in-place)
I0213 19:02:32.349464  8424 layer_factory.hpp:77] Creating layer Scale5
I0213 19:02:32.350950  8424 net.cpp:150] Setting up Scale5
I0213 19:02:32.350967  8424 net.cpp:157] Top shape: 1 64 300 500 (9600000)
I0213 19:02:32.350976  8424 net.cpp:165] Memory required for data: 744600028
I0213 19:02:32.350992  8424 layer_factory.hpp:77] Creating layer ReLU5
I0213 19:02:32.351003  8424 net.cpp:106] Creating Layer ReLU5
I0213 19:02:32.351011  8424 net.cpp:454] ReLU5 <- BatchNorm5
I0213 19:02:32.351023  8424 net.cpp:397] ReLU5 -> BatchNorm5 (in-place)
I0213 19:02:32.351035  8424 net.cpp:150] Setting up ReLU5
I0213 19:02:32.351047  8424 net.cpp:157] Top shape: 1 64 300 500 (9600000)
I0213 19:02:32.351053  8424 net.cpp:165] Memory required for data: 783000028
I0213 19:02:32.351063  8424 layer_factory.hpp:77] Creating layer Convolution6
I0213 19:02:32.351081  8424 net.cpp:106] Creating Layer Convolution6
I0213 19:02:32.351089  8424 net.cpp:454] Convolution6 <- BatchNorm5
I0213 19:02:32.351105  8424 net.cpp:411] Convolution6 -> Convolution6
I0213 19:02:32.351579  8424 net.cpp:150] Setting up Convolution6
I0213 19:02:32.351599  8424 net.cpp:157] Top shape: 1 12 300 500 (1800000)
I0213 19:02:32.351605  8424 net.cpp:165] Memory required for data: 790200028
I0213 19:02:32.351611  8424 layer_factory.hpp:77] Creating layer Dropout5
I0213 19:02:32.351621  8424 net.cpp:106] Creating Layer Dropout5
I0213 19:02:32.351626  8424 net.cpp:454] Dropout5 <- Convolution6
I0213 19:02:32.351634  8424 net.cpp:411] Dropout5 -> Dropout5
I0213 19:02:32.351694  8424 net.cpp:150] Setting up Dropout5
I0213 19:02:32.351706  8424 net.cpp:157] Top shape: 1 12 300 500 (1800000)
I0213 19:02:32.351711  8424 net.cpp:165] Memory required for data: 797400028
I0213 19:02:32.351716  8424 layer_factory.hpp:77] Creating layer Concat5
I0213 19:02:32.351722  8424 net.cpp:106] Creating Layer Concat5
I0213 19:02:32.351729  8424 net.cpp:454] Concat5 <- Concat4_Concat4_0_split_1
I0213 19:02:32.351737  8424 net.cpp:454] Concat5 <- Dropout5
I0213 19:02:32.351745  8424 net.cpp:411] Concat5 -> Concat5
I0213 19:02:32.351781  8424 net.cpp:150] Setting up Concat5
I0213 19:02:32.351793  8424 net.cpp:157] Top shape: 1 76 300 500 (11400000)
I0213 19:02:32.351799  8424 net.cpp:165] Memory required for data: 843000028
I0213 19:02:32.351802  8424 layer_factory.hpp:77] Creating layer Concat5_Concat5_0_split
I0213 19:02:32.351812  8424 net.cpp:106] Creating Layer Concat5_Concat5_0_split
I0213 19:02:32.351819  8424 net.cpp:454] Concat5_Concat5_0_split <- Concat5
I0213 19:02:32.351824  8424 net.cpp:411] Concat5_Concat5_0_split -> Concat5_Concat5_0_split_0
I0213 19:02:32.351833  8424 net.cpp:411] Concat5_Concat5_0_split -> Concat5_Concat5_0_split_1
I0213 19:02:32.351884  8424 net.cpp:150] Setting up Concat5_Concat5_0_split
I0213 19:02:32.351894  8424 net.cpp:157] Top shape: 1 76 300 500 (11400000)
I0213 19:02:32.351902  8424 net.cpp:157] Top shape: 1 76 300 500 (11400000)
I0213 19:02:32.351905  8424 net.cpp:165] Memory required for data: 934200028
I0213 19:02:32.351912  8424 layer_factory.hpp:77] Creating layer BatchNorm6
I0213 19:02:32.351922  8424 net.cpp:106] Creating Layer BatchNorm6
I0213 19:02:32.351927  8424 net.cpp:454] BatchNorm6 <- Concat5_Concat5_0_split_0
I0213 19:02:32.351934  8424 net.cpp:411] BatchNorm6 -> BatchNorm6
I0213 19:02:32.352879  8424 net.cpp:150] Setting up BatchNorm6
I0213 19:02:32.352896  8424 net.cpp:157] Top shape: 1 76 300 500 (11400000)
I0213 19:02:32.352902  8424 net.cpp:165] Memory required for data: 979800028
I0213 19:02:32.352916  8424 layer_factory.hpp:77] Creating layer Scale6
I0213 19:02:32.352928  8424 net.cpp:106] Creating Layer Scale6
I0213 19:02:32.352936  8424 net.cpp:454] Scale6 <- BatchNorm6
I0213 19:02:32.352946  8424 net.cpp:397] Scale6 -> BatchNorm6 (in-place)
I0213 19:02:32.353005  8424 layer_factory.hpp:77] Creating layer Scale6
I0213 19:02:32.354487  8424 net.cpp:150] Setting up Scale6
I0213 19:02:32.354502  8424 net.cpp:157] Top shape: 1 76 300 500 (11400000)
I0213 19:02:32.354508  8424 net.cpp:165] Memory required for data: 1025400028
I0213 19:02:32.354516  8424 layer_factory.hpp:77] Creating layer ReLU6
I0213 19:02:32.354524  8424 net.cpp:106] Creating Layer ReLU6
I0213 19:02:32.354531  8424 net.cpp:454] ReLU6 <- BatchNorm6
I0213 19:02:32.354539  8424 net.cpp:397] ReLU6 -> BatchNorm6 (in-place)
I0213 19:02:32.354549  8424 net.cpp:150] Setting up ReLU6
I0213 19:02:32.354557  8424 net.cpp:157] Top shape: 1 76 300 500 (11400000)
I0213 19:02:32.354562  8424 net.cpp:165] Memory required for data: 1071000028
I0213 19:02:32.354567  8424 layer_factory.hpp:77] Creating layer Convolution7
I0213 19:02:32.354578  8424 net.cpp:106] Creating Layer Convolution7
I0213 19:02:32.354584  8424 net.cpp:454] Convolution7 <- BatchNorm6
I0213 19:02:32.354593  8424 net.cpp:411] Convolution7 -> Convolution7
I0213 19:02:32.355096  8424 net.cpp:150] Setting up Convolution7
I0213 19:02:32.355109  8424 net.cpp:157] Top shape: 1 12 300 500 (1800000)
I0213 19:02:32.355115  8424 net.cpp:165] Memory required for data: 1078200028
I0213 19:02:32.355121  8424 layer_factory.hpp:77] Creating layer Dropout6
I0213 19:02:32.355129  8424 net.cpp:106] Creating Layer Dropout6
I0213 19:02:32.355136  8424 net.cpp:454] Dropout6 <- Convolution7
I0213 19:02:32.355145  8424 net.cpp:411] Dropout6 -> Dropout6
I0213 19:02:32.355201  8424 net.cpp:150] Setting up Dropout6
I0213 19:02:32.355212  8424 net.cpp:157] Top shape: 1 12 300 500 (1800000)
I0213 19:02:32.355218  8424 net.cpp:165] Memory required for data: 1085400028
I0213 19:02:32.355222  8424 layer_factory.hpp:77] Creating layer Concat6
I0213 19:02:32.355231  8424 net.cpp:106] Creating Layer Concat6
I0213 19:02:32.355237  8424 net.cpp:454] Concat6 <- Concat5_Concat5_0_split_1
I0213 19:02:32.355242  8424 net.cpp:454] Concat6 <- Dropout6
I0213 19:02:32.355249  8424 net.cpp:411] Concat6 -> Concat6
I0213 19:02:32.355288  8424 net.cpp:150] Setting up Concat6
I0213 19:02:32.355298  8424 net.cpp:157] Top shape: 1 88 300 500 (13200000)
I0213 19:02:32.355304  8424 net.cpp:165] Memory required for data: 1138200028
I0213 19:02:32.355309  8424 layer_factory.hpp:77] Creating layer Concat6_Concat6_0_split
I0213 19:02:32.355316  8424 net.cpp:106] Creating Layer Concat6_Concat6_0_split
I0213 19:02:32.355322  8424 net.cpp:454] Concat6_Concat6_0_split <- Concat6
I0213 19:02:32.355330  8424 net.cpp:411] Concat6_Concat6_0_split -> Concat6_Concat6_0_split_0
I0213 19:02:32.355340  8424 net.cpp:411] Concat6_Concat6_0_split -> Concat6_Concat6_0_split_1
I0213 19:02:32.355392  8424 net.cpp:150] Setting up Concat6_Concat6_0_split
I0213 19:02:32.355402  8424 net.cpp:157] Top shape: 1 88 300 500 (13200000)
I0213 19:02:32.355409  8424 net.cpp:157] Top shape: 1 88 300 500 (13200000)
I0213 19:02:32.355414  8424 net.cpp:165] Memory required for data: 1243800028
I0213 19:02:32.355419  8424 layer_factory.hpp:77] Creating layer BatchNorm7
I0213 19:02:32.355427  8424 net.cpp:106] Creating Layer BatchNorm7
I0213 19:02:32.355432  8424 net.cpp:454] BatchNorm7 <- Concat6_Concat6_0_split_0
I0213 19:02:32.355442  8424 net.cpp:411] BatchNorm7 -> BatchNorm7
I0213 19:02:32.356401  8424 net.cpp:150] Setting up BatchNorm7
I0213 19:02:32.356416  8424 net.cpp:157] Top shape: 1 88 300 500 (13200000)
I0213 19:02:32.356422  8424 net.cpp:165] Memory required for data: 1296600028
I0213 19:02:32.356432  8424 layer_factory.hpp:77] Creating layer Scale7
I0213 19:02:32.356444  8424 net.cpp:106] Creating Layer Scale7
I0213 19:02:32.356451  8424 net.cpp:454] Scale7 <- BatchNorm7
I0213 19:02:32.356457  8424 net.cpp:397] Scale7 -> BatchNorm7 (in-place)
I0213 19:02:32.356519  8424 layer_factory.hpp:77] Creating layer Scale7
I0213 19:02:32.358000  8424 net.cpp:150] Setting up Scale7
I0213 19:02:32.358016  8424 net.cpp:157] Top shape: 1 88 300 500 (13200000)
I0213 19:02:32.358021  8424 net.cpp:165] Memory required for data: 1349400028
I0213 19:02:32.358029  8424 layer_factory.hpp:77] Creating layer ReLU7
I0213 19:02:32.358037  8424 net.cpp:106] Creating Layer ReLU7
I0213 19:02:32.358044  8424 net.cpp:454] ReLU7 <- BatchNorm7
I0213 19:02:32.358052  8424 net.cpp:397] ReLU7 -> BatchNorm7 (in-place)
I0213 19:02:32.358060  8424 net.cpp:150] Setting up ReLU7
I0213 19:02:32.358067  8424 net.cpp:157] Top shape: 1 88 300 500 (13200000)
I0213 19:02:32.358073  8424 net.cpp:165] Memory required for data: 1402200028
I0213 19:02:32.358078  8424 layer_factory.hpp:77] Creating layer Convolution8
I0213 19:02:32.358090  8424 net.cpp:106] Creating Layer Convolution8
I0213 19:02:32.358096  8424 net.cpp:454] Convolution8 <- BatchNorm7
I0213 19:02:32.358105  8424 net.cpp:411] Convolution8 -> Convolution8
I0213 19:02:32.358667  8424 net.cpp:150] Setting up Convolution8
I0213 19:02:32.358680  8424 net.cpp:157] Top shape: 1 12 300 500 (1800000)
I0213 19:02:32.358685  8424 net.cpp:165] Memory required for data: 1409400028
I0213 19:02:32.358692  8424 layer_factory.hpp:77] Creating layer Dropout7
I0213 19:02:32.358702  8424 net.cpp:106] Creating Layer Dropout7
I0213 19:02:32.358708  8424 net.cpp:454] Dropout7 <- Convolution8
I0213 19:02:32.358714  8424 net.cpp:411] Dropout7 -> Dropout7
I0213 19:02:32.358772  8424 net.cpp:150] Setting up Dropout7
I0213 19:02:32.358780  8424 net.cpp:157] Top shape: 1 12 300 500 (1800000)
I0213 19:02:32.358785  8424 net.cpp:165] Memory required for data: 1416600028
I0213 19:02:32.358789  8424 layer_factory.hpp:77] Creating layer Concat7
I0213 19:02:32.358795  8424 net.cpp:106] Creating Layer Concat7
I0213 19:02:32.358800  8424 net.cpp:454] Concat7 <- Concat6_Concat6_0_split_1
I0213 19:02:32.358805  8424 net.cpp:454] Concat7 <- Dropout7
I0213 19:02:32.358814  8424 net.cpp:411] Concat7 -> Concat7
I0213 19:02:32.358847  8424 net.cpp:150] Setting up Concat7
I0213 19:02:32.358856  8424 net.cpp:157] Top shape: 1 100 300 500 (15000000)
I0213 19:02:32.358860  8424 net.cpp:165] Memory required for data: 1476600028
I0213 19:02:32.358865  8424 layer_factory.hpp:77] Creating layer Concat7_Concat7_0_split
I0213 19:02:32.358873  8424 net.cpp:106] Creating Layer Concat7_Concat7_0_split
I0213 19:02:32.358878  8424 net.cpp:454] Concat7_Concat7_0_split <- Concat7
I0213 19:02:32.358885  8424 net.cpp:411] Concat7_Concat7_0_split -> Concat7_Concat7_0_split_0
I0213 19:02:32.358891  8424 net.cpp:411] Concat7_Concat7_0_split -> Concat7_Concat7_0_split_1
I0213 19:02:32.358942  8424 net.cpp:150] Setting up Concat7_Concat7_0_split
I0213 19:02:32.358952  8424 net.cpp:157] Top shape: 1 100 300 500 (15000000)
I0213 19:02:32.358956  8424 net.cpp:157] Top shape: 1 100 300 500 (15000000)
I0213 19:02:32.358960  8424 net.cpp:165] Memory required for data: 1596600028
I0213 19:02:32.358965  8424 layer_factory.hpp:77] Creating layer BatchNorm8
I0213 19:02:32.358974  8424 net.cpp:106] Creating Layer BatchNorm8
I0213 19:02:32.358979  8424 net.cpp:454] BatchNorm8 <- Concat7_Concat7_0_split_0
I0213 19:02:32.358985  8424 net.cpp:411] BatchNorm8 -> BatchNorm8
I0213 19:02:32.359938  8424 net.cpp:150] Setting up BatchNorm8
I0213 19:02:32.359951  8424 net.cpp:157] Top shape: 1 100 300 500 (15000000)
I0213 19:02:32.359956  8424 net.cpp:165] Memory required for data: 1656600028
I0213 19:02:32.359966  8424 layer_factory.hpp:77] Creating layer Scale8
I0213 19:02:32.359975  8424 net.cpp:106] Creating Layer Scale8
I0213 19:02:32.359980  8424 net.cpp:454] Scale8 <- BatchNorm8
I0213 19:02:32.359988  8424 net.cpp:397] Scale8 -> BatchNorm8 (in-place)
I0213 19:02:32.360049  8424 layer_factory.hpp:77] Creating layer Scale8
I0213 19:02:32.361536  8424 net.cpp:150] Setting up Scale8
I0213 19:02:32.361549  8424 net.cpp:157] Top shape: 1 100 300 500 (15000000)
I0213 19:02:32.361554  8424 net.cpp:165] Memory required for data: 1716600028
I0213 19:02:32.361562  8424 layer_factory.hpp:77] Creating layer ReLU8
I0213 19:02:32.361570  8424 net.cpp:106] Creating Layer ReLU8
I0213 19:02:32.361575  8424 net.cpp:454] ReLU8 <- BatchNorm8
I0213 19:02:32.361583  8424 net.cpp:397] ReLU8 -> BatchNorm8 (in-place)
I0213 19:02:32.361591  8424 net.cpp:150] Setting up ReLU8
I0213 19:02:32.361598  8424 net.cpp:157] Top shape: 1 100 300 500 (15000000)
I0213 19:02:32.361601  8424 net.cpp:165] Memory required for data: 1776600028
I0213 19:02:32.361605  8424 layer_factory.hpp:77] Creating layer Convolution9
I0213 19:02:32.361616  8424 net.cpp:106] Creating Layer Convolution9
I0213 19:02:32.361621  8424 net.cpp:454] Convolution9 <- BatchNorm8
I0213 19:02:32.361631  8424 net.cpp:411] Convolution9 -> Convolution9
I0213 19:02:32.362258  8424 net.cpp:150] Setting up Convolution9
I0213 19:02:32.362270  8424 net.cpp:157] Top shape: 1 12 300 500 (1800000)
I0213 19:02:32.362275  8424 net.cpp:165] Memory required for data: 1783800028
I0213 19:02:32.362282  8424 layer_factory.hpp:77] Creating layer Dropout8
I0213 19:02:32.362289  8424 net.cpp:106] Creating Layer Dropout8
I0213 19:02:32.362294  8424 net.cpp:454] Dropout8 <- Convolution9
I0213 19:02:32.362303  8424 net.cpp:411] Dropout8 -> Dropout8
I0213 19:02:32.362359  8424 net.cpp:150] Setting up Dropout8
I0213 19:02:32.362367  8424 net.cpp:157] Top shape: 1 12 300 500 (1800000)
I0213 19:02:32.362372  8424 net.cpp:165] Memory required for data: 1791000028
I0213 19:02:32.362377  8424 layer_factory.hpp:77] Creating layer Concat8
I0213 19:02:32.362385  8424 net.cpp:106] Creating Layer Concat8
I0213 19:02:32.362390  8424 net.cpp:454] Concat8 <- Concat7_Concat7_0_split_1
I0213 19:02:32.362396  8424 net.cpp:454] Concat8 <- Dropout8
I0213 19:02:32.362402  8424 net.cpp:411] Concat8 -> Concat8
I0213 19:02:32.362437  8424 net.cpp:150] Setting up Concat8
I0213 19:02:32.362445  8424 net.cpp:157] Top shape: 1 112 300 500 (16800000)
I0213 19:02:32.362449  8424 net.cpp:165] Memory required for data: 1858200028
I0213 19:02:32.362453  8424 layer_factory.hpp:77] Creating layer BatchNorm9
I0213 19:02:32.362463  8424 net.cpp:106] Creating Layer BatchNorm9
I0213 19:02:32.362468  8424 net.cpp:454] BatchNorm9 <- Concat8
I0213 19:02:32.362475  8424 net.cpp:411] BatchNorm9 -> BatchNorm9
I0213 19:02:32.363442  8424 net.cpp:150] Setting up BatchNorm9
I0213 19:02:32.363456  8424 net.cpp:157] Top shape: 1 112 300 500 (16800000)
I0213 19:02:32.363459  8424 net.cpp:165] Memory required for data: 1925400028
I0213 19:02:32.363469  8424 layer_factory.hpp:77] Creating layer Scale9
I0213 19:02:32.363479  8424 net.cpp:106] Creating Layer Scale9
I0213 19:02:32.363486  8424 net.cpp:454] Scale9 <- BatchNorm9
I0213 19:02:32.363492  8424 net.cpp:397] Scale9 -> BatchNorm9 (in-place)
I0213 19:02:32.363551  8424 layer_factory.hpp:77] Creating layer Scale9
I0213 19:02:32.365062  8424 net.cpp:150] Setting up Scale9
I0213 19:02:32.365075  8424 net.cpp:157] Top shape: 1 112 300 500 (16800000)
I0213 19:02:32.365079  8424 net.cpp:165] Memory required for data: 1992600028
I0213 19:02:32.365087  8424 layer_factory.hpp:77] Creating layer ReLU9
I0213 19:02:32.365095  8424 net.cpp:106] Creating Layer ReLU9
I0213 19:02:32.365100  8424 net.cpp:454] ReLU9 <- BatchNorm9
I0213 19:02:32.365106  8424 net.cpp:397] ReLU9 -> BatchNorm9 (in-place)
I0213 19:02:32.365115  8424 net.cpp:150] Setting up ReLU9
I0213 19:02:32.365123  8424 net.cpp:157] Top shape: 1 112 300 500 (16800000)
I0213 19:02:32.365126  8424 net.cpp:165] Memory required for data: 2059800028
I0213 19:02:32.365130  8424 layer_factory.hpp:77] Creating layer Convolution10
I0213 19:02:32.365139  8424 net.cpp:106] Creating Layer Convolution10
I0213 19:02:32.365144  8424 net.cpp:454] Convolution10 <- BatchNorm9
I0213 19:02:32.365152  8424 net.cpp:411] Convolution10 -> Convolution10
I0213 19:02:32.365803  8424 net.cpp:150] Setting up Convolution10
I0213 19:02:32.365813  8424 net.cpp:157] Top shape: 1 112 300 500 (16800000)
I0213 19:02:32.365818  8424 net.cpp:165] Memory required for data: 2127000028
I0213 19:02:32.365824  8424 layer_factory.hpp:77] Creating layer Dropout9
I0213 19:02:32.365833  8424 net.cpp:106] Creating Layer Dropout9
I0213 19:02:32.365839  8424 net.cpp:454] Dropout9 <- Convolution10
I0213 19:02:32.365844  8424 net.cpp:411] Dropout9 -> Dropout9
I0213 19:02:32.365900  8424 net.cpp:150] Setting up Dropout9
I0213 19:02:32.365909  8424 net.cpp:157] Top shape: 1 112 300 500 (16800000)
I0213 19:02:32.365913  8424 net.cpp:165] Memory required for data: 2194200028
I0213 19:02:32.365918  8424 layer_factory.hpp:77] Creating layer Pooling1
I0213 19:02:32.365932  8424 net.cpp:106] Creating Layer Pooling1
I0213 19:02:32.365938  8424 net.cpp:454] Pooling1 <- Dropout9
I0213 19:02:32.365947  8424 net.cpp:411] Pooling1 -> Pooling1
I0213 19:02:32.365993  8424 net.cpp:150] Setting up Pooling1
I0213 19:02:32.366003  8424 net.cpp:157] Top shape: 1 112 150 250 (4200000)
I0213 19:02:32.366006  8424 net.cpp:165] Memory required for data: 2211000028
I0213 19:02:32.366011  8424 layer_factory.hpp:77] Creating layer Pooling1_Pooling1_0_split
I0213 19:02:32.366017  8424 net.cpp:106] Creating Layer Pooling1_Pooling1_0_split
I0213 19:02:32.366022  8424 net.cpp:454] Pooling1_Pooling1_0_split <- Pooling1
I0213 19:02:32.366030  8424 net.cpp:411] Pooling1_Pooling1_0_split -> Pooling1_Pooling1_0_split_0
I0213 19:02:32.366037  8424 net.cpp:411] Pooling1_Pooling1_0_split -> Pooling1_Pooling1_0_split_1
I0213 19:02:32.366091  8424 net.cpp:150] Setting up Pooling1_Pooling1_0_split
I0213 19:02:32.366101  8424 net.cpp:157] Top shape: 1 112 150 250 (4200000)
I0213 19:02:32.366106  8424 net.cpp:157] Top shape: 1 112 150 250 (4200000)
I0213 19:02:32.366111  8424 net.cpp:165] Memory required for data: 2244600028
I0213 19:02:32.366114  8424 layer_factory.hpp:77] Creating layer BatchNorm10
I0213 19:02:32.366123  8424 net.cpp:106] Creating Layer BatchNorm10
I0213 19:02:32.366128  8424 net.cpp:454] BatchNorm10 <- Pooling1_Pooling1_0_split_0
I0213 19:02:32.366134  8424 net.cpp:411] BatchNorm10 -> BatchNorm10
I0213 19:02:32.367048  8424 net.cpp:150] Setting up BatchNorm10
I0213 19:02:32.367060  8424 net.cpp:157] Top shape: 1 112 150 250 (4200000)
I0213 19:02:32.367064  8424 net.cpp:165] Memory required for data: 2261400028
I0213 19:02:32.367074  8424 layer_factory.hpp:77] Creating layer Scale10
I0213 19:02:32.367084  8424 net.cpp:106] Creating Layer Scale10
I0213 19:02:32.367089  8424 net.cpp:454] Scale10 <- BatchNorm10
I0213 19:02:32.367097  8424 net.cpp:397] Scale10 -> BatchNorm10 (in-place)
I0213 19:02:32.367169  8424 layer_factory.hpp:77] Creating layer Scale10
I0213 19:02:32.367389  8424 net.cpp:150] Setting up Scale10
I0213 19:02:32.367400  8424 net.cpp:157] Top shape: 1 112 150 250 (4200000)
I0213 19:02:32.367404  8424 net.cpp:165] Memory required for data: 2278200028
I0213 19:02:32.367413  8424 layer_factory.hpp:77] Creating layer ReLU10
I0213 19:02:32.367419  8424 net.cpp:106] Creating Layer ReLU10
I0213 19:02:32.367424  8424 net.cpp:454] ReLU10 <- BatchNorm10
I0213 19:02:32.367430  8424 net.cpp:397] ReLU10 -> BatchNorm10 (in-place)
I0213 19:02:32.367437  8424 net.cpp:150] Setting up ReLU10
I0213 19:02:32.367444  8424 net.cpp:157] Top shape: 1 112 150 250 (4200000)
I0213 19:02:32.367447  8424 net.cpp:165] Memory required for data: 2295000028
I0213 19:02:32.367451  8424 layer_factory.hpp:77] Creating layer Convolution11
I0213 19:02:32.367462  8424 net.cpp:106] Creating Layer Convolution11
I0213 19:02:32.367467  8424 net.cpp:454] Convolution11 <- BatchNorm10
I0213 19:02:32.367475  8424 net.cpp:411] Convolution11 -> Convolution11
I0213 19:02:32.368113  8424 net.cpp:150] Setting up Convolution11
I0213 19:02:32.368124  8424 net.cpp:157] Top shape: 1 12 150 250 (450000)
I0213 19:02:32.368129  8424 net.cpp:165] Memory required for data: 2296800028
I0213 19:02:32.368135  8424 layer_factory.hpp:77] Creating layer Dropout10
I0213 19:02:32.368144  8424 net.cpp:106] Creating Layer Dropout10
I0213 19:02:32.368149  8424 net.cpp:454] Dropout10 <- Convolution11
I0213 19:02:32.368156  8424 net.cpp:411] Dropout10 -> Dropout10
I0213 19:02:32.368214  8424 net.cpp:150] Setting up Dropout10
I0213 19:02:32.368224  8424 net.cpp:157] Top shape: 1 12 150 250 (450000)
I0213 19:02:32.368228  8424 net.cpp:165] Memory required for data: 2298600028
I0213 19:02:32.368232  8424 layer_factory.hpp:77] Creating layer Concat9
I0213 19:02:32.368239  8424 net.cpp:106] Creating Layer Concat9
I0213 19:02:32.368244  8424 net.cpp:454] Concat9 <- Pooling1_Pooling1_0_split_1
I0213 19:02:32.368249  8424 net.cpp:454] Concat9 <- Dropout10
I0213 19:02:32.368257  8424 net.cpp:411] Concat9 -> Concat9
I0213 19:02:32.368294  8424 net.cpp:150] Setting up Concat9
I0213 19:02:32.368301  8424 net.cpp:157] Top shape: 1 124 150 250 (4650000)
I0213 19:02:32.368306  8424 net.cpp:165] Memory required for data: 2317200028
I0213 19:02:32.368310  8424 layer_factory.hpp:77] Creating layer Concat9_Concat9_0_split
I0213 19:02:32.368319  8424 net.cpp:106] Creating Layer Concat9_Concat9_0_split
I0213 19:02:32.368324  8424 net.cpp:454] Concat9_Concat9_0_split <- Concat9
I0213 19:02:32.368330  8424 net.cpp:411] Concat9_Concat9_0_split -> Concat9_Concat9_0_split_0
I0213 19:02:32.368343  8424 net.cpp:411] Concat9_Concat9_0_split -> Concat9_Concat9_0_split_1
I0213 19:02:32.368398  8424 net.cpp:150] Setting up Concat9_Concat9_0_split
I0213 19:02:32.368407  8424 net.cpp:157] Top shape: 1 124 150 250 (4650000)
I0213 19:02:32.368413  8424 net.cpp:157] Top shape: 1 124 150 250 (4650000)
I0213 19:02:32.368417  8424 net.cpp:165] Memory required for data: 2354400028
I0213 19:02:32.368422  8424 layer_factory.hpp:77] Creating layer BatchNorm11
I0213 19:02:32.368429  8424 net.cpp:106] Creating Layer BatchNorm11
I0213 19:02:32.368433  8424 net.cpp:454] BatchNorm11 <- Concat9_Concat9_0_split_0
I0213 19:02:32.368443  8424 net.cpp:411] BatchNorm11 -> BatchNorm11
I0213 19:02:32.368763  8424 net.cpp:150] Setting up BatchNorm11
I0213 19:02:32.368773  8424 net.cpp:157] Top shape: 1 124 150 250 (4650000)
I0213 19:02:32.368777  8424 net.cpp:165] Memory required for data: 2373000028
I0213 19:02:32.368787  8424 layer_factory.hpp:77] Creating layer Scale11
I0213 19:02:32.368796  8424 net.cpp:106] Creating Layer Scale11
I0213 19:02:32.368801  8424 net.cpp:454] Scale11 <- BatchNorm11
I0213 19:02:32.368808  8424 net.cpp:397] Scale11 -> BatchNorm11 (in-place)
I0213 19:02:32.368868  8424 layer_factory.hpp:77] Creating layer Scale11
I0213 19:02:32.369139  8424 net.cpp:150] Setting up Scale11
I0213 19:02:32.369155  8424 net.cpp:157] Top shape: 1 124 150 250 (4650000)
I0213 19:02:32.369164  8424 net.cpp:165] Memory required for data: 2391600028
I0213 19:02:32.369184  8424 layer_factory.hpp:77] Creating layer ReLU11
I0213 19:02:32.369194  8424 net.cpp:106] Creating Layer ReLU11
I0213 19:02:32.369199  8424 net.cpp:454] ReLU11 <- BatchNorm11
I0213 19:02:32.369204  8424 net.cpp:397] ReLU11 -> BatchNorm11 (in-place)
I0213 19:02:32.369216  8424 net.cpp:150] Setting up ReLU11
I0213 19:02:32.369227  8424 net.cpp:157] Top shape: 1 124 150 250 (4650000)
I0213 19:02:32.369235  8424 net.cpp:165] Memory required for data: 2410200028
I0213 19:02:32.369243  8424 layer_factory.hpp:77] Creating layer Convolution12
I0213 19:02:32.369256  8424 net.cpp:106] Creating Layer Convolution12
I0213 19:02:32.369261  8424 net.cpp:454] Convolution12 <- BatchNorm11
I0213 19:02:32.369271  8424 net.cpp:411] Convolution12 -> Convolution12
I0213 19:02:32.369951  8424 net.cpp:150] Setting up Convolution12
I0213 19:02:32.369962  8424 net.cpp:157] Top shape: 1 12 150 250 (450000)
I0213 19:02:32.369966  8424 net.cpp:165] Memory required for data: 2412000028
I0213 19:02:32.369972  8424 layer_factory.hpp:77] Creating layer Dropout11
I0213 19:02:32.369981  8424 net.cpp:106] Creating Layer Dropout11
I0213 19:02:32.369985  8424 net.cpp:454] Dropout11 <- Convolution12
I0213 19:02:32.369993  8424 net.cpp:411] Dropout11 -> Dropout11
I0213 19:02:32.370055  8424 net.cpp:150] Setting up Dropout11
I0213 19:02:32.370064  8424 net.cpp:157] Top shape: 1 12 150 250 (450000)
I0213 19:02:32.370069  8424 net.cpp:165] Memory required for data: 2413800028
I0213 19:02:32.370074  8424 layer_factory.hpp:77] Creating layer Concat10
I0213 19:02:32.370080  8424 net.cpp:106] Creating Layer Concat10
I0213 19:02:32.370085  8424 net.cpp:454] Concat10 <- Concat9_Concat9_0_split_1
I0213 19:02:32.370090  8424 net.cpp:454] Concat10 <- Dropout11
I0213 19:02:32.370096  8424 net.cpp:411] Concat10 -> Concat10
I0213 19:02:32.370138  8424 net.cpp:150] Setting up Concat10
I0213 19:02:32.370151  8424 net.cpp:157] Top shape: 1 136 150 250 (5100000)
I0213 19:02:32.370158  8424 net.cpp:165] Memory required for data: 2434200028
I0213 19:02:32.370167  8424 layer_factory.hpp:77] Creating layer Concat10_Concat10_0_split
I0213 19:02:32.370177  8424 net.cpp:106] Creating Layer Concat10_Concat10_0_split
I0213 19:02:32.370185  8424 net.cpp:454] Concat10_Concat10_0_split <- Concat10
I0213 19:02:32.370198  8424 net.cpp:411] Concat10_Concat10_0_split -> Concat10_Concat10_0_split_0
I0213 19:02:32.370211  8424 net.cpp:411] Concat10_Concat10_0_split -> Concat10_Concat10_0_split_1
I0213 19:02:32.370286  8424 net.cpp:150] Setting up Concat10_Concat10_0_split
I0213 19:02:32.370296  8424 net.cpp:157] Top shape: 1 136 150 250 (5100000)
I0213 19:02:32.370302  8424 net.cpp:157] Top shape: 1 136 150 250 (5100000)
I0213 19:02:32.370306  8424 net.cpp:165] Memory required for data: 2475000028
I0213 19:02:32.370311  8424 layer_factory.hpp:77] Creating layer BatchNorm12
I0213 19:02:32.370317  8424 net.cpp:106] Creating Layer BatchNorm12
I0213 19:02:32.370322  8424 net.cpp:454] BatchNorm12 <- Concat10_Concat10_0_split_0
I0213 19:02:32.370331  8424 net.cpp:411] BatchNorm12 -> BatchNorm12
I0213 19:02:32.371232  8424 net.cpp:150] Setting up BatchNorm12
I0213 19:02:32.371245  8424 net.cpp:157] Top shape: 1 136 150 250 (5100000)
I0213 19:02:32.371249  8424 net.cpp:165] Memory required for data: 2495400028
I0213 19:02:32.371258  8424 layer_factory.hpp:77] Creating layer Scale12
I0213 19:02:32.371268  8424 net.cpp:106] Creating Layer Scale12
I0213 19:02:32.371274  8424 net.cpp:454] Scale12 <- BatchNorm12
I0213 19:02:32.371280  8424 net.cpp:397] Scale12 -> BatchNorm12 (in-place)
I0213 19:02:32.371342  8424 layer_factory.hpp:77] Creating layer Scale12
I0213 19:02:32.371567  8424 net.cpp:150] Setting up Scale12
I0213 19:02:32.371579  8424 net.cpp:157] Top shape: 1 136 150 250 (5100000)
I0213 19:02:32.371583  8424 net.cpp:165] Memory required for data: 2515800028
I0213 19:02:32.371598  8424 layer_factory.hpp:77] Creating layer ReLU12
I0213 19:02:32.371605  8424 net.cpp:106] Creating Layer ReLU12
I0213 19:02:32.371610  8424 net.cpp:454] ReLU12 <- BatchNorm12
I0213 19:02:32.371616  8424 net.cpp:397] ReLU12 -> BatchNorm12 (in-place)
I0213 19:02:32.371623  8424 net.cpp:150] Setting up ReLU12
I0213 19:02:32.371629  8424 net.cpp:157] Top shape: 1 136 150 250 (5100000)
I0213 19:02:32.371634  8424 net.cpp:165] Memory required for data: 2536200028
I0213 19:02:32.371637  8424 layer_factory.hpp:77] Creating layer Convolution13
I0213 19:02:32.371647  8424 net.cpp:106] Creating Layer Convolution13
I0213 19:02:32.371651  8424 net.cpp:454] Convolution13 <- BatchNorm12
I0213 19:02:32.371660  8424 net.cpp:411] Convolution13 -> Convolution13
I0213 19:02:32.372454  8424 net.cpp:150] Setting up Convolution13
I0213 19:02:32.372468  8424 net.cpp:157] Top shape: 1 12 150 250 (450000)
I0213 19:02:32.372473  8424 net.cpp:165] Memory required for data: 2538000028
I0213 19:02:32.372479  8424 layer_factory.hpp:77] Creating layer Dropout12
I0213 19:02:32.372486  8424 net.cpp:106] Creating Layer Dropout12
I0213 19:02:32.372491  8424 net.cpp:454] Dropout12 <- Convolution13
I0213 19:02:32.372498  8424 net.cpp:411] Dropout12 -> Dropout12
I0213 19:02:32.372557  8424 net.cpp:150] Setting up Dropout12
I0213 19:02:32.372566  8424 net.cpp:157] Top shape: 1 12 150 250 (450000)
I0213 19:02:32.372571  8424 net.cpp:165] Memory required for data: 2539800028
I0213 19:02:32.372575  8424 layer_factory.hpp:77] Creating layer Concat11
I0213 19:02:32.372583  8424 net.cpp:106] Creating Layer Concat11
I0213 19:02:32.372589  8424 net.cpp:454] Concat11 <- Concat10_Concat10_0_split_1
I0213 19:02:32.372594  8424 net.cpp:454] Concat11 <- Dropout12
I0213 19:02:32.372601  8424 net.cpp:411] Concat11 -> Concat11
I0213 19:02:32.372637  8424 net.cpp:150] Setting up Concat11
I0213 19:02:32.372648  8424 net.cpp:157] Top shape: 1 148 150 250 (5550000)
I0213 19:02:32.372651  8424 net.cpp:165] Memory required for data: 2562000028
I0213 19:02:32.372656  8424 layer_factory.hpp:77] Creating layer Concat11_Concat11_0_split
I0213 19:02:32.372663  8424 net.cpp:106] Creating Layer Concat11_Concat11_0_split
I0213 19:02:32.372666  8424 net.cpp:454] Concat11_Concat11_0_split <- Concat11
I0213 19:02:32.372673  8424 net.cpp:411] Concat11_Concat11_0_split -> Concat11_Concat11_0_split_0
I0213 19:02:32.372679  8424 net.cpp:411] Concat11_Concat11_0_split -> Concat11_Concat11_0_split_1
I0213 19:02:32.372732  8424 net.cpp:150] Setting up Concat11_Concat11_0_split
I0213 19:02:32.372741  8424 net.cpp:157] Top shape: 1 148 150 250 (5550000)
I0213 19:02:32.372746  8424 net.cpp:157] Top shape: 1 148 150 250 (5550000)
I0213 19:02:32.372751  8424 net.cpp:165] Memory required for data: 2606400028
I0213 19:02:32.372756  8424 layer_factory.hpp:77] Creating layer BatchNorm13
I0213 19:02:32.372764  8424 net.cpp:106] Creating Layer BatchNorm13
I0213 19:02:32.372769  8424 net.cpp:454] BatchNorm13 <- Concat11_Concat11_0_split_0
I0213 19:02:32.372776  8424 net.cpp:411] BatchNorm13 -> BatchNorm13
I0213 19:02:32.373102  8424 net.cpp:150] Setting up BatchNorm13
I0213 19:02:32.373113  8424 net.cpp:157] Top shape: 1 148 150 250 (5550000)
I0213 19:02:32.373117  8424 net.cpp:165] Memory required for data: 2628600028
I0213 19:02:32.373126  8424 layer_factory.hpp:77] Creating layer Scale13
I0213 19:02:32.373136  8424 net.cpp:106] Creating Layer Scale13
I0213 19:02:32.373142  8424 net.cpp:454] Scale13 <- BatchNorm13
I0213 19:02:32.373149  8424 net.cpp:397] Scale13 -> BatchNorm13 (in-place)
I0213 19:02:32.373209  8424 layer_factory.hpp:77] Creating layer Scale13
I0213 19:02:32.373431  8424 net.cpp:150] Setting up Scale13
I0213 19:02:32.373441  8424 net.cpp:157] Top shape: 1 148 150 250 (5550000)
I0213 19:02:32.373446  8424 net.cpp:165] Memory required for data: 2650800028
I0213 19:02:32.373453  8424 layer_factory.hpp:77] Creating layer ReLU13
I0213 19:02:32.373461  8424 net.cpp:106] Creating Layer ReLU13
I0213 19:02:32.373466  8424 net.cpp:454] ReLU13 <- BatchNorm13
I0213 19:02:32.373471  8424 net.cpp:397] ReLU13 -> BatchNorm13 (in-place)
I0213 19:02:32.373477  8424 net.cpp:150] Setting up ReLU13
I0213 19:02:32.373483  8424 net.cpp:157] Top shape: 1 148 150 250 (5550000)
I0213 19:02:32.373487  8424 net.cpp:165] Memory required for data: 2673000028
I0213 19:02:32.373492  8424 layer_factory.hpp:77] Creating layer Convolution14
I0213 19:02:32.373502  8424 net.cpp:106] Creating Layer Convolution14
I0213 19:02:32.373507  8424 net.cpp:454] Convolution14 <- BatchNorm13
I0213 19:02:32.373514  8424 net.cpp:411] Convolution14 -> Convolution14
I0213 19:02:32.374274  8424 net.cpp:150] Setting up Convolution14
I0213 19:02:32.374284  8424 net.cpp:157] Top shape: 1 12 150 250 (450000)
I0213 19:02:32.374289  8424 net.cpp:165] Memory required for data: 2674800028
I0213 19:02:32.374295  8424 layer_factory.hpp:77] Creating layer Dropout13
I0213 19:02:32.374302  8424 net.cpp:106] Creating Layer Dropout13
I0213 19:02:32.374307  8424 net.cpp:454] Dropout13 <- Convolution14
I0213 19:02:32.374313  8424 net.cpp:411] Dropout13 -> Dropout13
I0213 19:02:32.374372  8424 net.cpp:150] Setting up Dropout13
I0213 19:02:32.374382  8424 net.cpp:157] Top shape: 1 12 150 250 (450000)
I0213 19:02:32.374385  8424 net.cpp:165] Memory required for data: 2676600028
I0213 19:02:32.374389  8424 layer_factory.hpp:77] Creating layer Concat12
I0213 19:02:32.374398  8424 net.cpp:106] Creating Layer Concat12
I0213 19:02:32.374403  8424 net.cpp:454] Concat12 <- Concat11_Concat11_0_split_1
I0213 19:02:32.374408  8424 net.cpp:454] Concat12 <- Dropout13
I0213 19:02:32.374414  8424 net.cpp:411] Concat12 -> Concat12
I0213 19:02:32.374450  8424 net.cpp:150] Setting up Concat12
I0213 19:02:32.374461  8424 net.cpp:157] Top shape: 1 160 150 250 (6000000)
I0213 19:02:32.374465  8424 net.cpp:165] Memory required for data: 2700600028
I0213 19:02:32.374470  8424 layer_factory.hpp:77] Creating layer Concat12_Concat12_0_split
I0213 19:02:32.374476  8424 net.cpp:106] Creating Layer Concat12_Concat12_0_split
I0213 19:02:32.374481  8424 net.cpp:454] Concat12_Concat12_0_split <- Concat12
I0213 19:02:32.374487  8424 net.cpp:411] Concat12_Concat12_0_split -> Concat12_Concat12_0_split_0
I0213 19:02:32.374493  8424 net.cpp:411] Concat12_Concat12_0_split -> Concat12_Concat12_0_split_1
I0213 19:02:32.374547  8424 net.cpp:150] Setting up Concat12_Concat12_0_split
I0213 19:02:32.374558  8424 net.cpp:157] Top shape: 1 160 150 250 (6000000)
I0213 19:02:32.374564  8424 net.cpp:157] Top shape: 1 160 150 250 (6000000)
I0213 19:02:32.374568  8424 net.cpp:165] Memory required for data: 2748600028
I0213 19:02:32.374572  8424 layer_factory.hpp:77] Creating layer BatchNorm14
I0213 19:02:32.374580  8424 net.cpp:106] Creating Layer BatchNorm14
I0213 19:02:32.374584  8424 net.cpp:454] BatchNorm14 <- Concat12_Concat12_0_split_0
I0213 19:02:32.374593  8424 net.cpp:411] BatchNorm14 -> BatchNorm14
I0213 19:02:32.375507  8424 net.cpp:150] Setting up BatchNorm14
I0213 19:02:32.375520  8424 net.cpp:157] Top shape: 1 160 150 250 (6000000)
I0213 19:02:32.375524  8424 net.cpp:165] Memory required for data: 2772600028
I0213 19:02:32.375535  8424 layer_factory.hpp:77] Creating layer Scale14
I0213 19:02:32.375542  8424 net.cpp:106] Creating Layer Scale14
I0213 19:02:32.375547  8424 net.cpp:454] Scale14 <- BatchNorm14
I0213 19:02:32.375555  8424 net.cpp:397] Scale14 -> BatchNorm14 (in-place)
I0213 19:02:32.375627  8424 layer_factory.hpp:77] Creating layer Scale14
I0213 19:02:32.375851  8424 net.cpp:150] Setting up Scale14
I0213 19:02:32.375862  8424 net.cpp:157] Top shape: 1 160 150 250 (6000000)
I0213 19:02:32.375867  8424 net.cpp:165] Memory required for data: 2796600028
I0213 19:02:32.375874  8424 layer_factory.hpp:77] Creating layer ReLU14
I0213 19:02:32.375883  8424 net.cpp:106] Creating Layer ReLU14
I0213 19:02:32.375888  8424 net.cpp:454] ReLU14 <- BatchNorm14
I0213 19:02:32.375895  8424 net.cpp:397] ReLU14 -> BatchNorm14 (in-place)
I0213 19:02:32.375901  8424 net.cpp:150] Setting up ReLU14
I0213 19:02:32.375907  8424 net.cpp:157] Top shape: 1 160 150 250 (6000000)
I0213 19:02:32.375911  8424 net.cpp:165] Memory required for data: 2820600028
I0213 19:02:32.375916  8424 layer_factory.hpp:77] Creating layer Convolution15
I0213 19:02:32.375926  8424 net.cpp:106] Creating Layer Convolution15
I0213 19:02:32.375929  8424 net.cpp:454] Convolution15 <- BatchNorm14
I0213 19:02:32.375938  8424 net.cpp:411] Convolution15 -> Convolution15
I0213 19:02:32.376724  8424 net.cpp:150] Setting up Convolution15
I0213 19:02:32.376734  8424 net.cpp:157] Top shape: 1 12 150 250 (450000)
I0213 19:02:32.376739  8424 net.cpp:165] Memory required for data: 2822400028
I0213 19:02:32.376745  8424 layer_factory.hpp:77] Creating layer Dropout14
I0213 19:02:32.376754  8424 net.cpp:106] Creating Layer Dropout14
I0213 19:02:32.376760  8424 net.cpp:454] Dropout14 <- Convolution15
I0213 19:02:32.376766  8424 net.cpp:411] Dropout14 -> Dropout14
I0213 19:02:32.376827  8424 net.cpp:150] Setting up Dropout14
I0213 19:02:32.376837  8424 net.cpp:157] Top shape: 1 12 150 250 (450000)
I0213 19:02:32.376842  8424 net.cpp:165] Memory required for data: 2824200028
I0213 19:02:32.376845  8424 layer_factory.hpp:77] Creating layer Concat13
I0213 19:02:32.376852  8424 net.cpp:106] Creating Layer Concat13
I0213 19:02:32.376857  8424 net.cpp:454] Concat13 <- Concat12_Concat12_0_split_1
I0213 19:02:32.376863  8424 net.cpp:454] Concat13 <- Dropout14
I0213 19:02:32.376871  8424 net.cpp:411] Concat13 -> Concat13
I0213 19:02:32.376907  8424 net.cpp:150] Setting up Concat13
I0213 19:02:32.376916  8424 net.cpp:157] Top shape: 1 172 150 250 (6450000)
I0213 19:02:32.376921  8424 net.cpp:165] Memory required for data: 2850000028
I0213 19:02:32.376925  8424 layer_factory.hpp:77] Creating layer Concat13_Concat13_0_split
I0213 19:02:32.376931  8424 net.cpp:106] Creating Layer Concat13_Concat13_0_split
I0213 19:02:32.376938  8424 net.cpp:454] Concat13_Concat13_0_split <- Concat13
I0213 19:02:32.376945  8424 net.cpp:411] Concat13_Concat13_0_split -> Concat13_Concat13_0_split_0
I0213 19:02:32.376951  8424 net.cpp:411] Concat13_Concat13_0_split -> Concat13_Concat13_0_split_1
I0213 19:02:32.377007  8424 net.cpp:150] Setting up Concat13_Concat13_0_split
I0213 19:02:32.377015  8424 net.cpp:157] Top shape: 1 172 150 250 (6450000)
I0213 19:02:32.377022  8424 net.cpp:157] Top shape: 1 172 150 250 (6450000)
I0213 19:02:32.377025  8424 net.cpp:165] Memory required for data: 2901600028
I0213 19:02:32.377029  8424 layer_factory.hpp:77] Creating layer BatchNorm15
I0213 19:02:32.377038  8424 net.cpp:106] Creating Layer BatchNorm15
I0213 19:02:32.377043  8424 net.cpp:454] BatchNorm15 <- Concat13_Concat13_0_split_0
I0213 19:02:32.377050  8424 net.cpp:411] BatchNorm15 -> BatchNorm15
I0213 19:02:32.377372  8424 net.cpp:150] Setting up BatchNorm15
I0213 19:02:32.377384  8424 net.cpp:157] Top shape: 1 172 150 250 (6450000)
I0213 19:02:32.377389  8424 net.cpp:165] Memory required for data: 2927400028
I0213 19:02:32.377398  8424 layer_factory.hpp:77] Creating layer Scale15
I0213 19:02:32.377405  8424 net.cpp:106] Creating Layer Scale15
I0213 19:02:32.377410  8424 net.cpp:454] Scale15 <- BatchNorm15
I0213 19:02:32.377418  8424 net.cpp:397] Scale15 -> BatchNorm15 (in-place)
I0213 19:02:32.377480  8424 layer_factory.hpp:77] Creating layer Scale15
I0213 19:02:32.377703  8424 net.cpp:150] Setting up Scale15
I0213 19:02:32.377714  8424 net.cpp:157] Top shape: 1 172 150 250 (6450000)
I0213 19:02:32.377718  8424 net.cpp:165] Memory required for data: 2953200028
I0213 19:02:32.377727  8424 layer_factory.hpp:77] Creating layer ReLU15
I0213 19:02:32.377733  8424 net.cpp:106] Creating Layer ReLU15
I0213 19:02:32.377738  8424 net.cpp:454] ReLU15 <- BatchNorm15
I0213 19:02:32.377745  8424 net.cpp:397] ReLU15 -> BatchNorm15 (in-place)
I0213 19:02:32.377753  8424 net.cpp:150] Setting up ReLU15
I0213 19:02:32.377759  8424 net.cpp:157] Top shape: 1 172 150 250 (6450000)
I0213 19:02:32.377763  8424 net.cpp:165] Memory required for data: 2979000028
I0213 19:02:32.377768  8424 layer_factory.hpp:77] Creating layer Convolution16
I0213 19:02:32.377776  8424 net.cpp:106] Creating Layer Convolution16
I0213 19:02:32.377780  8424 net.cpp:454] Convolution16 <- BatchNorm15
I0213 19:02:32.377787  8424 net.cpp:411] Convolution16 -> Convolution16
I0213 19:02:32.378615  8424 net.cpp:150] Setting up Convolution16
I0213 19:02:32.378626  8424 net.cpp:157] Top shape: 1 12 150 250 (450000)
I0213 19:02:32.378630  8424 net.cpp:165] Memory required for data: 2980800028
I0213 19:02:32.378638  8424 layer_factory.hpp:77] Creating layer Dropout15
I0213 19:02:32.378644  8424 net.cpp:106] Creating Layer Dropout15
I0213 19:02:32.378648  8424 net.cpp:454] Dropout15 <- Convolution16
I0213 19:02:32.378657  8424 net.cpp:411] Dropout15 -> Dropout15
I0213 19:02:32.378715  8424 net.cpp:150] Setting up Dropout15
I0213 19:02:32.378725  8424 net.cpp:157] Top shape: 1 12 150 250 (450000)
I0213 19:02:32.378729  8424 net.cpp:165] Memory required for data: 2982600028
I0213 19:02:32.378733  8424 layer_factory.hpp:77] Creating layer Concat14
I0213 19:02:32.378742  8424 net.cpp:106] Creating Layer Concat14
I0213 19:02:32.378747  8424 net.cpp:454] Concat14 <- Concat13_Concat13_0_split_1
I0213 19:02:32.378752  8424 net.cpp:454] Concat14 <- Dropout15
I0213 19:02:32.378759  8424 net.cpp:411] Concat14 -> Concat14
I0213 19:02:32.378796  8424 net.cpp:150] Setting up Concat14
I0213 19:02:32.378805  8424 net.cpp:157] Top shape: 1 184 150 250 (6900000)
I0213 19:02:32.378810  8424 net.cpp:165] Memory required for data: 3010200028
I0213 19:02:32.378814  8424 layer_factory.hpp:77] Creating layer Concat14_Concat14_0_split
I0213 19:02:32.378823  8424 net.cpp:106] Creating Layer Concat14_Concat14_0_split
I0213 19:02:32.378829  8424 net.cpp:454] Concat14_Concat14_0_split <- Concat14
I0213 19:02:32.378835  8424 net.cpp:411] Concat14_Concat14_0_split -> Concat14_Concat14_0_split_0
I0213 19:02:32.378844  8424 net.cpp:411] Concat14_Concat14_0_split -> Concat14_Concat14_0_split_1
I0213 19:02:32.378896  8424 net.cpp:150] Setting up Concat14_Concat14_0_split
I0213 19:02:32.378906  8424 net.cpp:157] Top shape: 1 184 150 250 (6900000)
I0213 19:02:32.378911  8424 net.cpp:157] Top shape: 1 184 150 250 (6900000)
I0213 19:02:32.378914  8424 net.cpp:165] Memory required for data: 3065400028
I0213 19:02:32.378919  8424 layer_factory.hpp:77] Creating layer BatchNorm16
I0213 19:02:32.378928  8424 net.cpp:106] Creating Layer BatchNorm16
I0213 19:02:32.378932  8424 net.cpp:454] BatchNorm16 <- Concat14_Concat14_0_split_0
I0213 19:02:32.378942  8424 net.cpp:411] BatchNorm16 -> BatchNorm16
I0213 19:02:32.382411  8424 net.cpp:150] Setting up BatchNorm16
I0213 19:02:32.382424  8424 net.cpp:157] Top shape: 1 184 150 250 (6900000)
I0213 19:02:32.382429  8424 net.cpp:165] Memory required for data: 3093000028
I0213 19:02:32.382439  8424 layer_factory.hpp:77] Creating layer Scale16
I0213 19:02:32.382449  8424 net.cpp:106] Creating Layer Scale16
I0213 19:02:32.382454  8424 net.cpp:454] Scale16 <- BatchNorm16
I0213 19:02:32.382462  8424 net.cpp:397] Scale16 -> BatchNorm16 (in-place)
I0213 19:02:32.382522  8424 layer_factory.hpp:77] Creating layer Scale16
I0213 19:02:32.382752  8424 net.cpp:150] Setting up Scale16
I0213 19:02:32.382763  8424 net.cpp:157] Top shape: 1 184 150 250 (6900000)
I0213 19:02:32.382767  8424 net.cpp:165] Memory required for data: 3120600028
I0213 19:02:32.382776  8424 layer_factory.hpp:77] Creating layer ReLU16
I0213 19:02:32.382782  8424 net.cpp:106] Creating Layer ReLU16
I0213 19:02:32.382787  8424 net.cpp:454] ReLU16 <- BatchNorm16
I0213 19:02:32.382792  8424 net.cpp:397] ReLU16 -> BatchNorm16 (in-place)
I0213 19:02:32.382800  8424 net.cpp:150] Setting up ReLU16
I0213 19:02:32.382805  8424 net.cpp:157] Top shape: 1 184 150 250 (6900000)
I0213 19:02:32.382809  8424 net.cpp:165] Memory required for data: 3148200028
I0213 19:02:32.382813  8424 layer_factory.hpp:77] Creating layer Convolution17
I0213 19:02:32.382827  8424 net.cpp:106] Creating Layer Convolution17
I0213 19:02:32.382832  8424 net.cpp:454] Convolution17 <- BatchNorm16
I0213 19:02:32.382838  8424 net.cpp:411] Convolution17 -> Convolution17
I0213 19:02:32.383746  8424 net.cpp:150] Setting up Convolution17
I0213 19:02:32.383759  8424 net.cpp:157] Top shape: 1 12 150 250 (450000)
I0213 19:02:32.383762  8424 net.cpp:165] Memory required for data: 3150000028
I0213 19:02:32.383769  8424 layer_factory.hpp:77] Creating layer Dropout16
I0213 19:02:32.383776  8424 net.cpp:106] Creating Layer Dropout16
I0213 19:02:32.383781  8424 net.cpp:454] Dropout16 <- Convolution17
I0213 19:02:32.383790  8424 net.cpp:411] Dropout16 -> Dropout16
I0213 19:02:32.383852  8424 net.cpp:150] Setting up Dropout16
I0213 19:02:32.383862  8424 net.cpp:157] Top shape: 1 12 150 250 (450000)
I0213 19:02:32.383865  8424 net.cpp:165] Memory required for data: 3151800028
I0213 19:02:32.383870  8424 layer_factory.hpp:77] Creating layer Concat15
I0213 19:02:32.383877  8424 net.cpp:106] Creating Layer Concat15
I0213 19:02:32.383882  8424 net.cpp:454] Concat15 <- Concat14_Concat14_0_split_1
I0213 19:02:32.383886  8424 net.cpp:454] Concat15 <- Dropout16
I0213 19:02:32.383895  8424 net.cpp:411] Concat15 -> Concat15
I0213 19:02:32.383931  8424 net.cpp:150] Setting up Concat15
I0213 19:02:32.383941  8424 net.cpp:157] Top shape: 1 196 150 250 (7350000)
I0213 19:02:32.383945  8424 net.cpp:165] Memory required for data: 3181200028
I0213 19:02:32.383949  8424 layer_factory.hpp:77] Creating layer Concat15_Concat15_0_split
I0213 19:02:32.383956  8424 net.cpp:106] Creating Layer Concat15_Concat15_0_split
I0213 19:02:32.383960  8424 net.cpp:454] Concat15_Concat15_0_split <- Concat15
I0213 19:02:32.383968  8424 net.cpp:411] Concat15_Concat15_0_split -> Concat15_Concat15_0_split_0
I0213 19:02:32.383976  8424 net.cpp:411] Concat15_Concat15_0_split -> Concat15_Concat15_0_split_1
I0213 19:02:32.384030  8424 net.cpp:150] Setting up Concat15_Concat15_0_split
I0213 19:02:32.384039  8424 net.cpp:157] Top shape: 1 196 150 250 (7350000)
I0213 19:02:32.384044  8424 net.cpp:157] Top shape: 1 196 150 250 (7350000)
I0213 19:02:32.384048  8424 net.cpp:165] Memory required for data: 3240000028
I0213 19:02:32.384053  8424 layer_factory.hpp:77] Creating layer BatchNorm17
I0213 19:02:32.384063  8424 net.cpp:106] Creating Layer BatchNorm17
I0213 19:02:32.384068  8424 net.cpp:454] BatchNorm17 <- Concat15_Concat15_0_split_0
I0213 19:02:32.384073  8424 net.cpp:411] BatchNorm17 -> BatchNorm17
I0213 19:02:32.384498  8424 net.cpp:150] Setting up BatchNorm17
I0213 19:02:32.384510  8424 net.cpp:157] Top shape: 1 196 150 250 (7350000)
I0213 19:02:32.384515  8424 net.cpp:165] Memory required for data: 3269400028
I0213 19:02:32.384523  8424 layer_factory.hpp:77] Creating layer Scale17
I0213 19:02:32.384533  8424 net.cpp:106] Creating Layer Scale17
I0213 19:02:32.384539  8424 net.cpp:454] Scale17 <- BatchNorm17
I0213 19:02:32.384546  8424 net.cpp:397] Scale17 -> BatchNorm17 (in-place)
I0213 19:02:32.384606  8424 layer_factory.hpp:77] Creating layer Scale17
I0213 19:02:32.384860  8424 net.cpp:150] Setting up Scale17
I0213 19:02:32.384871  8424 net.cpp:157] Top shape: 1 196 150 250 (7350000)
I0213 19:02:32.384876  8424 net.cpp:165] Memory required for data: 3298800028
I0213 19:02:32.384883  8424 layer_factory.hpp:77] Creating layer ReLU17
I0213 19:02:32.384891  8424 net.cpp:106] Creating Layer ReLU17
I0213 19:02:32.384896  8424 net.cpp:454] ReLU17 <- BatchNorm17
I0213 19:02:32.384901  8424 net.cpp:397] ReLU17 -> BatchNorm17 (in-place)
I0213 19:02:32.384907  8424 net.cpp:150] Setting up ReLU17
I0213 19:02:32.384913  8424 net.cpp:157] Top shape: 1 196 150 250 (7350000)
I0213 19:02:32.384917  8424 net.cpp:165] Memory required for data: 3328200028
I0213 19:02:32.384922  8424 layer_factory.hpp:77] Creating layer Convolution18
I0213 19:02:32.384932  8424 net.cpp:106] Creating Layer Convolution18
I0213 19:02:32.384938  8424 net.cpp:454] Convolution18 <- BatchNorm17
I0213 19:02:32.384944  8424 net.cpp:411] Convolution18 -> Convolution18
I0213 19:02:32.385854  8424 net.cpp:150] Setting up Convolution18
I0213 19:02:32.385864  8424 net.cpp:157] Top shape: 1 12 150 250 (450000)
I0213 19:02:32.385869  8424 net.cpp:165] Memory required for data: 3330000028
I0213 19:02:32.385874  8424 layer_factory.hpp:77] Creating layer Dropout17
I0213 19:02:32.385885  8424 net.cpp:106] Creating Layer Dropout17
I0213 19:02:32.385890  8424 net.cpp:454] Dropout17 <- Convolution18
I0213 19:02:32.385896  8424 net.cpp:411] Dropout17 -> Dropout17
I0213 19:02:32.385957  8424 net.cpp:150] Setting up Dropout17
I0213 19:02:32.385967  8424 net.cpp:157] Top shape: 1 12 150 250 (450000)
I0213 19:02:32.385972  8424 net.cpp:165] Memory required for data: 3331800028
I0213 19:02:32.385975  8424 layer_factory.hpp:77] Creating layer Concat16
I0213 19:02:32.385982  8424 net.cpp:106] Creating Layer Concat16
I0213 19:02:32.385987  8424 net.cpp:454] Concat16 <- Concat15_Concat15_0_split_1
I0213 19:02:32.385993  8424 net.cpp:454] Concat16 <- Dropout17
I0213 19:02:32.386001  8424 net.cpp:411] Concat16 -> Concat16
I0213 19:02:32.386039  8424 net.cpp:150] Setting up Concat16
I0213 19:02:32.386047  8424 net.cpp:157] Top shape: 1 208 150 250 (7800000)
I0213 19:02:32.386052  8424 net.cpp:165] Memory required for data: 3363000028
I0213 19:02:32.386056  8424 layer_factory.hpp:77] Creating layer BatchNorm18
I0213 19:02:32.386065  8424 net.cpp:106] Creating Layer BatchNorm18
I0213 19:02:32.386070  8424 net.cpp:454] BatchNorm18 <- Concat16
I0213 19:02:32.386078  8424 net.cpp:411] BatchNorm18 -> BatchNorm18
I0213 19:02:32.387372  8424 net.cpp:150] Setting up BatchNorm18
I0213 19:02:32.387383  8424 net.cpp:157] Top shape: 1 208 150 250 (7800000)
I0213 19:02:32.387388  8424 net.cpp:165] Memory required for data: 3394200028
I0213 19:02:32.387398  8424 layer_factory.hpp:77] Creating layer Scale18
I0213 19:02:32.387408  8424 net.cpp:106] Creating Layer Scale18
I0213 19:02:32.387413  8424 net.cpp:454] Scale18 <- BatchNorm18
I0213 19:02:32.387419  8424 net.cpp:397] Scale18 -> BatchNorm18 (in-place)
I0213 19:02:32.387480  8424 layer_factory.hpp:77] Creating layer Scale18
I0213 19:02:32.387728  8424 net.cpp:150] Setting up Scale18
I0213 19:02:32.387740  8424 net.cpp:157] Top shape: 1 208 150 250 (7800000)
I0213 19:02:32.387744  8424 net.cpp:165] Memory required for data: 3425400028
I0213 19:02:32.387753  8424 layer_factory.hpp:77] Creating layer ReLU18
I0213 19:02:32.387759  8424 net.cpp:106] Creating Layer ReLU18
I0213 19:02:32.387764  8424 net.cpp:454] ReLU18 <- BatchNorm18
I0213 19:02:32.387769  8424 net.cpp:397] ReLU18 -> BatchNorm18 (in-place)
I0213 19:02:32.387776  8424 net.cpp:150] Setting up ReLU18
I0213 19:02:32.387783  8424 net.cpp:157] Top shape: 1 208 150 250 (7800000)
I0213 19:02:32.387786  8424 net.cpp:165] Memory required for data: 3456600028
I0213 19:02:32.387791  8424 layer_factory.hpp:77] Creating layer Convolution19
I0213 19:02:32.387802  8424 net.cpp:106] Creating Layer Convolution19
I0213 19:02:32.387807  8424 net.cpp:454] Convolution19 <- BatchNorm18
I0213 19:02:32.387814  8424 net.cpp:411] Convolution19 -> Convolution19
I0213 19:02:32.389392  8424 net.cpp:150] Setting up Convolution19
I0213 19:02:32.389405  8424 net.cpp:157] Top shape: 1 208 150 250 (7800000)
I0213 19:02:32.389410  8424 net.cpp:165] Memory required for data: 3487800028
I0213 19:02:32.389416  8424 layer_factory.hpp:77] Creating layer Dropout18
I0213 19:02:32.389425  8424 net.cpp:106] Creating Layer Dropout18
I0213 19:02:32.389430  8424 net.cpp:454] Dropout18 <- Convolution19
I0213 19:02:32.389438  8424 net.cpp:411] Dropout18 -> Dropout18
I0213 19:02:32.389503  8424 net.cpp:150] Setting up Dropout18
I0213 19:02:32.389511  8424 net.cpp:157] Top shape: 1 208 150 250 (7800000)
I0213 19:02:32.389516  8424 net.cpp:165] Memory required for data: 3519000028
I0213 19:02:32.389520  8424 layer_factory.hpp:77] Creating layer Pooling2
I0213 19:02:32.389528  8424 net.cpp:106] Creating Layer Pooling2
I0213 19:02:32.389533  8424 net.cpp:454] Pooling2 <- Dropout18
I0213 19:02:32.389540  8424 net.cpp:411] Pooling2 -> Pooling2
I0213 19:02:32.389578  8424 net.cpp:150] Setting up Pooling2
I0213 19:02:32.389587  8424 net.cpp:157] Top shape: 1 208 75 125 (1950000)
I0213 19:02:32.389591  8424 net.cpp:165] Memory required for data: 3526800028
I0213 19:02:32.389596  8424 layer_factory.hpp:77] Creating layer Pooling2_Pooling2_0_split
I0213 19:02:32.389602  8424 net.cpp:106] Creating Layer Pooling2_Pooling2_0_split
I0213 19:02:32.389606  8424 net.cpp:454] Pooling2_Pooling2_0_split <- Pooling2
I0213 19:02:32.389616  8424 net.cpp:411] Pooling2_Pooling2_0_split -> Pooling2_Pooling2_0_split_0
I0213 19:02:32.389622  8424 net.cpp:411] Pooling2_Pooling2_0_split -> Pooling2_Pooling2_0_split_1
I0213 19:02:32.389678  8424 net.cpp:150] Setting up Pooling2_Pooling2_0_split
I0213 19:02:32.389686  8424 net.cpp:157] Top shape: 1 208 75 125 (1950000)
I0213 19:02:32.389693  8424 net.cpp:157] Top shape: 1 208 75 125 (1950000)
I0213 19:02:32.389696  8424 net.cpp:165] Memory required for data: 3542400028
I0213 19:02:32.389700  8424 layer_factory.hpp:77] Creating layer BatchNorm19
I0213 19:02:32.389719  8424 net.cpp:106] Creating Layer BatchNorm19
I0213 19:02:32.389724  8424 net.cpp:454] BatchNorm19 <- Pooling2_Pooling2_0_split_0
I0213 19:02:32.389732  8424 net.cpp:411] BatchNorm19 -> BatchNorm19
I0213 19:02:32.390050  8424 net.cpp:150] Setting up BatchNorm19
I0213 19:02:32.390061  8424 net.cpp:157] Top shape: 1 208 75 125 (1950000)
I0213 19:02:32.390065  8424 net.cpp:165] Memory required for data: 3550200028
I0213 19:02:32.390076  8424 layer_factory.hpp:77] Creating layer Scale19
I0213 19:02:32.390084  8424 net.cpp:106] Creating Layer Scale19
I0213 19:02:32.390089  8424 net.cpp:454] Scale19 <- BatchNorm19
I0213 19:02:32.390097  8424 net.cpp:397] Scale19 -> BatchNorm19 (in-place)
I0213 19:02:32.390158  8424 layer_factory.hpp:77] Creating layer Scale19
I0213 19:02:32.390359  8424 net.cpp:150] Setting up Scale19
I0213 19:02:32.390369  8424 net.cpp:157] Top shape: 1 208 75 125 (1950000)
I0213 19:02:32.390373  8424 net.cpp:165] Memory required for data: 3558000028
I0213 19:02:32.390382  8424 layer_factory.hpp:77] Creating layer ReLU19
I0213 19:02:32.390388  8424 net.cpp:106] Creating Layer ReLU19
I0213 19:02:32.390393  8424 net.cpp:454] ReLU19 <- BatchNorm19
I0213 19:02:32.390398  8424 net.cpp:397] ReLU19 -> BatchNorm19 (in-place)
I0213 19:02:32.390405  8424 net.cpp:150] Setting up ReLU19
I0213 19:02:32.390411  8424 net.cpp:157] Top shape: 1 208 75 125 (1950000)
I0213 19:02:32.390415  8424 net.cpp:165] Memory required for data: 3565800028
I0213 19:02:32.390419  8424 layer_factory.hpp:77] Creating layer Convolution20
I0213 19:02:32.390430  8424 net.cpp:106] Creating Layer Convolution20
I0213 19:02:32.390435  8424 net.cpp:454] Convolution20 <- BatchNorm19
I0213 19:02:32.390442  8424 net.cpp:411] Convolution20 -> Convolution20
I0213 19:02:32.391383  8424 net.cpp:150] Setting up Convolution20
I0213 19:02:32.391394  8424 net.cpp:157] Top shape: 1 12 75 125 (112500)
I0213 19:02:32.391398  8424 net.cpp:165] Memory required for data: 3566250028
I0213 19:02:32.391404  8424 layer_factory.hpp:77] Creating layer Dropout19
I0213 19:02:32.391413  8424 net.cpp:106] Creating Layer Dropout19
I0213 19:02:32.391418  8424 net.cpp:454] Dropout19 <- Convolution20
I0213 19:02:32.391424  8424 net.cpp:411] Dropout19 -> Dropout19
I0213 19:02:32.391484  8424 net.cpp:150] Setting up Dropout19
I0213 19:02:32.391494  8424 net.cpp:157] Top shape: 1 12 75 125 (112500)
I0213 19:02:32.391497  8424 net.cpp:165] Memory required for data: 3566700028
I0213 19:02:32.391502  8424 layer_factory.hpp:77] Creating layer Concat17
I0213 19:02:32.391508  8424 net.cpp:106] Creating Layer Concat17
I0213 19:02:32.391513  8424 net.cpp:454] Concat17 <- Pooling2_Pooling2_0_split_1
I0213 19:02:32.391518  8424 net.cpp:454] Concat17 <- Dropout19
I0213 19:02:32.391527  8424 net.cpp:411] Concat17 -> Concat17
I0213 19:02:32.391564  8424 net.cpp:150] Setting up Concat17
I0213 19:02:32.391573  8424 net.cpp:157] Top shape: 1 220 75 125 (2062500)
I0213 19:02:32.391577  8424 net.cpp:165] Memory required for data: 3574950028
I0213 19:02:32.391582  8424 layer_factory.hpp:77] Creating layer Concat17_Concat17_0_split
I0213 19:02:32.391597  8424 net.cpp:106] Creating Layer Concat17_Concat17_0_split
I0213 19:02:32.391607  8424 net.cpp:454] Concat17_Concat17_0_split <- Concat17
I0213 19:02:32.391618  8424 net.cpp:411] Concat17_Concat17_0_split -> Concat17_Concat17_0_split_0
I0213 19:02:32.391629  8424 net.cpp:411] Concat17_Concat17_0_split -> Concat17_Concat17_0_split_1
I0213 19:02:32.391688  8424 net.cpp:150] Setting up Concat17_Concat17_0_split
I0213 19:02:32.391697  8424 net.cpp:157] Top shape: 1 220 75 125 (2062500)
I0213 19:02:32.391703  8424 net.cpp:157] Top shape: 1 220 75 125 (2062500)
I0213 19:02:32.391707  8424 net.cpp:165] Memory required for data: 3591450028
I0213 19:02:32.391711  8424 layer_factory.hpp:77] Creating layer BatchNorm20
I0213 19:02:32.391721  8424 net.cpp:106] Creating Layer BatchNorm20
I0213 19:02:32.391726  8424 net.cpp:454] BatchNorm20 <- Concat17_Concat17_0_split_0
I0213 19:02:32.391732  8424 net.cpp:411] BatchNorm20 -> BatchNorm20
I0213 19:02:32.392066  8424 net.cpp:150] Setting up BatchNorm20
I0213 19:02:32.392076  8424 net.cpp:157] Top shape: 1 220 75 125 (2062500)
I0213 19:02:32.392081  8424 net.cpp:165] Memory required for data: 3599700028
I0213 19:02:32.392088  8424 layer_factory.hpp:77] Creating layer Scale20
I0213 19:02:32.392098  8424 net.cpp:106] Creating Layer Scale20
I0213 19:02:32.392104  8424 net.cpp:454] Scale20 <- BatchNorm20
I0213 19:02:32.392110  8424 net.cpp:397] Scale20 -> BatchNorm20 (in-place)
I0213 19:02:32.392173  8424 layer_factory.hpp:77] Creating layer Scale20
I0213 19:02:32.392374  8424 net.cpp:150] Setting up Scale20
I0213 19:02:32.392387  8424 net.cpp:157] Top shape: 1 220 75 125 (2062500)
I0213 19:02:32.392392  8424 net.cpp:165] Memory required for data: 3607950028
I0213 19:02:32.392400  8424 layer_factory.hpp:77] Creating layer ReLU20
I0213 19:02:32.392406  8424 net.cpp:106] Creating Layer ReLU20
I0213 19:02:32.392411  8424 net.cpp:454] ReLU20 <- BatchNorm20
I0213 19:02:32.392417  8424 net.cpp:397] ReLU20 -> BatchNorm20 (in-place)
I0213 19:02:32.392423  8424 net.cpp:150] Setting up ReLU20
I0213 19:02:32.392429  8424 net.cpp:157] Top shape: 1 220 75 125 (2062500)
I0213 19:02:32.392433  8424 net.cpp:165] Memory required for data: 3616200028
I0213 19:02:32.392437  8424 layer_factory.hpp:77] Creating layer Convolution21
I0213 19:02:32.392446  8424 net.cpp:106] Creating Layer Convolution21
I0213 19:02:32.392452  8424 net.cpp:454] Convolution21 <- BatchNorm20
I0213 19:02:32.392460  8424 net.cpp:411] Convolution21 -> Convolution21
I0213 19:02:32.393443  8424 net.cpp:150] Setting up Convolution21
I0213 19:02:32.393456  8424 net.cpp:157] Top shape: 1 12 75 125 (112500)
I0213 19:02:32.393460  8424 net.cpp:165] Memory required for data: 3616650028
I0213 19:02:32.393467  8424 layer_factory.hpp:77] Creating layer Dropout20
I0213 19:02:32.393476  8424 net.cpp:106] Creating Layer Dropout20
I0213 19:02:32.393481  8424 net.cpp:454] Dropout20 <- Convolution21
I0213 19:02:32.393486  8424 net.cpp:411] Dropout20 -> Dropout20
I0213 19:02:32.393545  8424 net.cpp:150] Setting up Dropout20
I0213 19:02:32.393554  8424 net.cpp:157] Top shape: 1 12 75 125 (112500)
I0213 19:02:32.393559  8424 net.cpp:165] Memory required for data: 3617100028
I0213 19:02:32.393563  8424 layer_factory.hpp:77] Creating layer Concat18
I0213 19:02:32.393573  8424 net.cpp:106] Creating Layer Concat18
I0213 19:02:32.393577  8424 net.cpp:454] Concat18 <- Concat17_Concat17_0_split_1
I0213 19:02:32.393582  8424 net.cpp:454] Concat18 <- Dropout20
I0213 19:02:32.393589  8424 net.cpp:411] Concat18 -> Concat18
I0213 19:02:32.393626  8424 net.cpp:150] Setting up Concat18
I0213 19:02:32.393635  8424 net.cpp:157] Top shape: 1 232 75 125 (2175000)
I0213 19:02:32.393642  8424 net.cpp:165] Memory required for data: 3625800028
I0213 19:02:32.393646  8424 layer_factory.hpp:77] Creating layer Concat18_Concat18_0_split
I0213 19:02:32.393652  8424 net.cpp:106] Creating Layer Concat18_Concat18_0_split
I0213 19:02:32.393657  8424 net.cpp:454] Concat18_Concat18_0_split <- Concat18
I0213 19:02:32.393663  8424 net.cpp:411] Concat18_Concat18_0_split -> Concat18_Concat18_0_split_0
I0213 19:02:32.393671  8424 net.cpp:411] Concat18_Concat18_0_split -> Concat18_Concat18_0_split_1
I0213 19:02:32.393725  8424 net.cpp:150] Setting up Concat18_Concat18_0_split
I0213 19:02:32.393734  8424 net.cpp:157] Top shape: 1 232 75 125 (2175000)
I0213 19:02:32.393739  8424 net.cpp:157] Top shape: 1 232 75 125 (2175000)
I0213 19:02:32.393743  8424 net.cpp:165] Memory required for data: 3643200028
I0213 19:02:32.393748  8424 layer_factory.hpp:77] Creating layer BatchNorm21
I0213 19:02:32.393756  8424 net.cpp:106] Creating Layer BatchNorm21
I0213 19:02:32.393761  8424 net.cpp:454] BatchNorm21 <- Concat18_Concat18_0_split_0
I0213 19:02:32.393767  8424 net.cpp:411] BatchNorm21 -> BatchNorm21
I0213 19:02:32.394107  8424 net.cpp:150] Setting up BatchNorm21
I0213 19:02:32.394119  8424 net.cpp:157] Top shape: 1 232 75 125 (2175000)
I0213 19:02:32.394122  8424 net.cpp:165] Memory required for data: 3651900028
I0213 19:02:32.394131  8424 layer_factory.hpp:77] Creating layer Scale21
I0213 19:02:32.394141  8424 net.cpp:106] Creating Layer Scale21
I0213 19:02:32.394146  8424 net.cpp:454] Scale21 <- BatchNorm21
I0213 19:02:32.394155  8424 net.cpp:397] Scale21 -> BatchNorm21 (in-place)
I0213 19:02:32.394214  8424 layer_factory.hpp:77] Creating layer Scale21
I0213 19:02:32.394417  8424 net.cpp:150] Setting up Scale21
I0213 19:02:32.394428  8424 net.cpp:157] Top shape: 1 232 75 125 (2175000)
I0213 19:02:32.394431  8424 net.cpp:165] Memory required for data: 3660600028
I0213 19:02:32.394439  8424 layer_factory.hpp:77] Creating layer ReLU21
I0213 19:02:32.394445  8424 net.cpp:106] Creating Layer ReLU21
I0213 19:02:32.394450  8424 net.cpp:454] ReLU21 <- BatchNorm21
I0213 19:02:32.394456  8424 net.cpp:397] ReLU21 -> BatchNorm21 (in-place)
I0213 19:02:32.394464  8424 net.cpp:150] Setting up ReLU21
I0213 19:02:32.394469  8424 net.cpp:157] Top shape: 1 232 75 125 (2175000)
I0213 19:02:32.394474  8424 net.cpp:165] Memory required for data: 3669300028
I0213 19:02:32.394477  8424 layer_factory.hpp:77] Creating layer Convolution22
I0213 19:02:32.394486  8424 net.cpp:106] Creating Layer Convolution22
I0213 19:02:32.394490  8424 net.cpp:454] Convolution22 <- BatchNorm21
I0213 19:02:32.394500  8424 net.cpp:411] Convolution22 -> Convolution22
I0213 19:02:32.395521  8424 net.cpp:150] Setting up Convolution22
I0213 19:02:32.395534  8424 net.cpp:157] Top shape: 1 12 75 125 (112500)
I0213 19:02:32.395539  8424 net.cpp:165] Memory required for data: 3669750028
I0213 19:02:32.395545  8424 layer_factory.hpp:77] Creating layer Dropout21
I0213 19:02:32.395552  8424 net.cpp:106] Creating Layer Dropout21
I0213 19:02:32.395557  8424 net.cpp:454] Dropout21 <- Convolution22
I0213 19:02:32.395565  8424 net.cpp:411] Dropout21 -> Dropout21
I0213 19:02:32.395642  8424 net.cpp:150] Setting up Dropout21
I0213 19:02:32.395653  8424 net.cpp:157] Top shape: 1 12 75 125 (112500)
I0213 19:02:32.395658  8424 net.cpp:165] Memory required for data: 3670200028
I0213 19:02:32.395663  8424 layer_factory.hpp:77] Creating layer Concat19
I0213 19:02:32.395673  8424 net.cpp:106] Creating Layer Concat19
I0213 19:02:32.395678  8424 net.cpp:454] Concat19 <- Concat18_Concat18_0_split_1
I0213 19:02:32.395684  8424 net.cpp:454] Concat19 <- Dropout21
I0213 19:02:32.395689  8424 net.cpp:411] Concat19 -> Concat19
I0213 19:02:32.395726  8424 net.cpp:150] Setting up Concat19
I0213 19:02:32.395737  8424 net.cpp:157] Top shape: 1 244 75 125 (2287500)
I0213 19:02:32.395742  8424 net.cpp:165] Memory required for data: 3679350028
I0213 19:02:32.395746  8424 layer_factory.hpp:77] Creating layer Concat19_Concat19_0_split
I0213 19:02:32.395752  8424 net.cpp:106] Creating Layer Concat19_Concat19_0_split
I0213 19:02:32.395757  8424 net.cpp:454] Concat19_Concat19_0_split <- Concat19
I0213 19:02:32.395763  8424 net.cpp:411] Concat19_Concat19_0_split -> Concat19_Concat19_0_split_0
I0213 19:02:32.395782  8424 net.cpp:411] Concat19_Concat19_0_split -> Concat19_Concat19_0_split_1
I0213 19:02:32.395839  8424 net.cpp:150] Setting up Concat19_Concat19_0_split
I0213 19:02:32.395849  8424 net.cpp:157] Top shape: 1 244 75 125 (2287500)
I0213 19:02:32.395854  8424 net.cpp:157] Top shape: 1 244 75 125 (2287500)
I0213 19:02:32.395859  8424 net.cpp:165] Memory required for data: 3697650028
I0213 19:02:32.395864  8424 layer_factory.hpp:77] Creating layer BatchNorm22
I0213 19:02:32.395872  8424 net.cpp:106] Creating Layer BatchNorm22
I0213 19:02:32.395877  8424 net.cpp:454] BatchNorm22 <- Concat19_Concat19_0_split_0
I0213 19:02:32.395884  8424 net.cpp:411] BatchNorm22 -> BatchNorm22
I0213 19:02:32.396206  8424 net.cpp:150] Setting up BatchNorm22
I0213 19:02:32.396217  8424 net.cpp:157] Top shape: 1 244 75 125 (2287500)
I0213 19:02:32.396221  8424 net.cpp:165] Memory required for data: 3706800028
I0213 19:02:32.396245  8424 layer_factory.hpp:77] Creating layer Scale22
I0213 19:02:32.396256  8424 net.cpp:106] Creating Layer Scale22
I0213 19:02:32.396261  8424 net.cpp:454] Scale22 <- BatchNorm22
I0213 19:02:32.396270  8424 net.cpp:397] Scale22 -> BatchNorm22 (in-place)
I0213 19:02:32.396332  8424 layer_factory.hpp:77] Creating layer Scale22
I0213 19:02:32.396538  8424 net.cpp:150] Setting up Scale22
I0213 19:02:32.396548  8424 net.cpp:157] Top shape: 1 244 75 125 (2287500)
I0213 19:02:32.396553  8424 net.cpp:165] Memory required for data: 3715950028
I0213 19:02:32.396559  8424 layer_factory.hpp:77] Creating layer ReLU22
I0213 19:02:32.396569  8424 net.cpp:106] Creating Layer ReLU22
I0213 19:02:32.396574  8424 net.cpp:454] ReLU22 <- BatchNorm22
I0213 19:02:32.396579  8424 net.cpp:397] ReLU22 -> BatchNorm22 (in-place)
I0213 19:02:32.396585  8424 net.cpp:150] Setting up ReLU22
I0213 19:02:32.396591  8424 net.cpp:157] Top shape: 1 244 75 125 (2287500)
I0213 19:02:32.396595  8424 net.cpp:165] Memory required for data: 3725100028
I0213 19:02:32.396600  8424 layer_factory.hpp:77] Creating layer Convolution23
I0213 19:02:32.396608  8424 net.cpp:106] Creating Layer Convolution23
I0213 19:02:32.396612  8424 net.cpp:454] Convolution23 <- BatchNorm22
I0213 19:02:32.396620  8424 net.cpp:411] Convolution23 -> Convolution23
I0213 19:02:32.397704  8424 net.cpp:150] Setting up Convolution23
I0213 19:02:32.397716  8424 net.cpp:157] Top shape: 1 12 75 125 (112500)
I0213 19:02:32.397720  8424 net.cpp:165] Memory required for data: 3725550028
I0213 19:02:32.397727  8424 layer_factory.hpp:77] Creating layer Dropout22
I0213 19:02:32.397733  8424 net.cpp:106] Creating Layer Dropout22
I0213 19:02:32.397738  8424 net.cpp:454] Dropout22 <- Convolution23
I0213 19:02:32.397747  8424 net.cpp:411] Dropout22 -> Dropout22
I0213 19:02:32.397809  8424 net.cpp:150] Setting up Dropout22
I0213 19:02:32.397817  8424 net.cpp:157] Top shape: 1 12 75 125 (112500)
I0213 19:02:32.397822  8424 net.cpp:165] Memory required for data: 3726000028
I0213 19:02:32.397826  8424 layer_factory.hpp:77] Creating layer Concat20
I0213 19:02:32.397835  8424 net.cpp:106] Creating Layer Concat20
I0213 19:02:32.397840  8424 net.cpp:454] Concat20 <- Concat19_Concat19_0_split_1
I0213 19:02:32.397845  8424 net.cpp:454] Concat20 <- Dropout22
I0213 19:02:32.397853  8424 net.cpp:411] Concat20 -> Concat20
I0213 19:02:32.397891  8424 net.cpp:150] Setting up Concat20
I0213 19:02:32.397899  8424 net.cpp:157] Top shape: 1 256 75 125 (2400000)
I0213 19:02:32.397903  8424 net.cpp:165] Memory required for data: 3735600028
I0213 19:02:32.397907  8424 layer_factory.hpp:77] Creating layer Concat20_Concat20_0_split
I0213 19:02:32.397914  8424 net.cpp:106] Creating Layer Concat20_Concat20_0_split
I0213 19:02:32.397918  8424 net.cpp:454] Concat20_Concat20_0_split <- Concat20
I0213 19:02:32.397927  8424 net.cpp:411] Concat20_Concat20_0_split -> Concat20_Concat20_0_split_0
I0213 19:02:32.397934  8424 net.cpp:411] Concat20_Concat20_0_split -> Concat20_Concat20_0_split_1
I0213 19:02:32.397987  8424 net.cpp:150] Setting up Concat20_Concat20_0_split
I0213 19:02:32.397997  8424 net.cpp:157] Top shape: 1 256 75 125 (2400000)
I0213 19:02:32.398002  8424 net.cpp:157] Top shape: 1 256 75 125 (2400000)
I0213 19:02:32.398006  8424 net.cpp:165] Memory required for data: 3754800028
I0213 19:02:32.398010  8424 layer_factory.hpp:77] Creating layer BatchNorm23
I0213 19:02:32.398020  8424 net.cpp:106] Creating Layer BatchNorm23
I0213 19:02:32.398025  8424 net.cpp:454] BatchNorm23 <- Concat20_Concat20_0_split_0
I0213 19:02:32.398031  8424 net.cpp:411] BatchNorm23 -> BatchNorm23
I0213 19:02:32.398339  8424 net.cpp:150] Setting up BatchNorm23
I0213 19:02:32.398349  8424 net.cpp:157] Top shape: 1 256 75 125 (2400000)
I0213 19:02:32.398352  8424 net.cpp:165] Memory required for data: 3764400028
I0213 19:02:32.398361  8424 layer_factory.hpp:77] Creating layer Scale23
I0213 19:02:32.398371  8424 net.cpp:106] Creating Layer Scale23
I0213 19:02:32.398376  8424 net.cpp:454] Scale23 <- BatchNorm23
I0213 19:02:32.398382  8424 net.cpp:397] Scale23 -> BatchNorm23 (in-place)
I0213 19:02:32.398444  8424 layer_factory.hpp:77] Creating layer Scale23
I0213 19:02:32.398635  8424 net.cpp:150] Setting up Scale23
I0213 19:02:32.398645  8424 net.cpp:157] Top shape: 1 256 75 125 (2400000)
I0213 19:02:32.398650  8424 net.cpp:165] Memory required for data: 3774000028
I0213 19:02:32.398658  8424 layer_factory.hpp:77] Creating layer ReLU23
I0213 19:02:32.398666  8424 net.cpp:106] Creating Layer ReLU23
I0213 19:02:32.398671  8424 net.cpp:454] ReLU23 <- BatchNorm23
I0213 19:02:32.398677  8424 net.cpp:397] ReLU23 -> BatchNorm23 (in-place)
I0213 19:02:32.398684  8424 net.cpp:150] Setting up ReLU23
I0213 19:02:32.398689  8424 net.cpp:157] Top shape: 1 256 75 125 (2400000)
I0213 19:02:32.398694  8424 net.cpp:165] Memory required for data: 3783600028
I0213 19:02:32.398697  8424 layer_factory.hpp:77] Creating layer Convolution24
I0213 19:02:32.398708  8424 net.cpp:106] Creating Layer Convolution24
I0213 19:02:32.398713  8424 net.cpp:454] Convolution24 <- BatchNorm23
I0213 19:02:32.398722  8424 net.cpp:411] Convolution24 -> Convolution24
I0213 19:02:32.399879  8424 net.cpp:150] Setting up Convolution24
I0213 19:02:32.399893  8424 net.cpp:157] Top shape: 1 12 75 125 (112500)
I0213 19:02:32.399899  8424 net.cpp:165] Memory required for data: 3784050028
I0213 19:02:32.399905  8424 layer_factory.hpp:77] Creating layer Dropout23
I0213 19:02:32.399914  8424 net.cpp:106] Creating Layer Dropout23
I0213 19:02:32.399919  8424 net.cpp:454] Dropout23 <- Convolution24
I0213 19:02:32.399927  8424 net.cpp:411] Dropout23 -> Dropout23
I0213 19:02:32.399989  8424 net.cpp:150] Setting up Dropout23
I0213 19:02:32.399999  8424 net.cpp:157] Top shape: 1 12 75 125 (112500)
I0213 19:02:32.400003  8424 net.cpp:165] Memory required for data: 3784500028
I0213 19:02:32.400008  8424 layer_factory.hpp:77] Creating layer Concat21
I0213 19:02:32.400014  8424 net.cpp:106] Creating Layer Concat21
I0213 19:02:32.400020  8424 net.cpp:454] Concat21 <- Concat20_Concat20_0_split_1
I0213 19:02:32.400025  8424 net.cpp:454] Concat21 <- Dropout23
I0213 19:02:32.400033  8424 net.cpp:411] Concat21 -> Concat21
I0213 19:02:32.400071  8424 net.cpp:150] Setting up Concat21
I0213 19:02:32.400080  8424 net.cpp:157] Top shape: 1 268 75 125 (2512500)
I0213 19:02:32.400084  8424 net.cpp:165] Memory required for data: 3794550028
I0213 19:02:32.400089  8424 layer_factory.hpp:77] Creating layer Concat21_Concat21_0_split
I0213 19:02:32.400095  8424 net.cpp:106] Creating Layer Concat21_Concat21_0_split
I0213 19:02:32.400100  8424 net.cpp:454] Concat21_Concat21_0_split <- Concat21
I0213 19:02:32.400108  8424 net.cpp:411] Concat21_Concat21_0_split -> Concat21_Concat21_0_split_0
I0213 19:02:32.400115  8424 net.cpp:411] Concat21_Concat21_0_split -> Concat21_Concat21_0_split_1
I0213 19:02:32.400172  8424 net.cpp:150] Setting up Concat21_Concat21_0_split
I0213 19:02:32.400182  8424 net.cpp:157] Top shape: 1 268 75 125 (2512500)
I0213 19:02:32.400187  8424 net.cpp:157] Top shape: 1 268 75 125 (2512500)
I0213 19:02:32.400192  8424 net.cpp:165] Memory required for data: 3814650028
I0213 19:02:32.400197  8424 layer_factory.hpp:77] Creating layer BatchNorm24
I0213 19:02:32.400204  8424 net.cpp:106] Creating Layer BatchNorm24
I0213 19:02:32.400209  8424 net.cpp:454] BatchNorm24 <- Concat21_Concat21_0_split_0
I0213 19:02:32.400216  8424 net.cpp:411] BatchNorm24 -> BatchNorm24
I0213 19:02:32.401499  8424 net.cpp:150] Setting up BatchNorm24
I0213 19:02:32.401518  8424 net.cpp:157] Top shape: 1 268 75 125 (2512500)
I0213 19:02:32.401525  8424 net.cpp:165] Memory required for data: 3824700028
I0213 19:02:32.401535  8424 layer_factory.hpp:77] Creating layer Scale24
I0213 19:02:32.401545  8424 net.cpp:106] Creating Layer Scale24
I0213 19:02:32.401551  8424 net.cpp:454] Scale24 <- BatchNorm24
I0213 19:02:32.401561  8424 net.cpp:397] Scale24 -> BatchNorm24 (in-place)
I0213 19:02:32.401645  8424 layer_factory.hpp:77] Creating layer Scale24
I0213 19:02:32.401872  8424 net.cpp:150] Setting up Scale24
I0213 19:02:32.401886  8424 net.cpp:157] Top shape: 1 268 75 125 (2512500)
I0213 19:02:32.401892  8424 net.cpp:165] Memory required for data: 3834750028
I0213 19:02:32.401901  8424 layer_factory.hpp:77] Creating layer ReLU24
I0213 19:02:32.401908  8424 net.cpp:106] Creating Layer ReLU24
I0213 19:02:32.401914  8424 net.cpp:454] ReLU24 <- BatchNorm24
I0213 19:02:32.401923  8424 net.cpp:397] ReLU24 -> BatchNorm24 (in-place)
I0213 19:02:32.401932  8424 net.cpp:150] Setting up ReLU24
I0213 19:02:32.401939  8424 net.cpp:157] Top shape: 1 268 75 125 (2512500)
I0213 19:02:32.401944  8424 net.cpp:165] Memory required for data: 3844800028
I0213 19:02:32.401948  8424 layer_factory.hpp:77] Creating layer Convolution25
I0213 19:02:32.401959  8424 net.cpp:106] Creating Layer Convolution25
I0213 19:02:32.401965  8424 net.cpp:454] Convolution25 <- BatchNorm24
I0213 19:02:32.401973  8424 net.cpp:411] Convolution25 -> Convolution25
I0213 19:02:32.412374  8424 net.cpp:150] Setting up Convolution25
I0213 19:02:32.412410  8424 net.cpp:157] Top shape: 1 12 75 125 (112500)
I0213 19:02:32.412416  8424 net.cpp:165] Memory required for data: 3845250028
I0213 19:02:32.412428  8424 layer_factory.hpp:77] Creating layer Dropout24
I0213 19:02:32.412443  8424 net.cpp:106] Creating Layer Dropout24
I0213 19:02:32.412451  8424 net.cpp:454] Dropout24 <- Convolution25
I0213 19:02:32.412464  8424 net.cpp:411] Dropout24 -> Dropout24
I0213 19:02:32.412545  8424 net.cpp:150] Setting up Dropout24
I0213 19:02:32.412559  8424 net.cpp:157] Top shape: 1 12 75 125 (112500)
I0213 19:02:32.412564  8424 net.cpp:165] Memory required for data: 3845700028
I0213 19:02:32.412570  8424 layer_factory.hpp:77] Creating layer Concat22
I0213 19:02:32.412580  8424 net.cpp:106] Creating Layer Concat22
I0213 19:02:32.412587  8424 net.cpp:454] Concat22 <- Concat21_Concat21_0_split_1
I0213 19:02:32.412593  8424 net.cpp:454] Concat22 <- Dropout24
I0213 19:02:32.412600  8424 net.cpp:411] Concat22 -> Concat22
I0213 19:02:32.412648  8424 net.cpp:150] Setting up Concat22
I0213 19:02:32.412660  8424 net.cpp:157] Top shape: 1 280 75 125 (2625000)
I0213 19:02:32.412667  8424 net.cpp:165] Memory required for data: 3856200028
I0213 19:02:32.412672  8424 layer_factory.hpp:77] Creating layer Concat22_Concat22_0_split
I0213 19:02:32.412681  8424 net.cpp:106] Creating Layer Concat22_Concat22_0_split
I0213 19:02:32.412688  8424 net.cpp:454] Concat22_Concat22_0_split <- Concat22
I0213 19:02:32.412698  8424 net.cpp:411] Concat22_Concat22_0_split -> Concat22_Concat22_0_split_0
I0213 19:02:32.412708  8424 net.cpp:411] Concat22_Concat22_0_split -> Concat22_Concat22_0_split_1
I0213 19:02:32.412776  8424 net.cpp:150] Setting up Concat22_Concat22_0_split
I0213 19:02:32.412789  8424 net.cpp:157] Top shape: 1 280 75 125 (2625000)
I0213 19:02:32.412796  8424 net.cpp:157] Top shape: 1 280 75 125 (2625000)
I0213 19:02:32.412802  8424 net.cpp:165] Memory required for data: 3877200028
I0213 19:02:32.412807  8424 layer_factory.hpp:77] Creating layer BatchNorm25
I0213 19:02:32.412817  8424 net.cpp:106] Creating Layer BatchNorm25
I0213 19:02:32.412824  8424 net.cpp:454] BatchNorm25 <- Concat22_Concat22_0_split_0
I0213 19:02:32.412837  8424 net.cpp:411] BatchNorm25 -> BatchNorm25
I0213 19:02:32.413234  8424 net.cpp:150] Setting up BatchNorm25
I0213 19:02:32.413249  8424 net.cpp:157] Top shape: 1 280 75 125 (2625000)
I0213 19:02:32.413254  8424 net.cpp:165] Memory required for data: 3887700028
I0213 19:02:32.413265  8424 layer_factory.hpp:77] Creating layer Scale25
I0213 19:02:32.413280  8424 net.cpp:106] Creating Layer Scale25
I0213 19:02:32.413287  8424 net.cpp:454] Scale25 <- BatchNorm25
I0213 19:02:32.413296  8424 net.cpp:397] Scale25 -> BatchNorm25 (in-place)
I0213 19:02:32.413375  8424 layer_factory.hpp:77] Creating layer Scale25
I0213 19:02:32.413619  8424 net.cpp:150] Setting up Scale25
I0213 19:02:32.413632  8424 net.cpp:157] Top shape: 1 280 75 125 (2625000)
I0213 19:02:32.413638  8424 net.cpp:165] Memory required for data: 3898200028
I0213 19:02:32.413647  8424 layer_factory.hpp:77] Creating layer ReLU25
I0213 19:02:32.413657  8424 net.cpp:106] Creating Layer ReLU25
I0213 19:02:32.413664  8424 net.cpp:454] ReLU25 <- BatchNorm25
I0213 19:02:32.413671  8424 net.cpp:397] ReLU25 -> BatchNorm25 (in-place)
I0213 19:02:32.413681  8424 net.cpp:150] Setting up ReLU25
I0213 19:02:32.413688  8424 net.cpp:157] Top shape: 1 280 75 125 (2625000)
I0213 19:02:32.413694  8424 net.cpp:165] Memory required for data: 3908700028
I0213 19:02:32.413699  8424 layer_factory.hpp:77] Creating layer Convolution26
I0213 19:02:32.413715  8424 net.cpp:106] Creating Layer Convolution26
I0213 19:02:32.413722  8424 net.cpp:454] Convolution26 <- BatchNorm25
I0213 19:02:32.413732  8424 net.cpp:411] Convolution26 -> Convolution26
I0213 19:02:32.415057  8424 net.cpp:150] Setting up Convolution26
I0213 19:02:32.415072  8424 net.cpp:157] Top shape: 1 12 75 125 (112500)
I0213 19:02:32.415078  8424 net.cpp:165] Memory required for data: 3909150028
I0213 19:02:32.415086  8424 layer_factory.hpp:77] Creating layer Dropout25
I0213 19:02:32.415096  8424 net.cpp:106] Creating Layer Dropout25
I0213 19:02:32.415102  8424 net.cpp:454] Dropout25 <- Convolution26
I0213 19:02:32.415113  8424 net.cpp:411] Dropout25 -> Dropout25
I0213 19:02:32.415186  8424 net.cpp:150] Setting up Dropout25
I0213 19:02:32.415199  8424 net.cpp:157] Top shape: 1 12 75 125 (112500)
I0213 19:02:32.415205  8424 net.cpp:165] Memory required for data: 3909600028
I0213 19:02:32.415210  8424 layer_factory.hpp:77] Creating layer Concat23
I0213 19:02:32.415220  8424 net.cpp:106] Creating Layer Concat23
I0213 19:02:32.415226  8424 net.cpp:454] Concat23 <- Concat22_Concat22_0_split_1
I0213 19:02:32.415235  8424 net.cpp:454] Concat23 <- Dropout25
I0213 19:02:32.415244  8424 net.cpp:411] Concat23 -> Concat23
I0213 19:02:32.415289  8424 net.cpp:150] Setting up Concat23
I0213 19:02:32.415302  8424 net.cpp:157] Top shape: 1 292 75 125 (2737500)
I0213 19:02:32.415307  8424 net.cpp:165] Memory required for data: 3920550028
I0213 19:02:32.415313  8424 layer_factory.hpp:77] Creating layer Concat23_Concat23_0_split
I0213 19:02:32.415321  8424 net.cpp:106] Creating Layer Concat23_Concat23_0_split
I0213 19:02:32.415328  8424 net.cpp:454] Concat23_Concat23_0_split <- Concat23
I0213 19:02:32.415338  8424 net.cpp:411] Concat23_Concat23_0_split -> Concat23_Concat23_0_split_0
I0213 19:02:32.415347  8424 net.cpp:411] Concat23_Concat23_0_split -> Concat23_Concat23_0_split_1
I0213 19:02:32.415413  8424 net.cpp:150] Setting up Concat23_Concat23_0_split
I0213 19:02:32.415426  8424 net.cpp:157] Top shape: 1 292 75 125 (2737500)
I0213 19:02:32.415432  8424 net.cpp:157] Top shape: 1 292 75 125 (2737500)
I0213 19:02:32.415438  8424 net.cpp:165] Memory required for data: 3942450028
I0213 19:02:32.415443  8424 layer_factory.hpp:77] Creating layer BatchNorm26
I0213 19:02:32.415455  8424 net.cpp:106] Creating Layer BatchNorm26
I0213 19:02:32.415462  8424 net.cpp:454] BatchNorm26 <- Concat23_Concat23_0_split_0
I0213 19:02:32.415472  8424 net.cpp:411] BatchNorm26 -> BatchNorm26
I0213 19:02:32.415884  8424 net.cpp:150] Setting up BatchNorm26
I0213 19:02:32.415899  8424 net.cpp:157] Top shape: 1 292 75 125 (2737500)
I0213 19:02:32.415904  8424 net.cpp:165] Memory required for data: 3953400028
I0213 19:02:32.415915  8424 layer_factory.hpp:77] Creating layer Scale26
I0213 19:02:32.415928  8424 net.cpp:106] Creating Layer Scale26
I0213 19:02:32.415936  8424 net.cpp:454] Scale26 <- BatchNorm26
I0213 19:02:32.415946  8424 net.cpp:397] Scale26 -> BatchNorm26 (in-place)
I0213 19:02:32.416025  8424 layer_factory.hpp:77] Creating layer Scale26
I0213 19:02:32.416265  8424 net.cpp:150] Setting up Scale26
I0213 19:02:32.416280  8424 net.cpp:157] Top shape: 1 292 75 125 (2737500)
I0213 19:02:32.416285  8424 net.cpp:165] Memory required for data: 3964350028
I0213 19:02:32.416292  8424 layer_factory.hpp:77] Creating layer ReLU26
I0213 19:02:32.416301  8424 net.cpp:106] Creating Layer ReLU26
I0213 19:02:32.416308  8424 net.cpp:454] ReLU26 <- BatchNorm26
I0213 19:02:32.416316  8424 net.cpp:397] ReLU26 -> BatchNorm26 (in-place)
I0213 19:02:32.416326  8424 net.cpp:150] Setting up ReLU26
I0213 19:02:32.416333  8424 net.cpp:157] Top shape: 1 292 75 125 (2737500)
I0213 19:02:32.416339  8424 net.cpp:165] Memory required for data: 3975300028
I0213 19:02:32.416344  8424 layer_factory.hpp:77] Creating layer Convolution27
I0213 19:02:32.416359  8424 net.cpp:106] Creating Layer Convolution27
I0213 19:02:32.416366  8424 net.cpp:454] Convolution27 <- BatchNorm26
I0213 19:02:32.416374  8424 net.cpp:411] Convolution27 -> Convolution27
I0213 19:02:32.417742  8424 net.cpp:150] Setting up Convolution27
I0213 19:02:32.417755  8424 net.cpp:157] Top shape: 1 12 75 125 (112500)
I0213 19:02:32.417762  8424 net.cpp:165] Memory required for data: 3975750028
I0213 19:02:32.417769  8424 layer_factory.hpp:77] Creating layer Dropout26
I0213 19:02:32.417778  8424 net.cpp:106] Creating Layer Dropout26
I0213 19:02:32.417785  8424 net.cpp:454] Dropout26 <- Convolution27
I0213 19:02:32.417796  8424 net.cpp:411] Dropout26 -> Dropout26
I0213 19:02:32.417868  8424 net.cpp:150] Setting up Dropout26
I0213 19:02:32.417881  8424 net.cpp:157] Top shape: 1 12 75 125 (112500)
I0213 19:02:32.417887  8424 net.cpp:165] Memory required for data: 3976200028
I0213 19:02:32.417893  8424 layer_factory.hpp:77] Creating layer Concat24
I0213 19:02:32.417902  8424 net.cpp:106] Creating Layer Concat24
I0213 19:02:32.417909  8424 net.cpp:454] Concat24 <- Concat23_Concat23_0_split_1
I0213 19:02:32.417917  8424 net.cpp:454] Concat24 <- Dropout26
I0213 19:02:32.417927  8424 net.cpp:411] Concat24 -> Concat24
I0213 19:02:32.417973  8424 net.cpp:150] Setting up Concat24
I0213 19:02:32.417984  8424 net.cpp:157] Top shape: 1 304 75 125 (2850000)
I0213 19:02:32.417990  8424 net.cpp:165] Memory required for data: 3987600028
I0213 19:02:32.417995  8424 layer_factory.hpp:77] Creating layer BatchNorm27
I0213 19:02:32.418006  8424 net.cpp:106] Creating Layer BatchNorm27
I0213 19:02:32.418014  8424 net.cpp:454] BatchNorm27 <- Concat24
I0213 19:02:32.418023  8424 net.cpp:411] BatchNorm27 -> BatchNorm27
I0213 19:02:32.418406  8424 net.cpp:150] Setting up BatchNorm27
I0213 19:02:32.418419  8424 net.cpp:157] Top shape: 1 304 75 125 (2850000)
I0213 19:02:32.418426  8424 net.cpp:165] Memory required for data: 3999000028
I0213 19:02:32.418437  8424 layer_factory.hpp:77] Creating layer Scale27
I0213 19:02:32.418448  8424 net.cpp:106] Creating Layer Scale27
I0213 19:02:32.418457  8424 net.cpp:454] Scale27 <- BatchNorm27
I0213 19:02:32.418465  8424 net.cpp:397] Scale27 -> BatchNorm27 (in-place)
I0213 19:02:32.418542  8424 layer_factory.hpp:77] Creating layer Scale27
I0213 19:02:32.418779  8424 net.cpp:150] Setting up Scale27
I0213 19:02:32.418793  8424 net.cpp:157] Top shape: 1 304 75 125 (2850000)
I0213 19:02:32.418799  8424 net.cpp:165] Memory required for data: 4010400028
I0213 19:02:32.418807  8424 layer_factory.hpp:77] Creating layer ReLU27
I0213 19:02:32.418817  8424 net.cpp:106] Creating Layer ReLU27
I0213 19:02:32.418824  8424 net.cpp:454] ReLU27 <- BatchNorm27
I0213 19:02:32.418834  8424 net.cpp:397] ReLU27 -> BatchNorm27 (in-place)
I0213 19:02:32.418844  8424 net.cpp:150] Setting up ReLU27
I0213 19:02:32.418853  8424 net.cpp:157] Top shape: 1 304 75 125 (2850000)
I0213 19:02:32.418859  8424 net.cpp:165] Memory required for data: 4021800028
I0213 19:02:32.418864  8424 layer_factory.hpp:77] Creating layer Convolution28
I0213 19:02:32.418875  8424 net.cpp:106] Creating Layer Convolution28
I0213 19:02:32.418881  8424 net.cpp:454] Convolution28 <- BatchNorm27
I0213 19:02:32.418889  8424 net.cpp:411] Convolution28 -> Convolution28
I0213 19:02:32.422235  8424 net.cpp:150] Setting up Convolution28
I0213 19:02:32.422250  8424 net.cpp:157] Top shape: 1 304 75 125 (2850000)
I0213 19:02:32.422256  8424 net.cpp:165] Memory required for data: 4033200028
I0213 19:02:32.422263  8424 layer_factory.hpp:77] Creating layer Dropout27
I0213 19:02:32.422274  8424 net.cpp:106] Creating Layer Dropout27
I0213 19:02:32.422281  8424 net.cpp:454] Dropout27 <- Convolution28
I0213 19:02:32.422289  8424 net.cpp:411] Dropout27 -> Dropout27
I0213 19:02:32.422363  8424 net.cpp:150] Setting up Dropout27
I0213 19:02:32.422374  8424 net.cpp:157] Top shape: 1 304 75 125 (2850000)
I0213 19:02:32.422381  8424 net.cpp:165] Memory required for data: 4044600028
I0213 19:02:32.422386  8424 layer_factory.hpp:77] Creating layer Pooling3
I0213 19:02:32.422397  8424 net.cpp:106] Creating Layer Pooling3
I0213 19:02:32.422405  8424 net.cpp:454] Pooling3 <- Dropout27
I0213 19:02:32.422415  8424 net.cpp:411] Pooling3 -> Pooling3
I0213 19:02:32.422459  8424 net.cpp:150] Setting up Pooling3
I0213 19:02:32.422472  8424 net.cpp:157] Top shape: 1 304 38 63 (727776)
I0213 19:02:32.422478  8424 net.cpp:165] Memory required for data: 4047511132
I0213 19:02:32.422483  8424 layer_factory.hpp:77] Creating layer Pooling3_Pooling3_0_split
I0213 19:02:32.422494  8424 net.cpp:106] Creating Layer Pooling3_Pooling3_0_split
I0213 19:02:32.422502  8424 net.cpp:454] Pooling3_Pooling3_0_split <- Pooling3
I0213 19:02:32.422510  8424 net.cpp:411] Pooling3_Pooling3_0_split -> Pooling3_Pooling3_0_split_0
I0213 19:02:32.422523  8424 net.cpp:411] Pooling3_Pooling3_0_split -> Pooling3_Pooling3_0_split_1
I0213 19:02:32.422591  8424 net.cpp:150] Setting up Pooling3_Pooling3_0_split
I0213 19:02:32.422603  8424 net.cpp:157] Top shape: 1 304 38 63 (727776)
I0213 19:02:32.422611  8424 net.cpp:157] Top shape: 1 304 38 63 (727776)
I0213 19:02:32.422617  8424 net.cpp:165] Memory required for data: 4053333340
I0213 19:02:32.422622  8424 layer_factory.hpp:77] Creating layer BatchNorm28
I0213 19:02:32.422636  8424 net.cpp:106] Creating Layer BatchNorm28
I0213 19:02:32.422642  8424 net.cpp:454] BatchNorm28 <- Pooling3_Pooling3_0_split_0
I0213 19:02:32.422653  8424 net.cpp:411] BatchNorm28 -> BatchNorm28
I0213 19:02:32.423032  8424 net.cpp:150] Setting up BatchNorm28
I0213 19:02:32.423048  8424 net.cpp:157] Top shape: 1 304 38 63 (727776)
I0213 19:02:32.423054  8424 net.cpp:165] Memory required for data: 4056244444
I0213 19:02:32.423065  8424 layer_factory.hpp:77] Creating layer Scale28
I0213 19:02:32.423075  8424 net.cpp:106] Creating Layer Scale28
I0213 19:02:32.423082  8424 net.cpp:454] Scale28 <- BatchNorm28
I0213 19:02:32.423094  8424 net.cpp:397] Scale28 -> BatchNorm28 (in-place)
I0213 19:02:32.423171  8424 layer_factory.hpp:77] Creating layer Scale28
I0213 19:02:32.423408  8424 net.cpp:150] Setting up Scale28
I0213 19:02:32.423421  8424 net.cpp:157] Top shape: 1 304 38 63 (727776)
I0213 19:02:32.423429  8424 net.cpp:165] Memory required for data: 4059155548
I0213 19:02:32.423436  8424 layer_factory.hpp:77] Creating layer ReLU28
I0213 19:02:32.423446  8424 net.cpp:106] Creating Layer ReLU28
I0213 19:02:32.423454  8424 net.cpp:454] ReLU28 <- BatchNorm28
I0213 19:02:32.423463  8424 net.cpp:397] ReLU28 -> BatchNorm28 (in-place)
I0213 19:02:32.423473  8424 net.cpp:150] Setting up ReLU28
I0213 19:02:32.423481  8424 net.cpp:157] Top shape: 1 304 38 63 (727776)
I0213 19:02:32.423487  8424 net.cpp:165] Memory required for data: 4062066652
I0213 19:02:32.423492  8424 layer_factory.hpp:77] Creating layer Convolution29
I0213 19:02:32.423503  8424 net.cpp:106] Creating Layer Convolution29
I0213 19:02:32.423511  8424 net.cpp:454] Convolution29 <- BatchNorm28
I0213 19:02:32.423519  8424 net.cpp:411] Convolution29 -> Convolution29
I0213 19:02:32.424955  8424 net.cpp:150] Setting up Convolution29
I0213 19:02:32.424971  8424 net.cpp:157] Top shape: 1 12 38 63 (28728)
I0213 19:02:32.424976  8424 net.cpp:165] Memory required for data: 4062181564
I0213 19:02:32.424983  8424 layer_factory.hpp:77] Creating layer Dropout28
I0213 19:02:32.424993  8424 net.cpp:106] Creating Layer Dropout28
I0213 19:02:32.425000  8424 net.cpp:454] Dropout28 <- Convolution29
I0213 19:02:32.425012  8424 net.cpp:411] Dropout28 -> Dropout28
I0213 19:02:32.425086  8424 net.cpp:150] Setting up Dropout28
I0213 19:02:32.425099  8424 net.cpp:157] Top shape: 1 12 38 63 (28728)
I0213 19:02:32.425106  8424 net.cpp:165] Memory required for data: 4062296476
I0213 19:02:32.425110  8424 layer_factory.hpp:77] Creating layer Concat25
I0213 19:02:32.425122  8424 net.cpp:106] Creating Layer Concat25
I0213 19:02:32.425129  8424 net.cpp:454] Concat25 <- Pooling3_Pooling3_0_split_1
I0213 19:02:32.425137  8424 net.cpp:454] Concat25 <- Dropout28
I0213 19:02:32.425145  8424 net.cpp:411] Concat25 -> Concat25
I0213 19:02:32.425189  8424 net.cpp:150] Setting up Concat25
I0213 19:02:32.425202  8424 net.cpp:157] Top shape: 1 316 38 63 (756504)
I0213 19:02:32.425209  8424 net.cpp:165] Memory required for data: 4065322492
I0213 19:02:32.425213  8424 layer_factory.hpp:77] Creating layer Concat25_Concat25_0_split
I0213 19:02:32.425225  8424 net.cpp:106] Creating Layer Concat25_Concat25_0_split
I0213 19:02:32.425231  8424 net.cpp:454] Concat25_Concat25_0_split <- Concat25
I0213 19:02:32.425242  8424 net.cpp:411] Concat25_Concat25_0_split -> Concat25_Concat25_0_split_0
I0213 19:02:32.425252  8424 net.cpp:411] Concat25_Concat25_0_split -> Concat25_Concat25_0_split_1
I0213 19:02:32.425317  8424 net.cpp:150] Setting up Concat25_Concat25_0_split
I0213 19:02:32.425328  8424 net.cpp:157] Top shape: 1 316 38 63 (756504)
I0213 19:02:32.425335  8424 net.cpp:157] Top shape: 1 316 38 63 (756504)
I0213 19:02:32.425341  8424 net.cpp:165] Memory required for data: 4071374524
I0213 19:02:32.425346  8424 layer_factory.hpp:77] Creating layer BatchNorm29
I0213 19:02:32.425359  8424 net.cpp:106] Creating Layer BatchNorm29
I0213 19:02:32.425365  8424 net.cpp:454] BatchNorm29 <- Concat25_Concat25_0_split_0
I0213 19:02:32.425376  8424 net.cpp:411] BatchNorm29 -> BatchNorm29
I0213 19:02:32.425750  8424 net.cpp:150] Setting up BatchNorm29
I0213 19:02:32.425765  8424 net.cpp:157] Top shape: 1 316 38 63 (756504)
I0213 19:02:32.425770  8424 net.cpp:165] Memory required for data: 4074400540
I0213 19:02:32.425781  8424 layer_factory.hpp:77] Creating layer Scale29
I0213 19:02:32.425791  8424 net.cpp:106] Creating Layer Scale29
I0213 19:02:32.425797  8424 net.cpp:454] Scale29 <- BatchNorm29
I0213 19:02:32.425808  8424 net.cpp:397] Scale29 -> BatchNorm29 (in-place)
I0213 19:02:32.425887  8424 layer_factory.hpp:77] Creating layer Scale29
I0213 19:02:32.426115  8424 net.cpp:150] Setting up Scale29
I0213 19:02:32.426128  8424 net.cpp:157] Top shape: 1 316 38 63 (756504)
I0213 19:02:32.426134  8424 net.cpp:165] Memory required for data: 4077426556
I0213 19:02:32.426143  8424 layer_factory.hpp:77] Creating layer ReLU29
I0213 19:02:32.426156  8424 net.cpp:106] Creating Layer ReLU29
I0213 19:02:32.426162  8424 net.cpp:454] ReLU29 <- BatchNorm29
I0213 19:02:32.426170  8424 net.cpp:397] ReLU29 -> BatchNorm29 (in-place)
I0213 19:02:32.426179  8424 net.cpp:150] Setting up ReLU29
I0213 19:02:32.426187  8424 net.cpp:157] Top shape: 1 316 38 63 (756504)
I0213 19:02:32.426193  8424 net.cpp:165] Memory required for data: 4080452572
I0213 19:02:32.426198  8424 layer_factory.hpp:77] Creating layer Convolution30
I0213 19:02:32.426210  8424 net.cpp:106] Creating Layer Convolution30
I0213 19:02:32.426218  8424 net.cpp:454] Convolution30 <- BatchNorm29
I0213 19:02:32.426226  8424 net.cpp:411] Convolution30 -> Convolution30
I0213 19:02:32.427697  8424 net.cpp:150] Setting up Convolution30
I0213 19:02:32.427712  8424 net.cpp:157] Top shape: 1 12 38 63 (28728)
I0213 19:02:32.427717  8424 net.cpp:165] Memory required for data: 4080567484
I0213 19:02:32.427726  8424 layer_factory.hpp:77] Creating layer Dropout29
I0213 19:02:32.427736  8424 net.cpp:106] Creating Layer Dropout29
I0213 19:02:32.427742  8424 net.cpp:454] Dropout29 <- Convolution30
I0213 19:02:32.427754  8424 net.cpp:411] Dropout29 -> Dropout29
I0213 19:02:32.427824  8424 net.cpp:150] Setting up Dropout29
I0213 19:02:32.427837  8424 net.cpp:157] Top shape: 1 12 38 63 (28728)
I0213 19:02:32.427844  8424 net.cpp:165] Memory required for data: 4080682396
I0213 19:02:32.427850  8424 layer_factory.hpp:77] Creating layer Concat26
I0213 19:02:32.427860  8424 net.cpp:106] Creating Layer Concat26
I0213 19:02:32.427867  8424 net.cpp:454] Concat26 <- Concat25_Concat25_0_split_1
I0213 19:02:32.427875  8424 net.cpp:454] Concat26 <- Dropout29
I0213 19:02:32.427883  8424 net.cpp:411] Concat26 -> Concat26
I0213 19:02:32.427932  8424 net.cpp:150] Setting up Concat26
I0213 19:02:32.427943  8424 net.cpp:157] Top shape: 1 328 38 63 (785232)
I0213 19:02:32.427949  8424 net.cpp:165] Memory required for data: 4083823324
I0213 19:02:32.427954  8424 layer_factory.hpp:77] Creating layer Concat26_Concat26_0_split
I0213 19:02:32.427963  8424 net.cpp:106] Creating Layer Concat26_Concat26_0_split
I0213 19:02:32.427970  8424 net.cpp:454] Concat26_Concat26_0_split <- Concat26
I0213 19:02:32.427981  8424 net.cpp:411] Concat26_Concat26_0_split -> Concat26_Concat26_0_split_0
I0213 19:02:32.427991  8424 net.cpp:411] Concat26_Concat26_0_split -> Concat26_Concat26_0_split_1
I0213 19:02:32.428056  8424 net.cpp:150] Setting up Concat26_Concat26_0_split
I0213 19:02:32.428067  8424 net.cpp:157] Top shape: 1 328 38 63 (785232)
I0213 19:02:32.428076  8424 net.cpp:157] Top shape: 1 328 38 63 (785232)
I0213 19:02:32.428081  8424 net.cpp:165] Memory required for data: 4090105180
I0213 19:02:32.428086  8424 layer_factory.hpp:77] Creating layer BatchNorm30
I0213 19:02:32.428098  8424 net.cpp:106] Creating Layer BatchNorm30
I0213 19:02:32.428107  8424 net.cpp:454] BatchNorm30 <- Concat26_Concat26_0_split_0
I0213 19:02:32.428115  8424 net.cpp:411] BatchNorm30 -> BatchNorm30
I0213 19:02:32.428505  8424 net.cpp:150] Setting up BatchNorm30
I0213 19:02:32.428519  8424 net.cpp:157] Top shape: 1 328 38 63 (785232)
I0213 19:02:32.428525  8424 net.cpp:165] Memory required for data: 4093246108
I0213 19:02:32.428535  8424 layer_factory.hpp:77] Creating layer Scale30
I0213 19:02:32.428545  8424 net.cpp:106] Creating Layer Scale30
I0213 19:02:32.428552  8424 net.cpp:454] Scale30 <- BatchNorm30
I0213 19:02:32.428565  8424 net.cpp:397] Scale30 -> BatchNorm30 (in-place)
I0213 19:02:32.428643  8424 layer_factory.hpp:77] Creating layer Scale30
I0213 19:02:32.428872  8424 net.cpp:150] Setting up Scale30
I0213 19:02:32.428886  8424 net.cpp:157] Top shape: 1 328 38 63 (785232)
I0213 19:02:32.428892  8424 net.cpp:165] Memory required for data: 4096387036
I0213 19:02:32.428901  8424 layer_factory.hpp:77] Creating layer ReLU30
I0213 19:02:32.428913  8424 net.cpp:106] Creating Layer ReLU30
I0213 19:02:32.428920  8424 net.cpp:454] ReLU30 <- BatchNorm30
I0213 19:02:32.428928  8424 net.cpp:397] ReLU30 -> BatchNorm30 (in-place)
I0213 19:02:32.428937  8424 net.cpp:150] Setting up ReLU30
I0213 19:02:32.428946  8424 net.cpp:157] Top shape: 1 328 38 63 (785232)
I0213 19:02:32.428951  8424 net.cpp:165] Memory required for data: 4099527964
I0213 19:02:32.428956  8424 layer_factory.hpp:77] Creating layer Convolution31
I0213 19:02:32.428967  8424 net.cpp:106] Creating Layer Convolution31
I0213 19:02:32.428974  8424 net.cpp:454] Convolution31 <- BatchNorm30
I0213 19:02:32.428983  8424 net.cpp:411] Convolution31 -> Convolution31
I0213 19:02:32.430477  8424 net.cpp:150] Setting up Convolution31
I0213 19:02:32.430492  8424 net.cpp:157] Top shape: 1 12 38 63 (28728)
I0213 19:02:32.430497  8424 net.cpp:165] Memory required for data: 4099642876
I0213 19:02:32.430505  8424 layer_factory.hpp:77] Creating layer Dropout30
I0213 19:02:32.430515  8424 net.cpp:106] Creating Layer Dropout30
I0213 19:02:32.430521  8424 net.cpp:454] Dropout30 <- Convolution31
I0213 19:02:32.430532  8424 net.cpp:411] Dropout30 -> Dropout30
I0213 19:02:32.430603  8424 net.cpp:150] Setting up Dropout30
I0213 19:02:32.430618  8424 net.cpp:157] Top shape: 1 12 38 63 (28728)
I0213 19:02:32.430624  8424 net.cpp:165] Memory required for data: 4099757788
I0213 19:02:32.430629  8424 layer_factory.hpp:77] Creating layer Concat27
I0213 19:02:32.430637  8424 net.cpp:106] Creating Layer Concat27
I0213 19:02:32.430645  8424 net.cpp:454] Concat27 <- Concat26_Concat26_0_split_1
I0213 19:02:32.430652  8424 net.cpp:454] Concat27 <- Dropout30
I0213 19:02:32.430663  8424 net.cpp:411] Concat27 -> Concat27
I0213 19:02:32.430708  8424 net.cpp:150] Setting up Concat27
I0213 19:02:32.430721  8424 net.cpp:157] Top shape: 1 340 38 63 (813960)
I0213 19:02:32.430727  8424 net.cpp:165] Memory required for data: 4103013628
I0213 19:02:32.430732  8424 layer_factory.hpp:77] Creating layer Concat27_Concat27_0_split
I0213 19:02:32.430740  8424 net.cpp:106] Creating Layer Concat27_Concat27_0_split
I0213 19:02:32.430747  8424 net.cpp:454] Concat27_Concat27_0_split <- Concat27
I0213 19:02:32.430757  8424 net.cpp:411] Concat27_Concat27_0_split -> Concat27_Concat27_0_split_0
I0213 19:02:32.430768  8424 net.cpp:411] Concat27_Concat27_0_split -> Concat27_Concat27_0_split_1
I0213 19:02:32.430835  8424 net.cpp:150] Setting up Concat27_Concat27_0_split
I0213 19:02:32.430847  8424 net.cpp:157] Top shape: 1 340 38 63 (813960)
I0213 19:02:32.430855  8424 net.cpp:157] Top shape: 1 340 38 63 (813960)
I0213 19:02:32.430860  8424 net.cpp:165] Memory required for data: 4109525308
I0213 19:02:32.430866  8424 layer_factory.hpp:77] Creating layer BatchNorm31
I0213 19:02:32.430877  8424 net.cpp:106] Creating Layer BatchNorm31
I0213 19:02:32.430884  8424 net.cpp:454] BatchNorm31 <- Concat27_Concat27_0_split_0
I0213 19:02:32.430893  8424 net.cpp:411] BatchNorm31 -> BatchNorm31
I0213 19:02:32.431282  8424 net.cpp:150] Setting up BatchNorm31
I0213 19:02:32.431295  8424 net.cpp:157] Top shape: 1 340 38 63 (813960)
I0213 19:02:32.431301  8424 net.cpp:165] Memory required for data: 4112781148
I0213 19:02:32.431313  8424 layer_factory.hpp:77] Creating layer Scale31
I0213 19:02:32.431323  8424 net.cpp:106] Creating Layer Scale31
I0213 19:02:32.431329  8424 net.cpp:454] Scale31 <- BatchNorm31
I0213 19:02:32.431340  8424 net.cpp:397] Scale31 -> BatchNorm31 (in-place)
I0213 19:02:32.431419  8424 layer_factory.hpp:77] Creating layer Scale31
I0213 19:02:32.431669  8424 net.cpp:150] Setting up Scale31
I0213 19:02:32.431684  8424 net.cpp:157] Top shape: 1 340 38 63 (813960)
I0213 19:02:32.431690  8424 net.cpp:165] Memory required for data: 4116036988
I0213 19:02:32.431699  8424 layer_factory.hpp:77] Creating layer ReLU31
I0213 19:02:32.431710  8424 net.cpp:106] Creating Layer ReLU31
I0213 19:02:32.431717  8424 net.cpp:454] ReLU31 <- BatchNorm31
I0213 19:02:32.431726  8424 net.cpp:397] ReLU31 -> BatchNorm31 (in-place)
I0213 19:02:32.431735  8424 net.cpp:150] Setting up ReLU31
I0213 19:02:32.431743  8424 net.cpp:157] Top shape: 1 340 38 63 (813960)
I0213 19:02:32.431749  8424 net.cpp:165] Memory required for data: 4119292828
I0213 19:02:32.431754  8424 layer_factory.hpp:77] Creating layer Convolution32
I0213 19:02:32.431766  8424 net.cpp:106] Creating Layer Convolution32
I0213 19:02:32.431772  8424 net.cpp:454] Convolution32 <- BatchNorm31
I0213 19:02:32.431783  8424 net.cpp:411] Convolution32 -> Convolution32
I0213 19:02:32.433316  8424 net.cpp:150] Setting up Convolution32
I0213 19:02:32.433331  8424 net.cpp:157] Top shape: 1 12 38 63 (28728)
I0213 19:02:32.433336  8424 net.cpp:165] Memory required for data: 4119407740
I0213 19:02:32.433344  8424 layer_factory.hpp:77] Creating layer Dropout31
I0213 19:02:32.433356  8424 net.cpp:106] Creating Layer Dropout31
I0213 19:02:32.433363  8424 net.cpp:454] Dropout31 <- Convolution32
I0213 19:02:32.433372  8424 net.cpp:411] Dropout31 -> Dropout31
I0213 19:02:32.433446  8424 net.cpp:150] Setting up Dropout31
I0213 19:02:32.433459  8424 net.cpp:157] Top shape: 1 12 38 63 (28728)
I0213 19:02:32.433465  8424 net.cpp:165] Memory required for data: 4119522652
I0213 19:02:32.433470  8424 layer_factory.hpp:77] Creating layer Concat28
I0213 19:02:32.433480  8424 net.cpp:106] Creating Layer Concat28
I0213 19:02:32.433486  8424 net.cpp:454] Concat28 <- Concat27_Concat27_0_split_1
I0213 19:02:32.433495  8424 net.cpp:454] Concat28 <- Dropout31
I0213 19:02:32.433506  8424 net.cpp:411] Concat28 -> Concat28
I0213 19:02:32.433550  8424 net.cpp:150] Setting up Concat28
I0213 19:02:32.433562  8424 net.cpp:157] Top shape: 1 352 38 63 (842688)
I0213 19:02:32.433568  8424 net.cpp:165] Memory required for data: 4122893404
I0213 19:02:32.433573  8424 layer_factory.hpp:77] Creating layer Concat28_Concat28_0_split
I0213 19:02:32.433581  8424 net.cpp:106] Creating Layer Concat28_Concat28_0_split
I0213 19:02:32.433591  8424 net.cpp:454] Concat28_Concat28_0_split <- Concat28
I0213 19:02:32.433599  8424 net.cpp:411] Concat28_Concat28_0_split -> Concat28_Concat28_0_split_0
I0213 19:02:32.433609  8424 net.cpp:411] Concat28_Concat28_0_split -> Concat28_Concat28_0_split_1
I0213 19:02:32.433676  8424 net.cpp:150] Setting up Concat28_Concat28_0_split
I0213 19:02:32.433687  8424 net.cpp:157] Top shape: 1 352 38 63 (842688)
I0213 19:02:32.433696  8424 net.cpp:157] Top shape: 1 352 38 63 (842688)
I0213 19:02:32.433701  8424 net.cpp:165] Memory required for data: 4129634908
I0213 19:02:32.433706  8424 layer_factory.hpp:77] Creating layer BatchNorm32
I0213 19:02:32.433718  8424 net.cpp:106] Creating Layer BatchNorm32
I0213 19:02:32.433725  8424 net.cpp:454] BatchNorm32 <- Concat28_Concat28_0_split_0
I0213 19:02:32.433734  8424 net.cpp:411] BatchNorm32 -> BatchNorm32
I0213 19:02:32.434118  8424 net.cpp:150] Setting up BatchNorm32
I0213 19:02:32.434131  8424 net.cpp:157] Top shape: 1 352 38 63 (842688)
I0213 19:02:32.434137  8424 net.cpp:165] Memory required for data: 4133005660
I0213 19:02:32.434147  8424 layer_factory.hpp:77] Creating layer Scale32
I0213 19:02:32.434160  8424 net.cpp:106] Creating Layer Scale32
I0213 19:02:32.434168  8424 net.cpp:454] Scale32 <- BatchNorm32
I0213 19:02:32.434176  8424 net.cpp:397] Scale32 -> BatchNorm32 (in-place)
I0213 19:02:32.434255  8424 layer_factory.hpp:77] Creating layer Scale32
I0213 19:02:32.434485  8424 net.cpp:150] Setting up Scale32
I0213 19:02:32.434499  8424 net.cpp:157] Top shape: 1 352 38 63 (842688)
I0213 19:02:32.434505  8424 net.cpp:165] Memory required for data: 4136376412
I0213 19:02:32.434514  8424 layer_factory.hpp:77] Creating layer ReLU32
I0213 19:02:32.434523  8424 net.cpp:106] Creating Layer ReLU32
I0213 19:02:32.434530  8424 net.cpp:454] ReLU32 <- BatchNorm32
I0213 19:02:32.434538  8424 net.cpp:397] ReLU32 -> BatchNorm32 (in-place)
I0213 19:02:32.434546  8424 net.cpp:150] Setting up ReLU32
I0213 19:02:32.434554  8424 net.cpp:157] Top shape: 1 352 38 63 (842688)
I0213 19:02:32.434559  8424 net.cpp:165] Memory required for data: 4139747164
I0213 19:02:32.434564  8424 layer_factory.hpp:77] Creating layer Convolution33
I0213 19:02:32.434576  8424 net.cpp:106] Creating Layer Convolution33
I0213 19:02:32.434582  8424 net.cpp:454] Convolution33 <- BatchNorm32
I0213 19:02:32.434594  8424 net.cpp:411] Convolution33 -> Convolution33
I0213 19:02:32.436885  8424 net.cpp:150] Setting up Convolution33
I0213 19:02:32.436903  8424 net.cpp:157] Top shape: 1 12 38 63 (28728)
I0213 19:02:32.436910  8424 net.cpp:165] Memory required for data: 4139862076
I0213 19:02:32.436919  8424 layer_factory.hpp:77] Creating layer Dropout32
I0213 19:02:32.436931  8424 net.cpp:106] Creating Layer Dropout32
I0213 19:02:32.436939  8424 net.cpp:454] Dropout32 <- Convolution33
I0213 19:02:32.436949  8424 net.cpp:411] Dropout32 -> Dropout32
I0213 19:02:32.437027  8424 net.cpp:150] Setting up Dropout32
I0213 19:02:32.437041  8424 net.cpp:157] Top shape: 1 12 38 63 (28728)
I0213 19:02:32.437047  8424 net.cpp:165] Memory required for data: 4139976988
I0213 19:02:32.437052  8424 layer_factory.hpp:77] Creating layer Concat29
I0213 19:02:32.437063  8424 net.cpp:106] Creating Layer Concat29
I0213 19:02:32.437072  8424 net.cpp:454] Concat29 <- Concat28_Concat28_0_split_1
I0213 19:02:32.437078  8424 net.cpp:454] Concat29 <- Dropout32
I0213 19:02:32.437088  8424 net.cpp:411] Concat29 -> Concat29
I0213 19:02:32.437134  8424 net.cpp:150] Setting up Concat29
I0213 19:02:32.437145  8424 net.cpp:157] Top shape: 1 364 38 63 (871416)
I0213 19:02:32.437151  8424 net.cpp:165] Memory required for data: 4143462652
I0213 19:02:32.437156  8424 layer_factory.hpp:77] Creating layer Concat29_Concat29_0_split
I0213 19:02:32.437168  8424 net.cpp:106] Creating Layer Concat29_Concat29_0_split
I0213 19:02:32.437176  8424 net.cpp:454] Concat29_Concat29_0_split <- Concat29
I0213 19:02:32.437185  8424 net.cpp:411] Concat29_Concat29_0_split -> Concat29_Concat29_0_split_0
I0213 19:02:32.437196  8424 net.cpp:411] Concat29_Concat29_0_split -> Concat29_Concat29_0_split_1
I0213 19:02:32.437263  8424 net.cpp:150] Setting up Concat29_Concat29_0_split
I0213 19:02:32.437275  8424 net.cpp:157] Top shape: 1 364 38 63 (871416)
I0213 19:02:32.437283  8424 net.cpp:157] Top shape: 1 364 38 63 (871416)
I0213 19:02:32.437288  8424 net.cpp:165] Memory required for data: 4150433980
I0213 19:02:32.437294  8424 layer_factory.hpp:77] Creating layer BatchNorm33
I0213 19:02:32.437305  8424 net.cpp:106] Creating Layer BatchNorm33
I0213 19:02:32.437314  8424 net.cpp:454] BatchNorm33 <- Concat29_Concat29_0_split_0
I0213 19:02:32.437325  8424 net.cpp:411] BatchNorm33 -> BatchNorm33
I0213 19:02:32.437712  8424 net.cpp:150] Setting up BatchNorm33
I0213 19:02:32.437729  8424 net.cpp:157] Top shape: 1 364 38 63 (871416)
I0213 19:02:32.437734  8424 net.cpp:165] Memory required for data: 4153919644
I0213 19:02:32.437744  8424 layer_factory.hpp:77] Creating layer Scale33
I0213 19:02:32.437753  8424 net.cpp:106] Creating Layer Scale33
I0213 19:02:32.437759  8424 net.cpp:454] Scale33 <- BatchNorm33
I0213 19:02:32.437768  8424 net.cpp:397] Scale33 -> BatchNorm33 (in-place)
I0213 19:02:32.437846  8424 layer_factory.hpp:77] Creating layer Scale33
I0213 19:02:32.438081  8424 net.cpp:150] Setting up Scale33
I0213 19:02:32.438094  8424 net.cpp:157] Top shape: 1 364 38 63 (871416)
I0213 19:02:32.438100  8424 net.cpp:165] Memory required for data: 4157405308
I0213 19:02:32.438110  8424 layer_factory.hpp:77] Creating layer ReLU33
I0213 19:02:32.438120  8424 net.cpp:106] Creating Layer ReLU33
I0213 19:02:32.438127  8424 net.cpp:454] ReLU33 <- BatchNorm33
I0213 19:02:32.438138  8424 net.cpp:397] ReLU33 -> BatchNorm33 (in-place)
I0213 19:02:32.438148  8424 net.cpp:150] Setting up ReLU33
I0213 19:02:32.438155  8424 net.cpp:157] Top shape: 1 364 38 63 (871416)
I0213 19:02:32.438161  8424 net.cpp:165] Memory required for data: 4160890972
I0213 19:02:32.438166  8424 layer_factory.hpp:77] Creating layer Convolution34
I0213 19:02:32.438176  8424 net.cpp:106] Creating Layer Convolution34
I0213 19:02:32.438184  8424 net.cpp:454] Convolution34 <- BatchNorm33
I0213 19:02:32.438194  8424 net.cpp:411] Convolution34 -> Convolution34
I0213 19:02:32.439815  8424 net.cpp:150] Setting up Convolution34
I0213 19:02:32.439829  8424 net.cpp:157] Top shape: 1 12 38 63 (28728)
I0213 19:02:32.439836  8424 net.cpp:165] Memory required for data: 4161005884
I0213 19:02:32.439843  8424 layer_factory.hpp:77] Creating layer Dropout33
I0213 19:02:32.439855  8424 net.cpp:106] Creating Layer Dropout33
I0213 19:02:32.439862  8424 net.cpp:454] Dropout33 <- Convolution34
I0213 19:02:32.439872  8424 net.cpp:411] Dropout33 -> Dropout33
I0213 19:02:32.439944  8424 net.cpp:150] Setting up Dropout33
I0213 19:02:32.439957  8424 net.cpp:157] Top shape: 1 12 38 63 (28728)
I0213 19:02:32.439963  8424 net.cpp:165] Memory required for data: 4161120796
I0213 19:02:32.439968  8424 layer_factory.hpp:77] Creating layer Concat30
I0213 19:02:32.439977  8424 net.cpp:106] Creating Layer Concat30
I0213 19:02:32.439985  8424 net.cpp:454] Concat30 <- Concat29_Concat29_0_split_1
I0213 19:02:32.439992  8424 net.cpp:454] Concat30 <- Dropout33
I0213 19:02:32.440003  8424 net.cpp:411] Concat30 -> Concat30
I0213 19:02:32.440048  8424 net.cpp:150] Setting up Concat30
I0213 19:02:32.440060  8424 net.cpp:157] Top shape: 1 376 38 63 (900144)
I0213 19:02:32.440066  8424 net.cpp:165] Memory required for data: 4164721372
I0213 19:02:32.440071  8424 layer_factory.hpp:77] Creating layer Concat30_Concat30_0_split
I0213 19:02:32.440079  8424 net.cpp:106] Creating Layer Concat30_Concat30_0_split
I0213 19:02:32.440086  8424 net.cpp:454] Concat30_Concat30_0_split <- Concat30
I0213 19:02:32.440098  8424 net.cpp:411] Concat30_Concat30_0_split -> Concat30_Concat30_0_split_0
I0213 19:02:32.440107  8424 net.cpp:411] Concat30_Concat30_0_split -> Concat30_Concat30_0_split_1
I0213 19:02:32.440176  8424 net.cpp:150] Setting up Concat30_Concat30_0_split
I0213 19:02:32.440187  8424 net.cpp:157] Top shape: 1 376 38 63 (900144)
I0213 19:02:32.440194  8424 net.cpp:157] Top shape: 1 376 38 63 (900144)
I0213 19:02:32.440201  8424 net.cpp:165] Memory required for data: 4171922524
I0213 19:02:32.440206  8424 layer_factory.hpp:77] Creating layer BatchNorm34
I0213 19:02:32.440217  8424 net.cpp:106] Creating Layer BatchNorm34
I0213 19:02:32.440223  8424 net.cpp:454] BatchNorm34 <- Concat30_Concat30_0_split_0
I0213 19:02:32.440232  8424 net.cpp:411] BatchNorm34 -> BatchNorm34
I0213 19:02:32.440621  8424 net.cpp:150] Setting up BatchNorm34
I0213 19:02:32.440635  8424 net.cpp:157] Top shape: 1 376 38 63 (900144)
I0213 19:02:32.440641  8424 net.cpp:165] Memory required for data: 4175523100
I0213 19:02:32.440651  8424 layer_factory.hpp:77] Creating layer Scale34
I0213 19:02:32.440663  8424 net.cpp:106] Creating Layer Scale34
I0213 19:02:32.440671  8424 net.cpp:454] Scale34 <- BatchNorm34
I0213 19:02:32.440680  8424 net.cpp:397] Scale34 -> BatchNorm34 (in-place)
I0213 19:02:32.440757  8424 layer_factory.hpp:77] Creating layer Scale34
I0213 19:02:32.440999  8424 net.cpp:150] Setting up Scale34
I0213 19:02:32.441012  8424 net.cpp:157] Top shape: 1 376 38 63 (900144)
I0213 19:02:32.441020  8424 net.cpp:165] Memory required for data: 4179123676
I0213 19:02:32.441028  8424 layer_factory.hpp:77] Creating layer ReLU34
I0213 19:02:32.441037  8424 net.cpp:106] Creating Layer ReLU34
I0213 19:02:32.441045  8424 net.cpp:454] ReLU34 <- BatchNorm34
I0213 19:02:32.441052  8424 net.cpp:397] ReLU34 -> BatchNorm34 (in-place)
I0213 19:02:32.441061  8424 net.cpp:150] Setting up ReLU34
I0213 19:02:32.441069  8424 net.cpp:157] Top shape: 1 376 38 63 (900144)
I0213 19:02:32.441076  8424 net.cpp:165] Memory required for data: 4182724252
I0213 19:02:32.441081  8424 layer_factory.hpp:77] Creating layer Convolution35
I0213 19:02:32.441094  8424 net.cpp:106] Creating Layer Convolution35
I0213 19:02:32.441102  8424 net.cpp:454] Convolution35 <- BatchNorm34
I0213 19:02:32.441112  8424 net.cpp:411] Convolution35 -> Convolution35
I0213 19:02:32.442754  8424 net.cpp:150] Setting up Convolution35
I0213 19:02:32.442769  8424 net.cpp:157] Top shape: 1 12 38 63 (28728)
I0213 19:02:32.442775  8424 net.cpp:165] Memory required for data: 4182839164
I0213 19:02:32.442782  8424 layer_factory.hpp:77] Creating layer Dropout34
I0213 19:02:32.442795  8424 net.cpp:106] Creating Layer Dropout34
I0213 19:02:32.442801  8424 net.cpp:454] Dropout34 <- Convolution35
I0213 19:02:32.442811  8424 net.cpp:411] Dropout34 -> Dropout34
I0213 19:02:32.442885  8424 net.cpp:150] Setting up Dropout34
I0213 19:02:32.442898  8424 net.cpp:157] Top shape: 1 12 38 63 (28728)
I0213 19:02:32.442904  8424 net.cpp:165] Memory required for data: 4182954076
I0213 19:02:32.442909  8424 layer_factory.hpp:77] Creating layer Concat31
I0213 19:02:32.442919  8424 net.cpp:106] Creating Layer Concat31
I0213 19:02:32.442925  8424 net.cpp:454] Concat31 <- Concat30_Concat30_0_split_1
I0213 19:02:32.442934  8424 net.cpp:454] Concat31 <- Dropout34
I0213 19:02:32.442944  8424 net.cpp:411] Concat31 -> Concat31
I0213 19:02:32.442988  8424 net.cpp:150] Setting up Concat31
I0213 19:02:32.443001  8424 net.cpp:157] Top shape: 1 388 38 63 (928872)
I0213 19:02:32.443006  8424 net.cpp:165] Memory required for data: 4186669564
I0213 19:02:32.443011  8424 layer_factory.hpp:77] Creating layer Concat31_Concat31_0_split
I0213 19:02:32.443022  8424 net.cpp:106] Creating Layer Concat31_Concat31_0_split
I0213 19:02:32.443029  8424 net.cpp:454] Concat31_Concat31_0_split <- Concat31
I0213 19:02:32.443037  8424 net.cpp:411] Concat31_Concat31_0_split -> Concat31_Concat31_0_split_0
I0213 19:02:32.443048  8424 net.cpp:411] Concat31_Concat31_0_split -> Concat31_Concat31_0_split_1
I0213 19:02:32.443115  8424 net.cpp:150] Setting up Concat31_Concat31_0_split
I0213 19:02:32.443126  8424 net.cpp:157] Top shape: 1 388 38 63 (928872)
I0213 19:02:32.443135  8424 net.cpp:157] Top shape: 1 388 38 63 (928872)
I0213 19:02:32.443140  8424 net.cpp:165] Memory required for data: 4194100540
I0213 19:02:32.443145  8424 layer_factory.hpp:77] Creating layer BatchNorm35
I0213 19:02:32.443156  8424 net.cpp:106] Creating Layer BatchNorm35
I0213 19:02:32.443163  8424 net.cpp:454] BatchNorm35 <- Concat31_Concat31_0_split_0
I0213 19:02:32.443174  8424 net.cpp:411] BatchNorm35 -> BatchNorm35
I0213 19:02:32.443554  8424 net.cpp:150] Setting up BatchNorm35
I0213 19:02:32.443567  8424 net.cpp:157] Top shape: 1 388 38 63 (928872)
I0213 19:02:32.443573  8424 net.cpp:165] Memory required for data: 4197816028
I0213 19:02:32.443583  8424 layer_factory.hpp:77] Creating layer Scale35
I0213 19:02:32.443600  8424 net.cpp:106] Creating Layer Scale35
I0213 19:02:32.443608  8424 net.cpp:454] Scale35 <- BatchNorm35
I0213 19:02:32.443617  8424 net.cpp:397] Scale35 -> BatchNorm35 (in-place)
I0213 19:02:32.443696  8424 layer_factory.hpp:77] Creating layer Scale35
I0213 19:02:32.443935  8424 net.cpp:150] Setting up Scale35
I0213 19:02:32.443949  8424 net.cpp:157] Top shape: 1 388 38 63 (928872)
I0213 19:02:32.443955  8424 net.cpp:165] Memory required for data: 4201531516
I0213 19:02:32.443964  8424 layer_factory.hpp:77] Creating layer ReLU35
I0213 19:02:32.443974  8424 net.cpp:106] Creating Layer ReLU35
I0213 19:02:32.443979  8424 net.cpp:454] ReLU35 <- BatchNorm35
I0213 19:02:32.443990  8424 net.cpp:397] ReLU35 -> BatchNorm35 (in-place)
I0213 19:02:32.444000  8424 net.cpp:150] Setting up ReLU35
I0213 19:02:32.444008  8424 net.cpp:157] Top shape: 1 388 38 63 (928872)
I0213 19:02:32.444013  8424 net.cpp:165] Memory required for data: 4205247004
I0213 19:02:32.444018  8424 layer_factory.hpp:77] Creating layer Convolution36
I0213 19:02:32.444031  8424 net.cpp:106] Creating Layer Convolution36
I0213 19:02:32.444037  8424 net.cpp:454] Convolution36 <- BatchNorm35
I0213 19:02:32.444046  8424 net.cpp:411] Convolution36 -> Convolution36
I0213 19:02:32.445739  8424 net.cpp:150] Setting up Convolution36
I0213 19:02:32.445754  8424 net.cpp:157] Top shape: 1 12 38 63 (28728)
I0213 19:02:32.445760  8424 net.cpp:165] Memory required for data: 4205361916
I0213 19:02:32.445766  8424 layer_factory.hpp:77] Creating layer Dropout35
I0213 19:02:32.445777  8424 net.cpp:106] Creating Layer Dropout35
I0213 19:02:32.445785  8424 net.cpp:454] Dropout35 <- Convolution36
I0213 19:02:32.445793  8424 net.cpp:411] Dropout35 -> Dropout35
I0213 19:02:32.445865  8424 net.cpp:150] Setting up Dropout35
I0213 19:02:32.445878  8424 net.cpp:157] Top shape: 1 12 38 63 (28728)
I0213 19:02:32.445883  8424 net.cpp:165] Memory required for data: 4205476828
I0213 19:02:32.445888  8424 layer_factory.hpp:77] Creating layer Concat32
I0213 19:02:32.445900  8424 net.cpp:106] Creating Layer Concat32
I0213 19:02:32.445907  8424 net.cpp:454] Concat32 <- Concat31_Concat31_0_split_1
I0213 19:02:32.445914  8424 net.cpp:454] Concat32 <- Dropout35
I0213 19:02:32.445924  8424 net.cpp:411] Concat32 -> Concat32
I0213 19:02:32.445967  8424 net.cpp:150] Setting up Concat32
I0213 19:02:32.445979  8424 net.cpp:157] Top shape: 1 400 38 63 (957600)
I0213 19:02:32.445986  8424 net.cpp:165] Memory required for data: 4209307228
I0213 19:02:32.445991  8424 layer_factory.hpp:77] Creating layer BatchNorm36
I0213 19:02:32.446002  8424 net.cpp:106] Creating Layer BatchNorm36
I0213 19:02:32.446009  8424 net.cpp:454] BatchNorm36 <- Concat32
I0213 19:02:32.446022  8424 net.cpp:411] BatchNorm36 -> BatchNorm36
I0213 19:02:32.446408  8424 net.cpp:150] Setting up BatchNorm36
I0213 19:02:32.446424  8424 net.cpp:157] Top shape: 1 400 38 63 (957600)
I0213 19:02:32.446430  8424 net.cpp:165] Memory required for data: 4213137628
I0213 19:02:32.446441  8424 layer_factory.hpp:77] Creating layer Scale36
I0213 19:02:32.446451  8424 net.cpp:106] Creating Layer Scale36
I0213 19:02:32.446458  8424 net.cpp:454] Scale36 <- BatchNorm36
I0213 19:02:32.446470  8424 net.cpp:397] Scale36 -> BatchNorm36 (in-place)
I0213 19:02:32.446548  8424 layer_factory.hpp:77] Creating layer Scale36
I0213 19:02:32.446782  8424 net.cpp:150] Setting up Scale36
I0213 19:02:32.446796  8424 net.cpp:157] Top shape: 1 400 38 63 (957600)
I0213 19:02:32.446802  8424 net.cpp:165] Memory required for data: 4216968028
I0213 19:02:32.446810  8424 layer_factory.hpp:77] Creating layer ReLU36
I0213 19:02:32.446820  8424 net.cpp:106] Creating Layer ReLU36
I0213 19:02:32.446826  8424 net.cpp:454] ReLU36 <- BatchNorm36
I0213 19:02:32.446837  8424 net.cpp:397] ReLU36 -> BatchNorm36 (in-place)
I0213 19:02:32.446847  8424 net.cpp:150] Setting up ReLU36
I0213 19:02:32.446854  8424 net.cpp:157] Top shape: 1 400 38 63 (957600)
I0213 19:02:32.446861  8424 net.cpp:165] Memory required for data: 4220798428
I0213 19:02:32.446866  8424 layer_factory.hpp:77] Creating layer Convolution37
I0213 19:02:32.446877  8424 net.cpp:106] Creating Layer Convolution37
I0213 19:02:32.446883  8424 net.cpp:454] Convolution37 <- BatchNorm36
I0213 19:02:32.446892  8424 net.cpp:411] Convolution37 -> Convolution37
I0213 19:02:32.453047  8424 net.cpp:150] Setting up Convolution37
I0213 19:02:32.453063  8424 net.cpp:157] Top shape: 1 400 38 63 (957600)
I0213 19:02:32.453070  8424 net.cpp:165] Memory required for data: 4224628828
I0213 19:02:32.453078  8424 layer_factory.hpp:77] Creating layer Dropout36
I0213 19:02:32.453088  8424 net.cpp:106] Creating Layer Dropout36
I0213 19:02:32.453095  8424 net.cpp:454] Dropout36 <- Convolution37
I0213 19:02:32.453107  8424 net.cpp:411] Dropout36 -> Dropout36
I0213 19:02:32.453186  8424 net.cpp:150] Setting up Dropout36
I0213 19:02:32.453198  8424 net.cpp:157] Top shape: 1 400 38 63 (957600)
I0213 19:02:32.453203  8424 net.cpp:165] Memory required for data: 4228459228
I0213 19:02:32.453209  8424 layer_factory.hpp:77] Creating layer Pooling4
I0213 19:02:32.453218  8424 net.cpp:106] Creating Layer Pooling4
I0213 19:02:32.453225  8424 net.cpp:454] Pooling4 <- Dropout36
I0213 19:02:32.453236  8424 net.cpp:411] Pooling4 -> Pooling4
I0213 19:02:32.453284  8424 net.cpp:150] Setting up Pooling4
I0213 19:02:32.453296  8424 net.cpp:157] Top shape: 1 400 19 32 (243200)
I0213 19:02:32.453302  8424 net.cpp:165] Memory required for data: 4229432028
I0213 19:02:32.453307  8424 layer_factory.hpp:77] Creating layer BatchNorm37
I0213 19:02:32.453318  8424 net.cpp:106] Creating Layer BatchNorm37
I0213 19:02:32.453325  8424 net.cpp:454] BatchNorm37 <- Pooling4
I0213 19:02:32.453336  8424 net.cpp:411] BatchNorm37 -> BatchNorm37
I0213 19:02:32.453721  8424 net.cpp:150] Setting up BatchNorm37
I0213 19:02:32.453733  8424 net.cpp:157] Top shape: 1 400 19 32 (243200)
I0213 19:02:32.453739  8424 net.cpp:165] Memory required for data: 4230404828
I0213 19:02:32.453750  8424 layer_factory.hpp:77] Creating layer Scale37
I0213 19:02:32.453763  8424 net.cpp:106] Creating Layer Scale37
I0213 19:02:32.453770  8424 net.cpp:454] Scale37 <- BatchNorm37
I0213 19:02:32.453778  8424 net.cpp:397] Scale37 -> BatchNorm37 (in-place)
I0213 19:02:32.453857  8424 layer_factory.hpp:77] Creating layer Scale37
I0213 19:02:32.454089  8424 net.cpp:150] Setting up Scale37
I0213 19:02:32.454103  8424 net.cpp:157] Top shape: 1 400 19 32 (243200)
I0213 19:02:32.454109  8424 net.cpp:165] Memory required for data: 4231377628
I0213 19:02:32.454118  8424 layer_factory.hpp:77] Creating layer ReLU37
I0213 19:02:32.454128  8424 net.cpp:106] Creating Layer ReLU37
I0213 19:02:32.454134  8424 net.cpp:454] ReLU37 <- BatchNorm37
I0213 19:02:32.454144  8424 net.cpp:397] ReLU37 -> BatchNorm37 (in-place)
I0213 19:02:32.454154  8424 net.cpp:150] Setting up ReLU37
I0213 19:02:32.454162  8424 net.cpp:157] Top shape: 1 400 19 32 (243200)
I0213 19:02:32.454169  8424 net.cpp:165] Memory required for data: 4232350428
I0213 19:02:32.454174  8424 layer_factory.hpp:77] Creating layer rpn_conv/3x3
I0213 19:02:32.454185  8424 net.cpp:106] Creating Layer rpn_conv/3x3
I0213 19:02:32.454191  8424 net.cpp:454] rpn_conv/3x3 <- BatchNorm37
I0213 19:02:32.454200  8424 net.cpp:411] rpn_conv/3x3 -> rpn/output
I0213 19:02:32.516767  8424 net.cpp:150] Setting up rpn_conv/3x3
I0213 19:02:32.516809  8424 net.cpp:157] Top shape: 1 512 19 32 (311296)
I0213 19:02:32.516815  8424 net.cpp:165] Memory required for data: 4233595612
I0213 19:02:32.516830  8424 layer_factory.hpp:77] Creating layer rpn_relu/3x3
I0213 19:02:32.516846  8424 net.cpp:106] Creating Layer rpn_relu/3x3
I0213 19:02:32.516855  8424 net.cpp:454] rpn_relu/3x3 <- rpn/output
I0213 19:02:32.516867  8424 net.cpp:397] rpn_relu/3x3 -> rpn/output (in-place)
I0213 19:02:32.516882  8424 net.cpp:150] Setting up rpn_relu/3x3
I0213 19:02:32.516891  8424 net.cpp:157] Top shape: 1 512 19 32 (311296)
I0213 19:02:32.516896  8424 net.cpp:165] Memory required for data: 4234840796
I0213 19:02:32.516901  8424 layer_factory.hpp:77] Creating layer rpn/output_rpn_relu/3x3_0_split
I0213 19:02:32.516957  8424 net.cpp:106] Creating Layer rpn/output_rpn_relu/3x3_0_split
I0213 19:02:32.516965  8424 net.cpp:454] rpn/output_rpn_relu/3x3_0_split <- rpn/output
I0213 19:02:32.516973  8424 net.cpp:411] rpn/output_rpn_relu/3x3_0_split -> rpn/output_rpn_relu/3x3_0_split_0
I0213 19:02:32.516984  8424 net.cpp:411] rpn/output_rpn_relu/3x3_0_split -> rpn/output_rpn_relu/3x3_0_split_1
I0213 19:02:32.517061  8424 net.cpp:150] Setting up rpn/output_rpn_relu/3x3_0_split
I0213 19:02:32.517073  8424 net.cpp:157] Top shape: 1 512 19 32 (311296)
I0213 19:02:32.517081  8424 net.cpp:157] Top shape: 1 512 19 32 (311296)
I0213 19:02:32.517086  8424 net.cpp:165] Memory required for data: 4237331164
I0213 19:02:32.517093  8424 layer_factory.hpp:77] Creating layer rpn_cls_score
I0213 19:02:32.517113  8424 net.cpp:106] Creating Layer rpn_cls_score
I0213 19:02:32.517120  8424 net.cpp:454] rpn_cls_score <- rpn/output_rpn_relu/3x3_0_split_0
I0213 19:02:32.517132  8424 net.cpp:411] rpn_cls_score -> rpn_cls_score
I0213 19:02:32.518695  8424 net.cpp:150] Setting up rpn_cls_score
I0213 19:02:32.518723  8424 net.cpp:157] Top shape: 1 50 19 32 (30400)
I0213 19:02:32.518733  8424 net.cpp:165] Memory required for data: 4237452764
I0213 19:02:32.518743  8424 layer_factory.hpp:77] Creating layer rpn_cls_score_rpn_cls_score_0_split
I0213 19:02:32.518754  8424 net.cpp:106] Creating Layer rpn_cls_score_rpn_cls_score_0_split
I0213 19:02:32.518761  8424 net.cpp:454] rpn_cls_score_rpn_cls_score_0_split <- rpn_cls_score
I0213 19:02:32.518774  8424 net.cpp:411] rpn_cls_score_rpn_cls_score_0_split -> rpn_cls_score_rpn_cls_score_0_split_0
I0213 19:02:32.518786  8424 net.cpp:411] rpn_cls_score_rpn_cls_score_0_split -> rpn_cls_score_rpn_cls_score_0_split_1
I0213 19:02:32.518858  8424 net.cpp:150] Setting up rpn_cls_score_rpn_cls_score_0_split
I0213 19:02:32.518870  8424 net.cpp:157] Top shape: 1 50 19 32 (30400)
I0213 19:02:32.518877  8424 net.cpp:157] Top shape: 1 50 19 32 (30400)
I0213 19:02:32.518883  8424 net.cpp:165] Memory required for data: 4237695964
I0213 19:02:32.518888  8424 layer_factory.hpp:77] Creating layer rpn_bbox_pred
I0213 19:02:32.518904  8424 net.cpp:106] Creating Layer rpn_bbox_pred
I0213 19:02:32.518913  8424 net.cpp:454] rpn_bbox_pred <- rpn/output_rpn_relu/3x3_0_split_1
I0213 19:02:32.518923  8424 net.cpp:411] rpn_bbox_pred -> rpn_bbox_pred
I0213 19:02:32.521042  8424 net.cpp:150] Setting up rpn_bbox_pred
I0213 19:02:32.521059  8424 net.cpp:157] Top shape: 1 100 19 32 (60800)
I0213 19:02:32.521064  8424 net.cpp:165] Memory required for data: 4237939164
I0213 19:02:32.521072  8424 layer_factory.hpp:77] Creating layer rpn_cls_score_reshape
I0213 19:02:32.521083  8424 net.cpp:106] Creating Layer rpn_cls_score_reshape
I0213 19:02:32.521091  8424 net.cpp:454] rpn_cls_score_reshape <- rpn_cls_score_rpn_cls_score_0_split_0
I0213 19:02:32.521102  8424 net.cpp:411] rpn_cls_score_reshape -> rpn_cls_score_reshape
I0213 19:02:32.521167  8424 net.cpp:150] Setting up rpn_cls_score_reshape
I0213 19:02:32.521178  8424 net.cpp:157] Top shape: 1 2 475 32 (30400)
I0213 19:02:32.521183  8424 net.cpp:165] Memory required for data: 4238060764
I0213 19:02:32.521188  8424 layer_factory.hpp:77] Creating layer rpn-data
I0213 19:02:32.523942  8424 net.cpp:106] Creating Layer rpn-data
I0213 19:02:32.523960  8424 net.cpp:454] rpn-data <- rpn_cls_score_rpn_cls_score_0_split_1
I0213 19:02:32.523970  8424 net.cpp:454] rpn-data <- gt_boxes
I0213 19:02:32.523978  8424 net.cpp:454] rpn-data <- im_info
I0213 19:02:32.523985  8424 net.cpp:454] rpn-data <- data_input-data_0_split_1
I0213 19:02:32.523993  8424 net.cpp:411] rpn-data -> rpn_labels
I0213 19:02:32.524004  8424 net.cpp:411] rpn-data -> rpn_bbox_targets
I0213 19:02:32.524029  8424 net.cpp:411] rpn-data -> rpn_bbox_inside_weights
I0213 19:02:32.524037  8424 net.cpp:411] rpn-data -> rpn_bbox_outside_weights
I0213 19:02:32.524842  8424 net.cpp:150] Setting up rpn-data
I0213 19:02:32.524859  8424 net.cpp:157] Top shape: 1 1 475 32 (15200)
I0213 19:02:32.524868  8424 net.cpp:157] Top shape: 1 100 19 32 (60800)
I0213 19:02:32.524874  8424 net.cpp:157] Top shape: 1 100 19 32 (60800)
I0213 19:02:32.524881  8424 net.cpp:157] Top shape: 1 100 19 32 (60800)
I0213 19:02:32.524888  8424 net.cpp:165] Memory required for data: 4238851164
I0213 19:02:32.524893  8424 layer_factory.hpp:77] Creating layer rpn_loss_cls
I0213 19:02:32.524916  8424 net.cpp:106] Creating Layer rpn_loss_cls
I0213 19:02:32.524924  8424 net.cpp:454] rpn_loss_cls <- rpn_cls_score_reshape
I0213 19:02:32.524931  8424 net.cpp:454] rpn_loss_cls <- rpn_labels
I0213 19:02:32.524940  8424 net.cpp:411] rpn_loss_cls -> rpn_cls_loss
…
